model_CNN_dinamica_1.onnx (onnx, 18758 bytes, 6 tensors)

conv1.weight f4 [64, 1, 2]
00000000: e8fb 5bbe e816 10be 050c 70bc 5159 47be
00000010: 8b7e a03e a9d1 35bf 8fbf 9b3e 53b1 acbe
00000020: 4819 f93e 821d c7bd dfdb 313f de85 2cbf
00000030: bbc2 033f 9a8e b6be 51c6 f33e 66f1 b7be
00000040: 5aa8 173e aa6c 9bbc 792d 4d3e 1d60 2d3f
00000050: 533c ccbe 3daf d5be eb6c 183f e64b 063f
00000060: a0cf 643e d986 ab3e 0f81 de3e db07 373e
00000070: 2cc9 03be a0c0 8dbd 5a7a f83e 2f78 c6be
00000080: 339e 01bf 2112 533b f949 d0be f1fe fcbe
00000090: a108 093f b5a9 19bf 4f5f cbbe d99d a6be
000000a0: d0a1 7abd 2c35 cabe 684e 3cbe f098 1bbd
000000b0: 69af 5a3e cb13 75be 7432 1e3f bd3a a63e
000000c0: 7059 00bf 6c19 4cbd 9d50 a2be 5de5 ad3e
000000d0: 65bf 7dbe e751 2a3f f236 043f 9007 05be
000000e0: e48d 1d3f fa65 da3e 7a11 ca3e 6e72 0bbf
000000f0: c54d a9be 0143 323f fbc5 f23e 7c24 abbe
00000100: 6a0b 11bf a7a1 f3be fe79 7fbe 6af1 0f3f
00000110: c8ef 973e 28e4 23be a63e 87bc 2299 313f
00000120: e080 03bf 2bc4 0dbf 4027 f13e 20ee 043e
00000130: 7a47 00bf bd8c 223f 6e4c 43be 0b70 db3e
00000140: 2476 683b 7289 c53e 035d 913e 6704 113f
00000150: efa7 a43e 4864 7d3e 901b 02bd fe7c 15bf
00000160: fb1f d73e 5bfd 083f d7f9 a6be bd3f 1abc
00000170: eb79 8fbc b88a b23e 9d07 2ebf 81e2 373e
00000180: 2c0d 6f3e d651 a13e c301 81be 7303 eabe
00000190: d482 62be 57a2 22bf 7805 4f3e 713c a93e
000001a0: 6360 e6be 4838 f73e 289d 16bf c035 38be
000001b0: 2ec6 f83d 01f6 c23c 8128 f73d 92d5 1c3f
000001c0: d93b d13e e146 36be 57ac 29bf 64c6 32bf
000001d0: f678 ca3d dda9 903e b2b7 c7be a79e d1be
000001e0: 7612 29bf 8f4b 13bf cb64 2b3f 516d 6e3d
000001f0: 2680 a23e 4608 b6be b6df 993e 4a3c 03bf
-0.21482813 -0.14071238 -0.014651303 -0.19467665 0.31346545 -0.7102304 0.30419585 -0.33729038
0.486521 -0.09722425 0.6947612 -0.67391765 0.5146901 -0.3565567 0.4761224 -0.3592636
0.14810315 -0.018972714 0.20036878 0.6772478 -0.39889774 -0.4173526 0.59541196 0.5245956
0.22344828 0.33501318 0.4345784 0.1787409 -0.1286971 -0.06921506 0.48530847 -0.38763568
-0.5063202 0.003220685 -0.40681437 -0.49413255 0.5352879 -0.6002458 -0.39721152 -0.32542303
-0.061189473 -0.39493692 -0.18389285 -0.03798765 0.21355976 -0.23933332 0.61795735 0.3246669
-0.5013647 -0.04982893 -0.31702128 0.33964053 -0.24780042 0.66531223 0.5164634 -0.12991166
0.6154463 0.42655927 0.3946646 -0.5447148 -0.33067146 0.6963349 0.47416672 -0.33426273
-0.5665804 -0.47584268 -0.2494888 0.56227744 0.29675126 -0.16005003 -0.016509365 0.6937429
-0.5136852 -0.55377454 0.47100258 0.12981462 -0.50109065 0.63496 -0.19072124 0.4285892
0.0035470808 0.38581425 0.28391275 0.5664734 0.32159373 0.24745286 -0.031764567 -0.5839385
0.42016587 0.5351159 -0.32612488 -0.00941461 -0.01751419 0.3487146 -0.67980367 0.17957498
0.23344868 0.31507748 -0.25196657 -0.45705757 -0.2212022 -0.6352896 0.2021693 0.33053926
-0.44995412 0.48285127 -0.5883355 -0.17989254 0.12147175 0.023798944 0.120682724 0.6126338
0.40865973 -0.17800476 -0.66278595 -0.6983397 0.09886353 0.28254595 -0.39007336 -0.40941355
-0.66043794 -0.5753717 0.6695067 0.05820972 0.31738394 -0.35553187 0.3005349 -0.5126387

conv1.bias f4 [64]
00000000: e0be f0be 9caf 573d d9b2 f0be f52f 2bbe
00000010: 13ff 5abe d7f6 c23d be1f edbe da62 dc3d
00000020: 4ae9 713a 9ec0 94be 8bfa 78be 8638 093f
00000030: 33bf f2be 2a5b 2f3d 64f6 c6bd 43b0 3cbc
00000040: 672a 883e 555f e0be 740e aa3e 2209 c43d
00000050: 78c8 25bf 9bdd f1be ba68 313f 6442 293f
00000060: 3373 a73e 1f5f 3e3e d996 02bf 94ba a03e
00000070: 4fe2 133f 9543 0e3f da8a 1bbf 8693 adbe
00000080: aa95 f43e be5a f9be d805 9cbe 7080 5fbd
00000090: f66c b6bd 3382 d5bc b16d cb3e 5614 183f
000000a0: 3855 1d3f 74ca 0c3f a05e c8be 042b 24be
000000b0: 9440 f4be 6a32 06be 3573 a63b b2e0 cf3e
000000c0: c343 663e 16ac 103f 57e0 2c3f 4798 01bf
000000d0: 62cd 96be 937b 253e ddc6 1f3f 557c 34be
000000e0: 2fc7 023e 69bf ec3d f0c7 0b3f 0d46 29bf
000000f0: 99be cabe 0df6 21bf 4177 c7be dc07 34bf
-0.47020626 0.05265771 -0.4701145 -0.16717513 -0.21386366 0.09519737 -0.4631328 0.10761042
0.0009228183 -0.29053205 -0.24314325 0.5360187 -0.47411498 0.04281155 -0.09714964 -0.011516633
0.2659485 -0.43822733 0.33214152 0.095720544 -0.64759016 -0.47239384 0.69300425 0.6611693
0.32705078 0.18590973 -0.51011425 0.31392348 0.57767195 0.5557187 -0.60758746 -0.33901614
0.47770435 -0.48702043 -0.30473208 -0.054565847 -0.089075014 -0.02606306 0.39732125 0.5940603
0.6145816 0.5499642 -0.39134693 -0.16032034 -0.4770552 -0.13105169 0.0050796517 0.40601116
0.22486787 0.5651258 0.67529815 -0.5062298 -0.2945357 0.16160421 0.62412816 -0.17625554
0.12771295 0.11559946 0.54601955 -0.66122514 -0.3959854 -0.6326607 -0.3895817 -0.7032449

conv2.weight f4 [32, 64, 2]
00000000: 08b4 89bc ccb3 83bd 5106 ebbc 08fc 07bd
00000010: 9f65 603d 1b91 b83c 86a1 703d c396 813d
00000020: d02b 66bc 9e75 56bd aae2 cf3c a2a3 933c
00000030: 0c8b 4c3c 26fa b0bc 370e 3f3d dc9a 9a3d
00000040: e4b2 993d 2cd6 a6bc 7ddb 983d 7117 c73d
00000050: 5129 8abd 7556 f03c c799 583d 7936 803b
00000060: e375 c43c b42b 8fbd 63ce 8f3d 0407 c83d
00000070: dfda 40bd 2b92 b13d 6da4 593d 0740 adbb
00000080: 0bd7 b63d 60b0 53bd aebe 923c 7a87 1fbd
00000090: 1678 9d3d 8278 8e3d 23c7 94bd 76f1 2ebd
000000a0: 2c59 c5bc b1ac edbc 09a2 14bd c558 b13d
000000b0: 0c09 493d dc0e 563d 86f1 03bc 5cde b73d
000000c0: 2610 8abc 58c9 2a3d 46df 313c f383 e03c
000000d0: d539 b53d e2e9 833d d667 ac3d 8f66 f93c
000000e0: 46c7 e8bc 9f33 9dbd 8396 5dbd cc6d 163d
000000f0: 972c 88bd 8459 cebc 8ca8 00bd a950 0abd
00000100: 397d 6c3d 3ca6 f53c 1b7b 8c3d 91f3 523d
00000110: 5967 863d a13d 4bbd 7881 5fbd bcf0 8e3d
00000120: 1283 413d 4de1 813d 20f2 4f3c 4e51 8ebd
00000130: 9760 a43c 6272 7a3c 35d9 1f3c 48df 89bd
00000140: 9296 623d 5957 423c f071 38bd c789 853d
00000150: 653e 9d3d 4a86 9bbc 8f2c 2dbd 2071 9cbd
00000160: f91b 0ebd 9563 283d 0a23 86bd af15 8e3d
00000170: 1a4d 5b3c a897 04bd f39a 313d 3105 4c3c
00000180: 9090 2bbd 7c45 19bd 3873 f73c 6f1c 8cbd
00000190: 1af3 39bb b762 0cbc f03d 9f3d 6e93 b83d
000001a0: 9b77 703d 664d c9bc 04db 68bc 12a8 cdbc
000001b0: 64aa 023d 0564 633d f4c7 f6bc 51d7 8d3d
000001c0: 8670 9ebc 1ae9 bd3b d191 01bd 5044 83bd
000001d0: 2b1b 1d3d b92f b63d 88a9 efba e91e 963d
000001e0: 4ac7 94bd 2869 ee3c 605b 9b3c 02f5 85bd
000001f0: 884c 733d 81a0 973c 0265 b83d e213 ffbb
00000200: 401d 273b 1ed8 3a3d d319 31bc 20ad 8bbc
00000210: 2f04 8b3d c1da 5ebd de71 44ba c353 843d
00000220: 7a6c 0bbd 2009 f53b 2755 173d 08bf 63bd
00000230: 49d9 833d 1e5f 5a3d 3cf6 00bc de36 4e3d
00000240: 2af7 c43d 4000 5cbc dcc5 573d 38cc 94bc
00000250: e062 febc acd0 d2bc 4a98 c03d 29dc 68bd
00000260: dcff 8bbd 300b 1d3c a86c 07bd dfe8 a53d
00000270: 6113 73bd 27a8 08bd dd45 c93c 8650 213d
00000280: 123d a8bc 2a82 773d 5468 9c3d 4026 393c
00000290: d600 c83d 8aaa b3bd b72f 4ebd c069 f73b
000002a0: 9e13 1f3d 68f8 28bc 7f49 9a3d 3447 d0bc
000002b0: e790 6cbb f7ac 9ebd 15c7 293d f4ea b1bc
000002c0: a6a4 9f3c 13da 55bd 2f1b b83d 8b27 90bd
000002d0: 6e1a 6b3d 9ae9 26bd 6ef1 893d 476f 81bd
000002e0: 3b34 023c bb2e 5ebd 0287 a93d eda9 42bd
000002f0: 27a5 00bd a9c2 a63d 1537 d43c 568c 433d
00000300: d3b1 083c 4277 8cbd bb86 903d 5eac 7c3d
00000310: f10b fbbb c07e a5bc bd28 fb3b 8859 babc
00000320: 4280 99bd 4008 813c 594c 4c3d 8819 8cbc
00000330: d74f 9dbd d7b0 af3d ed03 843d 3089 acbc
00000340: e710 feba 95f9 29bd 8d85 c93d 6afe 8ebd
00000350: 06aa 17bb f057 b83c 5227 49ba 35f9 863d
00000360: 85d9 ba3d c274 283d 6e2c 80bd bb08 893d
00000370: 0c20 b13c 4ed4 38bd 0632 643d 46f4 3b3d
00000380: ee0f b0bc f0ed 973b 57f0 d03c 744d 9bbc
00000390: 3219 6bbd 4ac0 533d dfc4 29bc 21bf a53d
000003a0: 9f34 e83c 2ef6 4b3d 014c ae3d e072 7fbc
000003b0: b3d8 bb3d 6cba b3bc 99af 6cbd 9920 89bd
000003c0: 461a 2c3c f0cc 803c fdd0 3e3d e845 453c
000003d0: 4799 813c 25be 2fbd 73e1 e7bc c05f 7bbc
000003e0: 2a77 90bd ad6e 8e3d 213f 4dbd 5f05 a9bd
000003f0: 28de 793d 9a2e 11bd dcbe a53d 4977 8bbd
-0.016809478 -0.06430778 -0.028689535 -0.03319934 0.054784413 0.02253013 0.05874779 0.06327584
-0.014048532 -0.052358262 0.025376637 0.018022362 0.012484323 -0.021603655 0.046644416 0.07549068
0.07504824 -0.020365797 0.07463739 0.09721268 -0.06746162 0.0293381 0.05288103 0.0039127436
0.023981994 -0.069907576 0.07021787 0.09766963 -0.04708373 0.086704575 0.053135324 -0.0052871737
0.08927735 -0.051681876 0.017913189 -0.03894756 0.0768892 0.06956579 -0.07264545 -0.042710744
-0.024090372 -0.02901301 -0.03628734 0.086595096 0.049080893 0.052260265 -0.008053189 0.089779586
-0.016853403 0.041695923 0.010856455 0.027406668 0.08848921 0.06441094 0.08418243 0.030444412
-0.028415333 -0.076758616 -0.054098617 0.036725804 -0.0664913 -0.025189169 -0.03141074 -0.03376833
0.05773661 0.029986493 0.06859418 0.051501814 0.06562681 -0.04961932 -0.05456683 0.0697951
0.04724414 0.06341801 0.012692004 -0.069491014 0.020065589 0.01528606 0.009756376 -0.06732041
0.055319376 0.011861646 -0.045030534 0.065204196 0.076779164 -0.018984932 -0.042278823 -0.076387644
-0.034694646 0.041110594 -0.06549652 0.069377296 0.013385082 -0.032371193 0.04336066 0.01245241
-0.041885912 -0.03741978 0.030206308 -0.06841361 -0.002837366 -0.008568457 0.077754855 0.09012495
0.058707815 -0.02457304 -0.014212374 -0.025104556 0.03190078 0.055515308 -0.030124642 0.06925834
-0.019340765 0.00579561 -0.031633202 -0.06409514 0.038355988 0.08895821 -0.0018284777 0.073301144
-0.07264574 0.029102877 0.01896447 -0.06540872 0.059399158 0.018509151 0.09003641 -0.0077843526
0.0025499612 0.04561626 -0.01080938 -0.017050326 0.06787907 -0.05440784 -0.0007493774 0.06461289
-0.034039 0.0074778944 0.036946442 -0.055602103 0.06437928 0.053313367 -0.007871207 0.050345294
0.09617455 -0.013427794 0.052678928 -0.018163785 -0.031053007 -0.025734268 0.09404047 -0.056850586
-0.06835911 0.009585187 -0.033062607 0.08101057 -0.059344653 -0.033363488 0.024569446 0.039383434
-0.020536933 0.06042687 0.076370865 0.011300623 0.097657844 -0.08772762 -0.050338473 0.007550448
0.038837068 -0.010313131 0.075335495 -0.025424577 -0.003609711 -0.07747834 0.041449625 -0.02171848
0.01948769 -0.052209925 0.0898956 -0.07038792 0.057398252 -0.040750124 0.06735502 -0.063200526
0.007947023 -0.054243784 0.08277704 -0.047525335 -0.0314075 0.08142597 0.025905171 0.047741257
0.008343178 -0.06858684 0.07056948 0.06168782 -0.0076613356 -0.02020204 0.0076647685 -0.02274777
-0.07495166 0.015751004 0.0498775 -0.017102018 -0.07681244 0.085786514 0.06446061 -0.02106151
-0.0019383699 -0.041497786 0.09839926 -0.069821194 -0.0023142113 0.02250287 -0.00076734007 0.06590501
0.0912352 0.041126974 -0.06258474 0.06691118 0.021621726 -0.045124345 0.05571177 0.045887254
-0.02149197 0.0046365187 0.025505228 -0.018957831 -0.057397075 0.051697053 -0.010361879 0.080930956
0.028345404 0.049795322 0.0851059 -0.015591353 0.091721915 -0.021939479 -0.05778465 -0.06695671
0.010504311 0.015722722 0.046586026 0.012040593 0.015820159 -0.042905945 -0.028305745 -0.015342653
-0.07053979 0.069547035 -0.050109033 -0.082529776 0.06100288 -0.035444833 0.08093044 -0.06809861

conv2.bias f4 [32]
00000000: f1c8 3cbd 8ad0 5a3d 61f4 913c 35c9 2d3d
00000010: 6a28 ab3c 45b6 923d ffcb a93d ea3a f3bb
00000020: f194 10bd 9aaf 323d 3ba1 ba3d 3c0a 5a3d
00000030: d95e 8dbd 218d ffbc 4b6c 323d e872 7a3d
00000040: 0990 a0bc f5aa a33d e65e d63b 2442 1bbd
00000050: c027 883d 47dc bd3d 9566 90bc 49d7 b1bb
00000060: d0bd 81bc 02fc 133d 271a f1bc 3066 5aba
00000070: 062f ba3d cace 7bbd 043d a73c 175f 81bc
-0.04609007 0.053421535 0.017816724 0.042428214 0.020893294 0.071636714 0.08290862 -0.0074227946
-0.03529829 0.043624498 0.091127835 0.053232417 -0.069028564 -0.031195225 0.043560307 0.06114474
-0.019599931 0.07991592 0.0065420745 -0.037904873 0.06648207 0.0927053 -0.01762704 -0.0054272753
-0.01583758 0.036129005 -0.029431416 -0.0008331267 0.09091 -0.061476506 0.020414837 -0.015792413

fc1.weight f4 [2, 32]
00000000: fdaf 713d be00 163e 8e5d 7c3d 6a79 fa3c
00000010: 9ed5 ac3d 8b55 8bbd 2072 113e 56ae 00be
00000020: 8cd2 ae3d 15d6 1cbd 42b2 a43d a8f1 183e
00000030: 3542 8a3d b0fb ccbd 459c 113e 572e 92bc
00000040: 572d 27be cbd8 5fbc 65fa 27be f4c2 d1ba
00000050: 5c87 163e 6299 e83d b70e 22be 20b6 c5bd
00000060: 9909 1dbe 7696 2a3e 8946 88bd 1d14 a6bd
00000070: a613 bb3d 0419 4fbd 499a 243e 9222 093d
00000080: 513b 0e3e 0db2 f8bc a73a 833d 5c65 9cbc
00000090: e695 0bbe 3853 053e d26b 05be d538 26be
000000a0: 9e1e 0a3e 8d13 073e d8a4 033a f13c 893d
000000b0: dd18 113d bccb debd 28a2 cf3d 57f4 053a
000000c0: 5ffe 8ebc fd75 b73d 558d 6f3d ab53 1e3e
000000d0: 6278 9f3b 55ce 0c3e f437 67bd ab61 a83d
000000e0: 8caa 1a3e 7a1e 9dbd 05f8 e43d d1f2 10bd
000000f0: ee0a 313e aa42 ea3d 25ea 1a3e c9ab 0b3e
0.059005726 0.1464872 0.06161266 0.030575473 0.08439182 -0.068034254 0.14203691 -0.12566504
0.085362524 -0.038290102 0.080418125 0.14935935 0.06750909 -0.10008943 0.14219768 -0.017844362
-0.1632589 -0.013662527 -0.16404112 -0.0016003535 0.14700073 0.113573804 -0.15825926 -0.09653878
-0.15335692 0.16658959 -0.066540785 -0.08109305 0.09134607 -0.050560966 0.1607448 0.033480234
0.13889815 -0.030358339 0.064076714 -0.0190913 -0.136314 0.13020027 -0.13029411 -0.16232617
0.13488242 0.13191052 0.0005021817 0.06701077 0.035424102 -0.10878703 0.10138351 0.0005109957
-0.017455278 0.08958051 0.058484394 0.15461604 0.0048666457 0.13750584 -0.056449845 0.08221754
0.15104121 -0.076718286 0.111801185 -0.035387818 0.17289326 0.114384964 0.15128382 0.1363975

fc1.bias f4 [2]
00000000: 2c6a d2bd 9f5a 8e3c
-0.10274157 0.017377196
