model_MLP_DINAMICA_FINAL.onnx (onnx, 328370 bytes, 8 tensors)

fc1.weight f4 [100, 756]
000000 b0 de f6 3b 46 05 b7 3c e1 2a 0c 3d 00 cd f9 3b
       0.0075338706 0.022341382 0.03422058 0.007623315
000010 f9 e7 57 bc 16 0e c3 bb 8b d4 5d bb 09 c9 93 bc
       -0.013177865 -0.005952607 -0.003384861 -0.018040197
000020 af 65 01 bc b4 66 1a 3c 35 20 48 3b 6a 9f 46 bc
       -0.007897778 0.0094239 0.0030536775 -0.012122968
000030 b2 f3 4c bd e6 76 60 3c 26 4e b2 bc e5 b8 cb 3b
       -0.050037093 0.013700223 -0.02176578 0.0062171095
000040 be a7 07 bd 04 31 fb 3b 32 ac d3 bc 96 b8 41 bb
       -0.033118956 0.007665755 -0.025838945 -0.0029559485
000050 78 b1 f1 3b 6a 1a f3 bc 27 76 30 bd b5 73 fb bc
       0.0073758923 -0.029675681 -0.04308143 -0.030694822
000060 cc b0 0d bc 86 00 e2 bc 2c ad 0e ba 19 3a 9a 3c
       -0.008648109 -0.02758814 -0.0005442675 0.018826531
000070 80 46 97 37 c9 96 77 bc dc e0 02 3c 41 15 37 bc
       1.8033432e-05 -0.015111634 0.007988181 -0.011174501
000080 91 02 6a 3c f8 d3 c5 39 ee db e5 bb 2b 33 81 3c
       0.014282838 0.00037732697 -0.007014743 0.01577147
000090 69 1d 68 bc f8 02 2a bd 92 b8 02 bd 21 93 15 bb
       -0.014167168 -0.041506737 -0.0319143 -0.0022823291
0000a0 69 f5 3c 3b b4 62 12 bd 76 fd 2a bd 56 37 4d bc
       0.00288328 -0.035738662 -0.041745625 -0.0125254
0000b0 e2 b8 0f bb 42 f1 8a 3c e2 79 84 bb 8a 7a 05 bd
       -0.0021930267 0.016960744 -0.00404285 -0.032587565
0000c0 f4 0b e5 ba 45 b4 a7 3c d2 b7 bd bc 35 1d 97 bc
       -0.0017474876 0.020471701 -0.023158941 -0.018446544
0000d0 bb a9 1f bd 31 e2 53 bd 56 40 43 bd 7b 1d 11 bd
       -0.038980227 -0.051729385 -0.047668777 -0.035428505
0000e0 00 a9 1a bd 79 31 a5 bc 09 ee 4b bd 87 f3 a5 bc
       -0.037758827 -0.020165192 -0.049787555 -0.020257724
0000f0 ff b8 80 bc a6 4a 11 bd 7e db 33 bd cc b0 13 bd
       -0.015713213 -0.03547158 -0.043910496 -0.03605728
000100 a9 c6 4a 3c 60 94 2d bd 41 b3 ae 3c 31 53 7c bc
       0.012376466 -0.04237783 0.02132571 -0.015400694
000110 94 e2 76 bc dc 4c 22 3a 4e e1 f4 bc 52 0b b6 bc
       -0.015068669 0.00061912625 -0.02989259 -0.022222195
000120 bd b7 cb bc be a2 a2 3b 6c b6 26 3c c7 6e ae 3b
       -0.024867887 0.004963248 0.010175329 0.0053232643
000130 9a 96 d6 ba 46 92 8e 3c 1a 67 c6 ba c6 51 66 3c
       -0.0016371787 0.017403733 -0.0015136928 0.014057582
000140 1a dc 5a 3c f2 87 4f bd 0c cb a8 3c 73 dc e8 bb
       0.01335814 -0.050666757 0.020604633 -0.0071063577
000150 b0 1c 43 bd 57 7b 97 3c f4 b1 94 bc 51 7f ec bc
       -0.04763478 0.01849143 -0.01815126 -0.028869303
000160 95 2a d6 3b 63 80 50 bd 98 5a cd bc 9a 5b 50 bc
       0.006535838 -0.05090369 -0.025067613 -0.012717152
000170 89 02 f1 bc 69 2c 15 3c 9b 72 28 bb ac 2e 4a 3c
       -0.029420154 0.0091048265 -0.0025703076 0.012340229
000180 b0 43 8f 3a f2 07 1d bd 8b 0e 00 3c 4a 01 6a 3c
       0.0010930207 -0.038337655 0.007815967 0.014282534
000190 d8 c6 08 bb 64 98 4c bd b4 e8 0d 3c 88 97 f5 3a
       -0.0020870473 -0.04995002 0.008661438 0.0018737176
0001a0 42 31 22 bd 1a 79 e2 bc 12 91 48 bd 74 6f fd bc
       -0.039597757 -0.027645636 -0.048966475 -0.030936934
0001b0 a0 f0 da bc ca 7c 87 3c c6 ca 8b 3c c2 4f 44 bd
       -0.026726067 0.016538996 0.017064463 -0.047927625
0001c0 5d 66 a6 3c 1c 7d 48 3a 5d 56 40 bd 3a ab a0 bc
       0.020312482 0.0007648037 -0.046957362 -0.019612897
0001d0 84 74 4c 3c 72 71 41 bc 68 83 c3 3a 4d 5c 2c bd
       0.012478951 -0.011806833 0.0014916481 -0.042080212
0001e0 fa ee 50 bc a7 8c 2a 3c 94 1a ab 3b 0b 65 e7 bc
       -0.012752289 0.010409511 0.005221674 -0.028246423
0001f0 16 40 d0 bc 3d 86 4a bc 99 f8 82 bc 5e 85 ba bc
       -0.025421184 -0.012361106 -0.015987681 -0.022768673
000200 36 26 43 bd 89 3b c1 bc be 8a cd bb 3f 64 54 bd
       -0.047643863 -0.023587959 -0.006272643 -0.051853415
000210 a5 02 9a 3b 24 4f 0f bd 38 53 29 ba c2 eb 25 bd
       0.0047000223 -0.034987584 -0.0006459239 -0.04050804
000220 8a db 32 bd 2e 74 b4 ba 54 ec 19 3c ea ea b8 bc
       -0.0436664 -0.0013767534 0.009394724 -0.022572953
000230 59 8e 7c bc 26 40 a3 bc 28 7a e2 bc a3 81 c3 bc
       -0.015414798 -0.01992805 -0.02764614 -0.023865527
000240 b7 0a 31 bb cc 6f 28 bc 04 ef 58 bc 94 14 34 bc
       -0.0027014443 -0.010280561 -0.0132405795 -0.010991234
000250 cd 8d 11 bd ec 56 32 bd b6 50 17 bd e6 41 48 bd
       -0.035535622 -0.043539926 -0.036942206 -0.04889097
000260 85 1b 2c 3b 9e 0d e8 bc 78 4a 7d bc 56 27 1b bd
       0.002626152 -0.028326806 -0.015459649 -0.03787931
000270 76 46 18 bd 69 60 01 bd 7d 27 18 bd dc 6c ee bc
       -0.03717657 -0.031586085 -0.037147034 -0.029104643
000280 84 9c 04 bd 8e 43 97 bc ad 0c f2 bb aa 9a 4d bd
       -0.032375827 -0.01846483 -0.007386765 -0.050196327
000290 b6 6e 1e bd bf 3e 44 bd 8e 6f 3d bd a8 50 6d 3b
       -0.0386798 -0.0479114 -0.046248965 0.0036211405
0002a0 08 4e 14 3c fe 1d 0a bd 5e 25 0d bd c1 6d 86 bc
       0.009051807 -0.03372001 -0.034459464 -0.016409757
0002b0 0e 73 76 3b 97 51 72 3c f0 ed d8 bb b1 38 1a 3c
       0.00376052 0.01478996 -0.0066201612 0.00941293
0002c0 52 3c a2 bc b0 61 3a bd 75 69 2b bb bf e2 4d bd
       -0.019804154 -0.04550332 -0.0026155387 -0.05026507
0002d0 3c 78 94 bb 29 fe 66 3c 23 81 fb bc 43 bd 33 bc
       -0.0045309346 0.014098682 -0.030701226 -0.0109704165
0002e0 f2 84 99 bb 8b f0 a9 3b 7c 88 b1 3c 66 c6 45 bd
       -0.004685038 0.0051861457 0.021671526 -0.04828491
0002f0 f5 c4 46 3b f8 6e 99 3c 24 ca d0 bb 5c af 6d bc
       0.0030329798 0.018729672 -0.0063717533 -0.014507141
000300 70 db 86 3a 8f f4 4f bd e2 7d d9 3b 99 aa 5e 3c
       0.0010288786 -0.05077034 0.006637321 0.013590478
000310 af 11 d0 bc 19 1d a1 bb f1 4e ac 3c 7f 44 f6 bc
       -0.025399057 -0.004916799 0.021033736 -0.030061958
000320 de b5 1c 3c 22 f6 88 ba b0 35 ad 3c 66 19 1a bc
       0.009564845 -0.001044933 0.021143764 -0.0094054695
000330 63 60 66 bc 60 e8 dc bc 2e 42 4f 3b 04 ec 4a 3c
       -0.014061066 -0.026966274 0.003162514 0.012385372
000340 d9 07 b5 3c 7e 89 8b 3c a6 57 57 bb 14 b1 86 ba
       0.022098469 0.017033335 -0.003285864 -0.0010276162
000350 52 06 a7 bb 3c 72 f8 bb 99 f9 92 bc 2e 6c ff bc
       -0.005097189 -0.007581977 -0.017941283 -0.031179514
000360 95 8c a3 3c ff 29 c2 bb 67 bc 6f bc a1 43 e1 3b
       0.019964496 -0.0059254165 -0.014632321 0.006874517
000370 28 6c 09 bd be 5c 80 bb 14 62 0b bd 6f 05 30 bd
       -0.03355041 -0.0039173057 -0.03402908 -0.042973932
000380 a4 d1 80 bc bc d0 23 bd a0 f2 36 bd b2 85 f5 bb
       -0.015724964 -0.039993986 -0.04466498 -0.0074927444
000390 d8 43 49 bd 12 ba 87 ba b2 03 85 3c 08 57 01 bd
       -0.049136966 -0.0010355136 0.016237114 -0.03157714
0003a0 83 e5 49 bd d6 5a fd 3b 49 ac 27 bd 10 05 5f bc
       -0.049291145 0.0077317758 -0.04093579 -0.013612047
0003b0 a7 72 32 bc 20 c0 b7 b9 0a 3b 30 bc ba e9 3d bd
       -0.010891593 -0.00035047624 -0.0107562635 -0.046365477
0003c0 4b d2 29 3c 94 9a 70 3c 40 96 c9 bc ac 26 21 3c
       0.010365079 0.014685292 -0.024607778 0.00983588
0003d0 4d 44 4b 3c 5b 53 52 bb ba 2e b7 bc d3 e7 c1 bb
       0.012406421 -0.003209314 -0.022361148 -0.005917528
0003e0 70 92 5d bb d0 dc 1a bd a9 25 26 bc 73 a6 cf bb
       -0.0033809207 -0.03780824 -0.010140815 -0.006336981
0003f0 20 0c 3e bb f4 2e b7 bc ad 8f 01 3d dc c8 c4 3c
       -0.0028998926 -0.022361256 0.03163116 0.024021558

fc1.bias f4 [100]
000000 6e 0e 7a bc 4c ec 8a 3c 90 ab cc bc f3 e0 f2 bc
       -0.015262229 0.016958378 -0.024984151 -0.02964828
000010 60 c6 12 3b 40 83 02 bb f7 36 9f 3b 13 f4 12 bc
       0.0022396073 -0.0019914657 0.0048588472 -0.008969325
000020 1f b4 0c 3d a5 0d 51 bd 98 16 d5 ba 1c 0d 32 3c
       0.034351464 -0.051038403 -0.0016257344 0.010867383
000030 b8 4a 10 3c 6d 08 0b bd e0 36 0f 3b 3f a0 76 bd
       0.008806877 -0.033943582 0.0021852776 -0.060211416
000040 a2 cf a1 3c de 32 e6 bc 20 0a 46 bc 66 14 7c 3d
       0.019752327 -0.028100427 -0.012087375 0.06154289
000050 fe 2c 2c 3d d7 7c b3 3c c9 84 23 bc 1e 94 b4 bc
       0.042035095 0.021910114 -0.009980389 -0.022043284
000060 5c 8d c7 bc 64 4a 39 bc d1 22 a2 bc a7 c9 4c bc
       -0.024359398 -0.01130924 -0.019791992 -0.01249925
000070 87 3a cc bc bd 41 85 bc e0 06 aa bb f6 03 40 bd
       -0.024930252 -0.016266698 -0.005188808 -0.046878777
000080 3f 15 03 3d 9f e0 b8 bc 22 8d e3 3c f0 55 ea bc
       0.032002684 -0.022568045 0.027777258 -0.028605431
000090 38 56 37 3d e7 1f 01 3b 3a d4 97 bc c6 be c6 bc
       0.04475996 0.0019702853 -0.018533815 -0.02426089
0000a0 c8 83 d5 3c b4 4d 2e 3c c1 27 72 bd b0 6b bf 3b
       0.026063815 0.010638643 -0.059119944 0.005841695
0000b0 72 44 4e bd 1d 83 93 bc f0 5e 35 bb c8 44 20 3c
       -0.050358243 -0.018006856 -0.0027674995 0.009782024
0000c0 d6 b6 88 3c 10 6e 57 bb 9d ee b0 bc 8e bc 94 3c
       0.016688745 -0.0032872 -0.021598155 0.018156316
0000d0 4e af dc 3c b3 eb 30 bb ec 81 9f bc c3 02 d2 3c
       0.02693906 -0.0026995956 -0.019471131 0.025636083
0000e0 26 99 86 bc 3e 6a 47 bc 14 40 9b bc 55 39 00 bd
       -0.016430449 -0.012171326 -0.018951453 -0.031304676
0000f0 30 9e 28 bd e2 fb a0 bc 60 ae 88 3a be b7 0e bd
       -0.041166484 -0.019651357 0.0010427944 -0.0348432
000100 2e 0d 45 3b 85 32 0e 3d 8e f4 7b bc 28 0e 54 3a
       0.003006767 0.034716148 -0.015378131 0.00080892676
000110 59 41 53 bd 44 36 07 bd d4 ed 45 3c c3 49 14 3d
       -0.051575992 -0.033010736 0.012080628 0.036203157
000120 0b 34 0a bd 9f a0 29 bd dc 8d 06 bd 4b 92 60 3c
       -0.03374104 -0.041412946 -0.03285013 0.013706754
000130 28 62 41 3d 9c b6 ad bb d0 10 2d 3d e6 d5 8d 3c
       0.04721275 -0.0053013097 0.04225236 0.017313909
000140 08 95 d4 bc 51 29 36 bd b6 45 65 bc a0 3c 17 3b
       -0.02594997 -0.044472996 -0.013993671 0.0023076907
000150 29 5c 33 bd 12 28 ee 3c 40 c8 82 3c b4 43 3b bd
       -0.043789063 0.029071841 0.015964627 -0.045718864
000160 10 60 1c 3b c2 1e cb bc bf 6b 7a 3c a0 4f c0 b9
       0.0023860969 -0.02479494 0.015284478 -0.0003668042
000170 08 e7 8a 3c dd 81 c0 bc a5 92 fb bc 14 68 51 bc
       0.016955867 -0.023499424 -0.030709574 -0.012781162
000180 06 4a 61 bd 3a 51 a0 3c 64 92 03 bc 4a ea 3a bc
       -0.055002235 0.019569982 -0.008030508 -0.011408398

fc2.weight f4 [50, 100]
000000 0f 31 91 3d fe 0d 0f 3d bf 1a 99 3d b5 ea 92 bd
       0.07089435 0.034925453 0.074758045 -0.07173673
000010 98 3e 5a bc a3 32 61 bd 2f ea 4d bd f8 bc c9 3d
       -0.013320588 -0.05497993 -0.050272163 0.09850496
000020 b3 ae 2c bd ca 59 dd 3c 6a a1 a9 bd 62 30 0f 3d
       -0.042158794 0.027020354 -0.082827404 0.03495825
000030 97 5b 49 bd 25 a2 b1 bc da 5f 12 bd df 2a 47 3d
       -0.049159613 -0.021683762 -0.035735942 0.04862487
000040 9b 0c 56 3c ce 0c 5b 3d f8 7d b4 3d ae a1 04 3d
       0.013064529 0.05347901 0.08813089 0.032380752
000050 74 2a 18 3d cf b6 d4 bd f6 fa 95 3c 60 1b 5d 3d
       0.03714986 -0.103864305 0.018308144 0.053981185
000060 d3 75 45 3c d3 6f e2 bd 86 66 58 3d b9 f6 a3 bd
       0.012052017 -0.11056485 0.05283215 -0.08006043
000070 54 8c 18 3c 06 0a 36 3d c2 9a 90 bd c1 52 42 bd
       0.009310801 0.044443153 -0.07060768 -0.0474422
000080 30 67 e4 3b af 3c 64 3d 60 d5 99 bc 72 54 9e 3d
       0.0069703087 0.055721935 -0.018778503 0.077309504
000090 c7 91 56 bd 25 9f 53 bd 0f 53 28 3d 30 42 e7 3d
       -0.052385118 -0.051665444 0.041094836 0.11291921
0000a0 07 20 35 bd e8 a9 32 3c 76 7d e8 3d 8e 6f 6e 3d
       -0.044219997 0.010904767 0.11352055 0.058211856
0000b0 00 a4 6f bd 3e f8 07 3d ec 51 a6 bc 69 dc 9d bd
       -0.058506012 0.033195727 -0.020302735 -0.077080555
0000c0 80 1c c2 bd 6d 5d 1c bd 4e fc 78 3d b4 97 74 bd
       -0.09478092 -0.038175035 0.06078749 -0.059714988
0000d0 f0 0a 77 bd d8 a9 f8 3d a0 b7 80 3c 96 74 ad bd
       -0.060313165 0.1214177 0.01571256 -0.08469503
0000e0 d8 23 57 bc 25 13 23 bd be e9 f7 3c a9 70 ac bd
       -0.013131104 -0.03981318 0.030262824 -0.08419926
0000f0 6f bf a6 3d f6 d3 99 3c 18 74 21 3c 35 a3 ae 3d
       0.08141982 0.018777829 0.009854339 0.08527223
000100 c9 e6 4d bc 58 b1 9c bd 10 a3 2c bd cc 08 a8 3d
       -0.0125672305 -0.07651013 -0.042147696 0.08204803
000110 9a 9b a0 3d 92 e9 56 3d b6 fa 7c 3d 52 cc 9c bd
       0.07842179 0.052468844 0.061762534 -0.076561585
000120 53 c9 86 3d 58 60 06 3e 11 84 a3 3d e4 bd ac 3d
       0.06581368 0.1312269 0.07984174 0.08434656
000130 da a0 d6 bd 4e b2 d8 bd f5 59 49 bd 50 fb 00 bd
       -0.10479899 -0.10580884 -0.049158055 -0.03148967
000140 ce f7 7a 3d 72 86 fd 3d 1f b1 15 3d 34 37 8b bd
       0.06127148 0.12379159 0.03654587 -0.067976385
000150 46 89 82 bd aa fb af bd d0 a7 22 bd f2 c7 d3 3d
       -0.06373839 -0.08592923 -0.03971082 0.10340871
000160 58 1c 1f bc e8 a8 20 bc 39 cd 23 3d 19 ae 2b 3d
       -0.0097113475 -0.009805895 0.039990637 0.04191408
000170 25 f7 8f bd da ee 27 bd ff d8 a4 3d 0a 52 38 3d
       -0.07029561 -0.04099927 0.08049201 0.045000114
000180 bf b1 c7 bd 94 33 fe bc fb 5d 1d 3d a2 85 03 bc
       -0.09750699 -0.031030454 0.038419705 -0.008027466
000190 9f c5 8f 3d 6c 15 df bc c6 e8 52 3d 87 7c 75 bd
       0.07020115 -0.027231894 0.05149152 -0.05993321
0001a0 71 59 89 3d 9a 43 15 3d 8c 34 b6 bc 8f 3a 89 3d
       0.06706513 0.036441423 -0.022241853 0.06700622
0001b0 0c ad e2 bc 28 c0 94 bc b0 97 37 3c f0 f1 11 3c
       -0.027670406 -0.018158033 0.011205599 0.00890778
0001c0 c6 6a 3a 3d 73 6a 7c bd a8 88 dc bc 16 94 08 bd
       0.045511983 -0.061624955 -0.026920632 -0.03334435
0001d0 64 f9 df 3c 98 a9 0e bc 49 26 bc 3d f4 ef b8 bc
       0.027340598 -0.0087074265 0.0918699 -0.022575356
0001e0 98 80 83 3c e3 b1 9e 3d 29 00 93 3d 18 63 0c 3c
       0.01605253 0.07748773 0.07177765 0.008568548
0001f0 a7 bb ca bd ed f6 76 bd f8 d7 8e 3c 2a 32 a3 bd
       -0.09899073 -0.06029408 0.017436966 -0.079685524
000200 b7 78 c1 bd d6 35 11 3d d0 d0 8c bd 30 5c 8b bd
       -0.09446853 0.035451733 -0.06875765 -0.06804693
000210 20 72 14 bd 00 94 82 bc e5 9b c3 3d f6 86 3b 3d
       -0.03624165 -0.015939713 0.09551219 0.045783006
000220 30 ba 12 bc 92 75 5d 3d 36 8d 6e 3d 20 c0 ad bc
       -0.008955523 0.054067202 0.058240138 -0.021209776
000230 c0 5a 43 3c dc 1a 06 bd f0 49 2e bd ae 9b 01 3d
       0.011923492 -0.03274046 -0.04255098 0.03164261
000240 79 a5 9c 3d c0 d8 06 3c 60 56 d8 bc e6 08 9e bd
       0.07648749 0.008230388 -0.026408374 -0.07716541
000250 06 2b 68 3d 42 87 7d 3d 80 79 f3 bb c5 59 a4 3d
       0.056681655 0.06189657 -0.0074302554 0.08024935
000260 c8 5c 9b 3c 80 63 ec bc 42 d0 c4 bd 60 41 0a bb
       0.01896514 -0.028856039 -0.096100345 -0.0021096095
000270 d9 d4 9b 3d 98 42 87 bc 15 5b 92 bd f4 4a b2 3c
       0.07608957 -0.016511247 -0.07146279 0.021764256
000280 3d 26 c5 3d 3a ca 6c bd 83 c0 96 bd c0 ea 8f ba
       0.09626434 -0.057810046 -0.073609374 -0.0010979995
000290 de e2 a2 bd 62 32 ae bd 12 a6 98 bd 83 96 c5 bd
       -0.07953428 -0.085057035 -0.074535504 -0.096478485
0002a0 b0 df 42 bd 4a 49 40 bd 04 31 18 bd 49 a8 cb 3d
       -0.047576606 -0.046944894 -0.03715612 0.09944207
0002b0 1d b8 9a bd 20 bd 9c 3c 30 8d c7 bd 52 8a 0d 3d
       -0.07554648 0.01913315 -0.09743726 0.03455574
0002c0 74 dd 90 bc 23 47 85 3d 3b c1 b3 bd d8 d5 4b 3c
       -0.017683722 0.06507709 -0.0877709 0.012441121
0002d0 d8 56 15 3c 53 ff 53 bd 95 8c 8a 3d 5a 69 70 bd
       0.009114943 -0.051757168 0.06765095 -0.05869422
0002e0 74 36 09 bd 45 89 80 bd 25 dd 8a 3d ff e0 9f 3d
       -0.033499196 -0.06276182 0.06780461 0.078065865
0002f0 3a ba b0 bd 34 76 d2 3c f2 fd ba bd 12 cf a5 bd
       -0.0862927 0.02569113 -0.091304675 -0.08096136
000300 6d 4f a7 3d 9a 62 5d 3d 58 e6 88 3c ea 97 64 3d
       0.08169446 0.054049112 0.016711399 0.05580894
000310 66 73 3b 3d ad 8f 47 bd 40 d7 b5 3a 97 91 b5 3d
       0.04576435 -0.048721004 0.0013873354 0.0886566
000320 84 c5 73 bd 80 e6 09 3a 34 07 e5 bc b6 b8 ac bd
       -0.059514537 0.00052604824 -0.027957536 -0.08433668
000330 8e 83 7e 3d 82 81 71 3d 41 18 63 bd fd bf c0 bd
       0.06213718 0.0589614 -0.055443052 -0.09411619
000340 d4 51 bb 3c 2c 37 90 3c fd be 23 3d 38 70 99 3c
       0.022866167 0.017604433 0.039977062 0.018730268
000350 0e 19 93 bd 5b 63 91 3d ad 64 4b bd ea 4c ba bd
       -0.07182513 0.07099029 -0.04965656 -0.090967014
000360 14 bf 89 bc 00 dd ec b9 2a 5f 4b bd ad 16 44 bd
       -0.016814746 -0.00045178086 -0.049651302 -0.047873188
000370 b5 4f 31 bd 74 42 02 3d e0 28 e7 bb 0e 0c 39 3d
       -0.043288905 0.031801656 -0.007054433 0.045177512
000380 0d 6f b3 bd 4f 25 56 3d b0 3d a3 bb 67 69 e9 3c
       -0.08761416 0.052281674 -0.004981719 0.028492643
000390 18 b3 85 3c 20 f3 c7 bb 94 88 8c bd 5d 3f 8a bd
       0.01632075 -0.006101981 -0.06861988 -0.06750367
0003a0 36 51 4a 3d a0 5e 01 bd 42 f0 3a 3d e9 9c 98 3d
       0.049393855 -0.031584382 0.045639284 0.07451803
0003b0 e3 58 c9 3d 81 85 ac 3d ac e5 ef bc 71 e8 a2 3d
       0.09831407 0.08423901 -0.02928432 0.07954491
0003c0 bc 0a 19 bd 9a b9 bf bd c5 6e c4 bd 53 32 a3 bd
       -0.037363753 -0.093615726 -0.0959144 -0.07968583
0003d0 d8 db b1 3c 73 cc ad 3d c5 ed af 3d e6 d0 3f bc
       0.021711275 0.08486261 0.08590273 -0.01170752
0003e0 5c 49 d3 3c 5a cf 36 bd 4e c1 a1 bd 9d 7f 17 3d
       0.025791816 -0.04463134 -0.07898198 0.036986936
0003f0 2a 51 5d bd e0 3e d3 3b 27 47 af bd 8a 40 47 3d
       -0.054032482 0.0064467043 -0.08558493 0.048645534

fc2.bias f4 [50]
000000 78 7e 31 3d 28 13 71 bc d5 53 bf 3d 3a 99 d7 bc
       0.0433335 -0.01471404 0.093421616 -0.026318181
000010 5c 8e 80 bd e3 c8 a0 bd bf 86 34 3d a8 aa 7d 3c
       -0.06277153 -0.07850816 0.044073816 0.015482582
000020 ba c6 3a bc de a4 b6 3d 95 5f 26 3c d3 98 59 bd
       -0.011399919 0.08918165 0.0101546245 -0.05312426
000030 78 ac 92 3c e4 f9 9f 3d e6 a7 b4 3c c0 47 31 bc
       0.017904505 0.07811335 0.022052716 -0.010820329
000040 9e 2c 09 bd 9e c4 a9 bd 25 3f ab bd 34 8f 02 3c
       -0.033489816 -0.08289455 -0.08361653 0.007968713
000050 e7 3b 6e bc cb 2d 4f 3c b8 90 a2 bc 60 f9 23 bd
       -0.014540649 0.012645195 -0.019844398 -0.040032744
000060 a2 13 ec bb ca 5f 43 bd 9d b5 87 bb 87 4f 78 bd
       -0.007204489 -0.047698773 -0.004141523 -0.06062272
000070 af dc c7 bd 7c ee bb 3d f7 67 34 3d 58 58 0a 3c
       -0.09758889 0.09176347 0.04404446 0.008443914
000080 f7 41 c6 bd 8f e0 79 3c 9b d4 c6 bd da 1b 5c bb
       -0.096805505 0.015251293 -0.0970852 -0.0033585937
000090 f4 66 a5 bd ad 91 82 bd ce 2c ad 3d 6c 83 82 3d
       -0.080762774 -0.06375442 0.084558114 0.06372723
0000a0 ef 7f 3d bc 20 48 c1 3b e1 3f 7d 3c bf 67 08 bd
       -0.011566146 0.0058984905 0.015457124 -0.033302065
0000b0 98 4d c9 bc ec f4 c8 3d bf 1a 8f bc c1 f8 6e 3c
       -0.024573132 0.0981234 -0.017468808 0.014585675
0000c0 b4 90 aa bd 2a 36 0f 3d
       -0.08328381 0.034963764

fc3.weight f4 [20, 50]
000000 24 70 f4 bd 25 44 02 3e 54 84 57 bd 20 5d 6d bc
       -0.119354516 0.12721308 -0.052616432 -0.014487535
000010 5a 5a 28 bd 00 4a 87 ba 88 35 ce 3d 50 67 7d 3c
       -0.04110179 -0.0010321736 0.10068804 0.015466526
000020 9c 96 2e bd db 44 b5 3c 6d 6d fb 3d 08 b8 81 bc
       -0.0426241 0.02212756 0.12276731 -0.015834823
000030 90 26 41 3c df a3 d2 3d ef 1e f6 bd 46 eb 05 3e
       0.011788979 0.10285162 -0.12017619 0.13078031
000040 91 dd a4 3d 36 3b 7e bd a0 b1 42 bc df ea 94 3d
       0.08050073 -0.062068187 -0.011883169 0.072713606
000050 75 b7 bb bd 10 e9 1c bc a0 0d b0 3d 9f 35 c8 bd
       -0.09165851 -0.009577051 0.08596349 -0.097758524
000060 40 b7 8f 3c 5d bb 04 3e 79 b7 6c bd 86 dd 89 bd
       0.017543435 0.12962098 -0.05779216 -0.06731705
000070 b8 48 b6 bd 16 75 12 3e 68 c5 f4 3c a8 f1 01 3d
       -0.08900589 0.14302477 0.029879287 0.031724602
000080 95 8e 08 be 95 f6 ff bd 80 1c ad 3c 90 9b 55 bc
       -0.1333564 -0.12498204 0.021131754 -0.013037577
000090 e7 d5 a9 bd ee 62 19 bd da 9c 6c bc eb d4 be bd
       -0.08292752 -0.037447862 -0.014441693 -0.09317955
0000a0 60 88 08 bc 82 9d c5 3d 37 e8 97 bd 70 52 02 3d
       -0.008333296 0.09649183 -0.07417338 0.0318169
0000b0 75 2e 99 bc d5 be b4 3d 9f 7e c7 bd ed 09 74 3d
       -0.01869891 0.08825461 -0.09740948 0.05957978
0000c0 8f aa 08 be bf 01 9e bd 92 00 92 bc 14 6e 02 be
       -0.13346313 -0.07715177 -0.017822538 -0.12737304
0000d0 9e 0b b1 bb a6 af fe 3d 0d 2d 9a bd 4d 1c 59 bd
       -0.005402996 0.12435846 -0.07528124 -0.053005505
0000e0 ce 7b ea 3d 00 a7 00 3d d8 c0 d1 bd 60 ce 70 bc
       0.11449395 0.031409264 -0.1024186 -0.014697641
0000f0 20 b8 00 be c0 36 d0 bb a4 aa 72 3d 4f 50 f1 bd
       -0.12570238 -0.006354183 0.059244767 -0.11782896
000100 25 67 8e 3d 9a bd c4 3d ba cb 82 bd 2a 64 e5 3d
       0.06953267 0.09606476 -0.06386514 0.112007454
000110 78 e0 e1 bc 5f 69 1a be 29 ea fb bd 66 1e ff 3b
       -0.027572855 -0.15079258 -0.12300522 0.007785606
000120 7c a4 59 3d 10 8b 2a be 8d 01 a1 bc d2 25 f8 3d
       0.05313538 -0.1665461 -0.01965406 0.12116589
000130 8a a5 17 be 1c 9a 2f 3d 67 c8 39 bd 98 86 10 3d
       -0.14809242 0.04287158 -0.045357134 0.03528461
000140 b1 44 95 bc bc 1e 2f 3d 53 79 b2 bd 9b 09 b5 bd
       -0.018221231 0.04275392 -0.08714547 -0.08839723
000150 4d 74 7b 3c 90 95 68 3d 0f 70 52 3d 8c ed 33 3d
       0.0153475525 0.05678326 0.0513764 0.043927714
000160 73 78 cd bd 95 35 09 3e 83 88 ca 3d 58 71 bd 3c
       -0.100327395 0.13399346 0.09889319 0.023125336
000170 c8 f8 2c 3d 9d c9 58 bd ad a8 b8 bd 6c 83 8f bd
       0.042229444 -0.05292665 -0.09016547 -0.070074886
000180 fb 26 bd 3d 5d ae 09 be ce 88 d0 3c 99 03 94 3d
       0.092359506 -0.1344542 0.025455859 0.07227249
000190 e6 4f 9a 3d f0 83 70 3c a3 47 95 bd 61 ab a4 bc
       0.07534771 0.014679894 -0.07289054 -0.020101251
0001a0 30 99 f1 bc b1 7a ca bc e5 d1 f8 bc 64 4e 9a bd
       -0.02949199 -0.024716707 -0.030373523 -0.07534483
0001b0 97 d9 95 3c c2 be f7 bc e9 07 ec 3d 64 4e 8c bd
       0.018292231 -0.030242328 0.11524946 -0.06850889
0001c0 50 80 6a bc ba cf 8b bd 31 88 e6 3d 6e fb b7 bd
       -0.014312819 -0.0682673 0.11256445 -0.08983503
0001d0 9c 9f be 3d 40 30 ae 3d 32 73 af 3d 02 70 c1 3c
       0.09307787 0.08505297 0.08566894 0.02361298
0001e0 2a 00 2d bd e3 85 45 3c ac 33 9d bc 68 36 72 3d
       -0.042236485 0.012055847 -0.019189678 0.059133917
0001f0 e4 91 c7 3c f6 35 df 3d 49 6a 33 3d 2c 25 74 bd
       0.024361558 0.10898964 0.043802533 -0.059605762
000200 21 95 1e bd b4 39 c3 bd 41 fb 85 3d d8 04 04 bd
       -0.03871644 -0.095324904 0.065420635 -0.03223118
000210 7b 01 e6 3d c1 5d a0 3d 02 94 a7 bd aa f3 47 3d
       0.11230751 0.07830382 -0.08182527 0.04881636
000220 e5 58 cc bd 17 09 90 bd 7b ec 90 bd 28 84 84 bd
       -0.09977893 -0.07032984 -0.07076355 -0.06470519
000230 a0 d5 e4 3c 73 13 07 be 6f c9 e1 bc fb b4 cb 3d
       0.027933896 -0.13191013 -0.027561871 0.09946629
000240 7f d6 96 3d a8 8b 8b bc 18 4f 2c bd 05 3e 84 bc
       0.07365131 -0.017034367 -0.042067617 -0.016142854
000250 c8 79 88 bb 4d a3 00 3e 0c bb ce 3b 14 ac 44 3d
       -0.004164908 0.12562294 0.006308919 0.04801567
000260 4f c1 06 3e 10 5a 37 3d ab 6d 01 3e b4 02 49 3d
       0.13159679 0.044763625 0.12639491 0.049074844
000270 a0 92 42 3d 00 25 99 3a 1a 96 d1 3d af 47 b3 bd
       0.047503114 0.0011684 0.10233708 -0.08753907
000280 88 e5 0e bd 00 44 29 39 24 b9 89 bd 41 a3 0a 3e
       -0.034886867 0.00016142428 -0.06724766 0.13538839
000290 4a 2d 06 3d fc 71 38 3c 34 9f 32 bd bc e3 be bd
       0.032758035 0.011257645 -0.04360886 -0.09320781
0002a0 23 96 83 bd 91 7d 23 bd 03 a5 b0 3d fa 41 e0 3d
       -0.06425121 -0.03991467 0.086252235 0.10950084
0002b0 5c 97 15 3d 23 7c a1 bb 90 11 e8 bc b0 f3 29 3d
       0.0365213 -0.0049281283 -0.028328687 0.041492164
0002c0 8f 90 b4 3d e8 06 7f bd a8 91 ee bd 40 7a 1b ba
       0.08816635 -0.062262446 -0.116488755 -0.00059309974
0002d0 96 2b f0 3d 02 59 b7 bd 21 ff 88 bd 7c 71 68 3d
       0.11727063 -0.08952524 -0.06689287 0.056748852
0002e0 34 45 6e 3d 2b bc 2f 3d 4d d5 ab bd 73 51 af bd
       0.058171466 0.04290406 -0.08390293 -0.08560457
0002f0 9d 19 97 3c 60 58 12 be 42 08 6b bd b8 0e b7 3c
       0.01844483 -0.14291525 -0.057380922 0.022345886
000300 91 95 c5 bd ee 83 bd 3d cb 4a 32 bc 6a 48 f3 3d
       -0.09647668 0.09253679 -0.01088209 0.11879046
000310 b8 1f 81 3d b5 cb d0 3d 3f 41 70 3c 71 40 c5 3d
       0.06304878 0.10195104 0.014663993 0.09631432
000320 b4 eb 0c bd fe 3a f1 3d d8 82 be bd 85 8c 0d be
       -0.03440447 0.1177883 -0.093023 -0.13823135
000330 45 31 89 bd 58 57 ad bc 17 2f a6 bd b2 24 0d bd
       -0.066988505 -0.021159813 -0.081144504 -0.034458824
000340 8c eb 92 bc 62 d5 4c bd 60 7f 11 3d f0 28 f4 bd
       -0.017934583 -0.050008185 0.035521865 -0.11921871
000350 67 0b e4 bd 00 6e a9 bd ec 5d 04 bd 40 f6 41 bc
       -0.11134987 -0.08272934 -0.032316133 -0.011838496
000360 3a 1d 6f bd 0b d7 0d be 74 60 50 bd 7e 8c b7 3d
       -0.058377482 -0.13851564 -0.050873235 0.08962344
000370 72 f8 f0 3d a2 fb ed 3d b6 d9 f5 bd da d9 de 3d
       0.11766137 0.11620261 -0.12004416 0.10881396
000380 0d 7b 9e bd 54 ec 3b 3d 78 04 ab 3d 1a 53 f6 3d
       -0.07738314 0.045879677 0.08350462 0.12027569
000390 a4 7e 53 3d d6 2e a0 3d 80 a2 18 3c ac 5d 6d 3d
       0.051634446 0.07821433 0.009316087 0.05795066
0003a0 33 d5 0d 3e 9c 1a 77 bd 20 9b 00 3c a5 44 eb bd
       0.1385086 -0.06032811 0.007849485 -0.11487702
0003b0 00 ef ee bb 7a 19 8f 3d 80 18 bd 3a c0 51 2c 3d
       -0.0072916746 0.06987281 0.0014426857 0.04207015
0003c0 ea 1c c9 bd f2 bd ad bd 48 70 cd bd bb be d1 bd
       -0.09819968 -0.08483495 -0.100311816 -0.10241457
0003d0 16 7a 0c be 40 cd f8 bc 40 53 d3 3c 78 b3 50 bd
       -0.13718447 -0.030371308 0.025796533 -0.050952405
0003e0 a4 7e 69 bd 78 58 15 bd 84 e1 5f bd a3 cd 0f 3e
       -0.05700554 -0.036461323 -0.054658428 0.14043288
0003f0 22 7b f8 bd 3a d9 3e bd 4c 01 3e bd 10 fe ce bd
       -0.12132861 -0.046593882 -0.046387956 -0.10107052

fc3.bias f4 [20]
000000 ae 29 10 3e cf e8 7b 3d 2f e5 dc 3c d0 6d 2e bd
       0.140784 0.06150132 0.026964752 -0.042585194
000010 00 f7 0d ba b2 94 cd 3d c0 65 b4 3d f0 5b 66 3d
       -0.0005415529 0.10038127 0.0880847 0.056240022
000020 67 8d 76 3d 8e ed 8d 3d a0 68 86 bd 74 e6 bb 3d
       0.060193446 0.069300756 -0.065629244 0.09174815
000030 15 30 14 bc 1f 19 ec 3d 5f fb f3 bd 3b 41 be bd
       -0.009044667 0.11528229 -0.119131796 -0.092897855
000040 46 f0 92 bd e0 8c 4d 3d 6d a4 c7 bd 6c cf 36 bd
       -0.07174735 0.050183177 -0.097481586 -0.044631407

fc4.weight f4 [4, 20]
000000 b1 b3 f5 bd 68 90 dd 3c a2 09 80 3b 9e 52 0a bd
       -0.11997164 0.027046397 0.0039073983 -0.033770196
000010 20 6b e9 3d 72 9d ae bd 0c d0 1f bd 59 88 44 be
       0.113973856 -0.08526124 -0.03901677 -0.19192638
000020 c6 c8 2d 3e d4 24 ce bb de 4b 02 3e a1 25 4b be
       0.1697112 -0.0062910113 0.12724254 -0.19838573
000030 05 2f cc bb 27 d7 49 be ac 48 a7 3d ce c2 a8 3d
       -0.006231191 -0.1971098 0.08168158 0.08240281
000040 4c 2c 84 bd 93 df cc bd f8 94 ea bc cc bc 3a be
       -0.064537615 -0.10003581 -0.028635487 -0.18236083
000050 af 18 33 be e0 50 0e bb 29 48 51 3e 85 3b 43 be
       -0.17489885 -0.0021715686 0.20437683 -0.19065674
000060 04 2e df 3d 40 55 27 3c 80 35 e8 3c 4c 66 0b 3e
       0.10897449 0.010213196 0.028345823 0.13613242
000070 b0 7f c1 bd 7c 34 07 3b 32 9f 21 be 62 f1 55 3e
       -0.094481826 0.0020630648 -0.15783384 0.20892861
000080 82 24 24 3e b7 14 02 3e 06 29 53 3e e1 88 22 be
       0.16029552 0.12703215 0.20621118 -0.15872528
000090 b8 02 d0 bc a3 59 3a be 57 8b d8 bd 3c 1c 1b bd
       -0.025391921 -0.18198256 -0.10573452 -0.037868723
0000a0 15 df f3 bb 1a 74 7a 3d fc 3f 25 3e 7b 52 15 be
       -0.007442365 0.06114588 0.1613769 -0.14582245
0000b0 8a 69 50 3e 28 43 d9 bd 68 b4 0d bd 14 a9 68 bd
       0.2035276 -0.10608512 -0.034595877 -0.05680187
0000c0 3f 46 1e be 4a 82 34 be 83 53 33 be a8 57 d0 bc
       -0.15456484 -0.17627826 -0.17512326 -0.025432423
0000d0 ee 60 3a 3e 35 ea e7 bb 10 32 db bc 91 62 ac bd
       0.18201038 -0.00707748 -0.02675727 -0.084172376
0000e0 5c af 09 be 80 49 ef 3c 60 32 5b 3c e0 e0 38 3d
       -0.134458 0.029209852 0.01337871 0.045136333
0000f0 1b c3 03 3d ca 76 53 3e 0b 46 48 3e 13 94 8a bd
       0.03216849 0.20650783 0.1955797 -0.06766524
000100 9c 8e 48 bd 8e 42 59 be 20 d1 f3 3d f4 5b 9e bd
       -0.048964128 -0.21216795 0.11905122 -0.077323824
000110 4c 1e e1 3d 8f 98 b4 3b 14 61 1a be 12 0c ac bd
       0.10992107 0.0055113505 -0.15076095 -0.0840074
000120 1f 6e 07 bd a3 88 46 3d 28 69 32 3e d5 82 9a 3d
       -0.033064004 0.04847015 0.17422926 0.075444855
000130 a5 bc d8 3d 28 f7 0b be e8 e4 89 3d 50 69 94 3d
       0.10582856 -0.13668501 0.067331135 0.07246649

fc4.bias f4 [4]
000000 f2 88 6d 3e 35 2f 9e bd ad 58 0f be 9c 2a 41 ba
       0.23196772 -0.07723848 -0.13998671 -0.0007368715
