model.onnx (onnx, 16986 bytes, 17 tensors)

network.input_layer.weight f4 [20, 16]
0.19296338 -0.030578276 0.106510706 -0.095374465 -0.16635424 0.23659259 -0.16288936 -0.03334786
-0.20264445 0.16499364 -0.01871798 0.023765078 0.040854134 0.14949472 -0.21909386 -0.10620266
0.03382299 -0.039445788 -0.1978217 -0.060488462 0.18200886 0.15103042 -0.23837462 -0.11864858
0.11596574 0.094734155 -0.23871943 0.009530877 -0.055102214 0.069026195 -0.12144384 -0.07274428
-0.10218077 0.17974095 -0.08586596 -0.23223722 -0.07489973 -0.08489552 0.11903675 0.21952444
0.23210678 0.16706975 0.2175598 0.04590413 0.07032915 0.10985591 -0.15823159 -0.23712584
0.059854437 0.124839894 0.10678298 0.09135997 0.24015412 -0.18071419 0.043805487 -0.12336994
-0.24106081 -0.0042885276 -0.15457924 0.12756455 -0.03444865 -0.19158438 0.16816723 -0.1339308
-0.102124594 -0.17192726 -0.038471904 0.23175529 -0.17768219 -0.23002556 0.19856638 -0.21087241
-0.17153479 0.21954526 -0.035094567 0.107526846 -0.038405236 -0.103367716 -0.23873004 -0.15775406
-0.17027572 0.094371654 0.16792242 -0.18935838 0.06162393 -0.16532871 -0.16390821 0.0047325003
-0.099624775 -0.17075193 -0.1264341 0.07872039 0.042553954 -0.21004833 0.0804711 0.22835338
0.16379194 -0.15563941 0.23421068 -0.014855504 -0.2458018 -0.17800838 0.10730379 -0.15474537
-0.038563017 0.14238389 -0.0035634637 0.238245 -0.13366528 -0.0039181826 0.1473498 0.14928403
0.21310021 0.0073351646 -0.23138978 0.074797004 -0.11228302 0.19840291 -0.113946095 -0.21469465
0.21094358 0.024381628 -0.09805414 -0.094705194 0.191823 0.2213604 -0.0091353655 0.19743043
0.07043088 0.18961315 -0.1915483 0.16785136 -0.22842547 0.005182326 -0.10964501 0.1074023
-0.047289886 0.21637863 -0.1904538 0.09313504 0.21972764 0.15324238 0.09927824 0.115924
-0.18273383 -0.11457954 -0.1449004 0.106306046 0.15225649 -0.19273317 0.018553473 -0.060360517
-0.18279655 -0.16706847 -0.013324878 -0.17774422 0.06684187 0.24453679 -0.15516138 -0.0597938
0.1697525 -0.19877212 -0.06863759 0.05783114 -0.13046992 0.15341601 0.057173952 0.2547873
0.048735008 0.25435752 0.09957593 0.1279159 0.05524336 -0.19084547 -0.019186467 0.17047921
0.15288402 0.22976181 -0.17384647 -0.0011857152 0.061757267 0.18656725 0.13871932 0.1334178
-0.22250684 0.20502126 0.005363423 -0.16812898 0.09036424 -0.06594871 0.17379546 0.04563853
-0.17437087 -0.04939561 -0.18606251 -0.20190191 -0.008826166 0.1844778 -0.22939621 -0.14301193
-0.12532815 -0.21958883 -0.24208383 -0.16926739 -0.13107593 -0.18725951 0.24986476 -0.0021295547
0.06441225 -0.18213196 0.0011375977 0.16461706 0.14449814 0.22085741 0.013328007 0.11812494
0.11051807 0.2624321 -0.0066839163 -0.11077512 0.19170776 -0.11796547 -0.01424557 0.21894655
0.13565508 -0.0001317882 -0.05975838 0.24280721 0.20734099 -0.041721284 0.14713953 0.24278952
-0.020647366 -0.12305288 0.010770515 0.16331421 0.17679952 0.03330162 -0.16805288 -0.013979167
-0.26573813 -0.10513255 0.014699788 -0.17259362 -0.12076083 0.22946855 0.11025608 0.15037857
-0.18012688 0.17730035 -0.05921595 0.0024767937 -0.11438928 0.24496287 -0.24294141 -0.09062824
00000000: 3198 453e 4b7f fabc 4922 da3d b053 c3bd
00000010: c458 2abe 5445 723e 78cc 26be c497 08bd
00000020: 0782 4fbe 18f4 283e 7356 99bc fbae c23c
00000030: aa56 273d 2515 193e 245a 60be c880 d9bd
00000040: fa89 0a3d e891 21bd c691 4abe c0c2 77bd
00000050: 8860 3a3e b8a7 1a3e 7a18 74be 07fe f2bd
00000060: 727f ed3d fb03 c23d de72 74be 6527 1c3c
00000070: dcb2 61bd 9b5d 8d3d 8cb7 f8bd f4fa 94bd
00000080: 2744 d1bd 030e 383e 7eda afbd 98cf 6dbe
00000090: 0865 99bd b4dd adbd 8ac9 f33d 04cb 603e
000000a0: 66ad 6d3e 5514 2b3e ffc7 5e3e f805 3c3d
000000b0: bb08 903d 23fc e03d 7607 22be 1ed1 72be
000000c0: ed29 753d 0fac ff3d 09b1 da3d f01a bb3d
000000d0: f6ea 753e 240d 39be 626d 333d 61a9 fcbd
000000e0: a5d8 76be c786 8cbb 054a 1ebe 48a0 023e
000000f0: 071a 0dbd b22e 44be 0834 2c3e 2825 09be
00000100: b326 d1bd b30d 30be b794 1dbd 4251 6d3e
00000110: 52f2 35be d28b 6bbe fc54 4b3e f0ee 57be
00000120: d1a6 2fbe 79d0 603e 52bf 0fbd 0937 dc3d
00000130: cf4e 1dbd 74b2 d3bd a675 74be 488a 21be
00000140: c25c 2ebe ed45 c13d dbf3 2b3e 2ae7 41be
00000150: 6069 7c3d ee4b 29be 8ed7 27be 1713 9b3b
00000160: 1308 ccbd 98d9 2ebe f177 01be 2838 a13d
00000170: 0e4d 2e3d e916 57be 08ce a43d 78d5 693e
00000180: 13b9 273e f05f 1fbe edd4 6f3e 8064 73bc
00000190: 78b3 7bbe d447 36be 17c2 db3d 9275 1ebe
000001a0: 41f4 1dbd 15cd 113e 0089 69bb 7ff6 733e
000001b0: 8ddf 08be 1964 80bb dee2 163e eadd 183e
000001c0: f136 5a3e d25b f03b 71f1 6cbe 2c2f 993d
000001d0: a4f4 e5bd 222a 4b3e 925c e9bd ead8 5bbe
000001e0: 9801 583e fbbb c73c 9cd0 c8bd ccf4 c1bd
000001f0: 406d 443e 4dac 623e 80ac 15bc 342b 4a3e
00000200: 113e 903d f329 423e 3d25 44be 3ae1 2b3e
00000210: 5ee8 69be 80d0 a93b 908d e0bd bdf5 db3d
00000220: 0ab3 41bd 5c92 5d3e 5206 43be 95bd be3d
00000230: 4800 613e 92eb 1c3e 6452 cb3d 9069 ed3d
00000240: 941e 3bbe aea8 eabd c560 14be fcb6 d93d
00000250: 20e9 1b3e d85b 45be 74fd 973c 973c 77bd
00000260: 052f 3bbe ff13 2bbe 9750 5abc 9502 36be
00000270: 64e4 883d da67 7a3e a0e2 1ebe 58ea 74bd
00000280: 99d3 2d3e eb8a 4bbe dd91 8cbd 58e0 6c3d
00000290: e899 05be 1619 1d3e 3c2f 6a3d 7b73 823e
000002a0: 5c9e 473d 263b 823e 77ee cb3d 63fc 023e
000002b0: dd46 623d ff6c 43be f02c 9dbc 1a92 2e3e
000002c0: a18d 1c3e ae46 6b3e cf04 32be 006a 9bba
000002d0: 30f5 7c3d 7c0b 3f3e 700c 0e3e ad9e 083e
000002e0: d5d8 63be 18f1 513e a7bf af3b 012a 2cbe
000002f0: e310 b93d 1e10 87bd 70f7 313e 78ef 3a3d
00000300: 478e 32be 0d53 4abd 2c87 3ebe 60bf 4ebe
00000310: a09b 10bc c0e7 3c3e d7e6 6abe b871 12be
00000320: 0656 00be e5db 60be d3e4 77be 6e54 2dbe
00000330: c538 06be f5c0 3fbe 8cdc 7f3e 0090 0bbb
00000340: 92ea 833d cd80 3abe 721b 953a 6091 283e
00000350: 52f7 133e 7228 623e b75d 5a3c 7deb f13d
00000360: 4c57 e23d 805d 863e c104 dbbb 11de e2bd
00000370: 0a4f 443e e197 f1bd 4066 69bc 8633 603e
00000380: 2ae9 0a3e a030 0ab9 34c5 74bd 74a2 783e
00000390: 3251 543e f0e3 2abd bfab 163e d19d 783e
000003a0: aa24 a9bc 2603 fcbd d076 303c d73b 273e
000003b0: ef0a 353e 4867 083d 0e16 2cbe e008 65bc
000003c0: d40e 88be bc4f d7bd 61d7 703c 62bc 30be
000003d0: 7451 f7bd cef9 6a3e f1cd e13d d7fc 193e
000003e0: 2e73 38be 398e 353e 6d8c 72bd b451 223b
000003f0: ed44 eabd 8cd7 7a3e a2c5 78be 4c9b b9bd

network.input_layer.bias f4 [20]
0.035345744 0.11527911 0.17698415 0.13935272 0.17432079 -0.018385975 -0.08018106 0.0618625
-0.14176457 -0.06340848 0.00212853 0.098320745 -0.10015647 0.09073488 0.22562453 -0.23315756
0.19560248 0.19804618 -0.10496906 -0.040771242
00000000: b3c6 103d 7417 ec3d 553b 353e 7bb2 0e3e
00000010: 2681 323e 2f9e 96bc f835 a4bd 8863 7d3d
00000020: bb2a 11be 4edc 81bd cf7e 0b3b 635c c93d
00000030: d61e cdbd 35d3 b93d 1e0a 673e dbc0 6ebe
00000040: 044c 483e 9ecc 4a3e 05fa d6bd bfff 26bd

network.hidden_layer_1.weight f4 [20, 20]
0.13286114 0.22083189 0.015331858 -0.18973306 -0.20355797 0.0443944 -0.08543981 -0.10954983
0.07985673 0.03247559 -0.09544506 -0.08191878 -0.011586353 0.094002426 0.055284966 -0.13151096
-0.06496315 -0.05998782 -0.21700792 -0.026190909 -0.09300679 0.093311615 0.02222637 0.19299284
-0.16656366 0.111481264 -0.060433023 -0.11905465 0.14730023 -0.025817756 -0.17527762 -0.18393914
-0.039784003 0.15877558 0.13733765 0.18955143 -0.17994161 -0.054694403 0.21242715 -0.20650588
0.15038878 0.16133815 -0.020848367 -0.13541523 0.13416079 -0.09411806 -0.16360068 0.15217844
-0.15584305 0.113180526 -0.21250708 -0.10818937 0.0049419943 -0.14993982 -0.06301311 -0.20871544
-0.07647702 0.14130206 -0.009344484 0.09708563 0.1831643 0.08836662 0.109579556 -0.10219342
-0.09942181 0.038582902 -0.2232436 0.17707133 -0.00061287545 -0.02580865 0.05849544 -0.07957821
0.08912232 -0.030325457 0.20300373 0.0015693387 0.21741188 0.20042722 -0.033038802 -0.1183772
0.05444253 0.21537663 0.031275693 -0.20453727 -0.004657342 -0.09720893 -0.15275235 -0.19514267
0.14405684 -0.11869123 -0.12435696 -0.08690821 0.0516164 0.2219348 -0.054722916 0.16434906
-0.1077356 -0.019274859 0.033610918 -0.08043972 -0.07943652 -0.041921917 -0.054910097 0.17128858
-0.02737677 0.12770528 -0.06517102 -0.13251409 -0.20886165 0.22586067 -0.19196162 -0.17476185
-0.17783137 -0.16337612 0.2134472 0.046559572 0.20727134 -0.03698256 0.1406769 0.13921243
0.1794993 -0.008335725 0.20392686 -0.021420594 -0.21922782 0.05568562 0.006847186 -0.1783008
0.14360082 0.015650874 0.1265572 0.15469971 -0.15481274 -0.01464741 -0.11669809 0.18523833
0.014756395 -0.04613588 -0.13883817 -0.0692587 -0.09790868 -0.017604586 0.079428755 0.088598125
0.029603144 -0.2126512 -0.018320924 0.052255563 -0.20916139 0.14135076 -0.031457275 0.016744627
-0.14772013 -0.1341047 -0.06735379 -0.0053970255 -0.16461012 -0.12921903 -0.2272022 0.20572288
-0.012431304 0.09185547 -0.21132363 -0.0042046662 -0.07931005 -0.20898573 -0.07433135 0.19120157
0.037140287 0.19319995 0.09626596 0.047370035 0.10261746 -0.079509184 -0.0663161 -0.044885974
0.06935853 0.1367057 -0.011834298 0.08030066 0.09020381 -0.1730399 0.1526466 -0.19850121
0.20091712 -0.08382965 0.038848583 0.11720613 -0.01994828 0.02863262 -0.16940084 0.029185351
0.22338173 0.16097839 0.0814904 -0.02246008 0.056658916 -0.0075799297 0.1566515 -0.04024107
-0.100974984 0.08006775 0.2307947 -0.12089155 -0.054868013 0.054700248 0.08813117 0.107609466
-0.050124373 -0.1047742 -0.18031846 -0.023599915 -0.16169648 -0.10941067 -0.121553086 0.19474874
0.20079203 0.063778915 -0.04896199 0.12306942 0.17970212 -0.066197 0.020536734 -0.21757759
-0.10559098 -0.13188492 -0.08452414 -0.180773 0.072718054 0.0925357 -0.080929406 0.16573876
0.1626099 -0.19215465 -0.16657366 -0.16336854 -0.15935744 -0.15514737 -0.076647595 -0.026580716
-0.0059903874 0.12381438 0.17014056 0.09902085 -0.022438657 -0.20596083 -0.22215594 0.05241781
0.101752244 0.04147839 0.09434286 0.036461126 0.037753295 0.089864105 0.19141726 0.19991311
00000000: c00c 083e c121 623e 7932 7b3c 6249 42be
00000010: 8071 50be e7d6 353d 11fb aebd a95b e0bd
00000020: ed8b a33d 2005 053d b378 c3bd 09c5 a7bd
00000030: b0d4 3dbc 5884 c03d 7d72 623d cfaa 06be
00000040: 660b 85bd cab5 75bd 5337 5ebe 518e d6bc
00000050: 587a bebd 291a bf3d 1414 b63c ea9f 453e
00000060: aa8f 2abe 4a50 e43d 9e88 77bd edd2 f3bd
00000070: dfd5 163e c27f d3bc fa7b 33be 8b5a 3cbe
00000080: 8df4 22bd 1196 223e 3ea2 0c3e c519 423e
00000090: 9d42 38be 3d07 60bd 8186 593e 4776 53be
000000a0: 84ff 193e d435 253e 32ca aabc 4aaa 0abe
000000b0: 7261 093e f8c0 c0bd f086 27be aad4 1b3e
000000c0: 5295 1fbe 31cb e73d 759b 59be 6392 ddbd
000000d0: 74f0 a13b d389 19be 040d 81bd 80b9 55be
000000e0: fc9f 9cbd 7db1 103e 9b19 19bc d5d4 c63d
000000f0: 6c8f 3b3e 8ff9 b43d 3f6b e03d c94a d1bd
00000100: a99d cbbd 1b09 1e3d f899 64be 3052 353e
00000110: 60a9 20ba a96c d3bc ea98 6f3d e7f9 a2bd
00000120: c385 b63d 186d f8bc 36e0 4f3e 45b2 cd3a
00000130: 38a1 5e3e cb3c 4d3e b253 07bd bf6f f2bd
00000140: 21ff 5e3d b18b 5c3e f11a 003d 3872 51be
00000150: 9e9c 98bb 7a15 c7bd 1d6b 1cbe 7bd3 47be
00000160: a383 133e 6314 f3bd ddae febd eefc b1bd
00000170: b86b 533d e042 633e 2325 60bd 1f4b 283e
00000180: 7ba4 dcbd 4fe6 9dbc 9aab 093d 94bd a4bd
00000190: 9daf a2bd 51b6 2bbd 69e9 60bd 4666 2f3e
000001a0: 3f45 e0bc 2cc5 023e 6278 85bd c6b1 07be
000001b0: d4df 55be 0548 673e 9691 44be c5f4 32be
000001c0: 6d19 36be 124c 27be e791 5a3e 40b5 3e3d
000001d0: f03e 543e 067b 17bd 9b0d 103e b48d 0e3e
000001e0: aace 373e 9192 08bc 34d2 503e 3e7a afbc
000001f0: 427d 60be 9b16 643d 5c5e e03b 7c94 36be
00000200: 180c 133e 4336 803c 3698 013e 9a69 1e3e
00000210: 3b87 1ebe b1fb 6fbc 69ff eebd 1eaf 3d3e
00000220: cec4 713c faf8 3cbd 982b 0ebe 81d7 8dbd
00000230: 5984 c8bd 7e37 90bc 8bab a23d ef72 b53d
00000240: 4b82 f23c 3cc1 59be c315 96bc ee09 563d
00000250: 672e 56be 41be 103e 58d9 00bd 072c 893c
00000260: f243 17be be52 09be c9f0 89bd 88d9 b0bb
00000270: 8e8f 28be fe51 04be b2a7 68be 05a9 523e
00000280: abac 4bbc b81e bc3d 3965 58be 4cc7 89bb
00000290: 4f6d a2bd 5b00 56be 093b 98bd 58ca 433e
000002a0: 6a20 183d 35d6 453e 1627 c53d 1507 423d
000002b0: 1a29 d23d b6d5 a2bd bcd0 87bd 5bda 37bd
000002c0: d80b 8e3d 94fc 0b3e a5e4 41bc ac74 a43d
000002d0: c6bc b83d 5f31 31be 644f 1c3e e743 4bbe
000002e0: 38bd 4d3e e1ae abbd b11f 1f3d c409 f03d
000002f0: 936a a3bc f58e ea3c 6a77 2dbe 1e16 ef3c
00000300: 2ebe 643e 85d7 243e 70e4 a63d 34fe b7bc
00000310: 2e13 683d 0f61 f8bb 4069 203e d2d3 24bd
00000320: f9cb cebd 8ffa a33d 7255 6c3e fd95 f7bd
00000330: 48bd 60bd 5e0d 603d 1d7e b43d 5a62 dc3d
00000340: 374f 4dbd db93 d6bd 67a5 38be 9c54 c1bc
00000350: c393 25be b412 e0bd d3f0 f8bd 376c 473e
00000360: 6d9c 4d3e 859e 823d 5e8c 48bd d20b fc3d
00000370: d503 383e 4b92 87bd a73c a83c a9cc 5ebe
00000380: 1540 d8bd d70c 07be fe1a adbd 8f1c 39be
00000390: 34ed 943d 5b83 bd3d 51be a5bd 6cb7 293e
000003a0: 3683 263e 30c4 44be 4992 2abe 154a 27be
000003b0: 992e 23be f4de 1ebe 6af9 9cbd cdbf d9bc
000003c0: 034b c4bb 6592 fd3d 5439 2e3e 72cb ca3d
000003d0: 46d1 b7bc 65e7 52be d97c 63be 0fb4 563d
000003e0: 7b63 d03d 3fe5 293d d436 c13d 4358 153d
000003f0: 33a3 1a3d ac0a b83d e302 443e 06b6 4c3e

network.hidden_layer_1.bias f4 [20]
0.030426562 -0.18719131 -0.013188336 0.04652562 0.109370135 0.18282919 -0.20805632 -0.11079863
0.031757556 -0.21803465 -0.14855583 0.15476528 -0.1402018 -0.20777947 -0.19254385 0.027874699
-0.12078805 -0.07298091 -0.20631155 -0.13823365
00000000: 2041 f93c 14af 3fbe e413 58bc a691 3e3d
00000010: 73fd df3d 9337 3b3e b70c 55be 64ea e2bd
00000020: 3614 023d 7a44 5fbe 051f 18be ca7a 1e3e
00000030: 1091 0fbe 24c4 54be 372a 45be 7b59 e43c
00000040: ba5f f7bd 0477 95bd 5643 53be 1f8d 0dbe

network.hidden_layer_2.weight f4 [20, 20]
0.14383543 -0.17956759 0.1661585 -0.08224043 0.09775322 -0.17325492 0.15868084 -0.09819425
-0.14307117 0.18769601 -0.21724547 0.14258316 -0.03296057 0.09013202 -0.09694504 0.030787345
0.13374358 -0.04006921 0.13314399 0.026372466 -0.19198619 -0.13238683 -0.030409416 -0.082066044
-0.07980474 0.12133081 -0.12001752 -0.15239939 0.10910694 0.029196698 0.06585533 -0.07561026
0.086294465 0.035186093 0.061735805 0.20020394 -0.0056386655 0.1327525 0.06551699 0.17332733
-0.014848369 -0.09751314 0.12613319 0.16353254 0.13625407 0.17056929 0.016166799 -0.1018296
0.13442776 0.18543643 -0.0320445 0.11762718 0.18806368 -0.16736373 -0.0072025326 -0.18547693
-0.13243513 -0.1628258 0.1971184 0.0060990504 -0.0050894506 0.16727553 -0.18005626 -0.1782631
0.06221155 -0.096086696 -0.10699309 0.12012632 0.20856932 0.09525531 -0.055593103 -0.12072967
0.02884229 -0.16888809 -0.015321429 -0.17615364 -0.13964473 -0.16460219 0.003090928 0.12774102
-0.0006113886 -0.08000642 -0.18424906 0.0019152558 -0.12664667 -0.113015555 0.16371763 0.14723372
-0.038180187 -0.16533692 -0.0030086862 -0.0072541907 -0.027574519 -0.107723705 -0.19983281 -0.03636235
-0.15221463 -0.20930515 0.19867973 0.019088738 0.042047765 0.015181067 -0.022313219 -0.14544877
-0.017608106 0.034955297 0.16640821 -0.047845166 0.14701153 -0.07941223 -0.13739075 0.1681331
0.22188194 -0.19088118 -0.05822652 -0.033154666 0.0014589953 -0.061096 0.2080859 0.19371353
0.021618305 -0.13482073 0.12521587 -0.1448814 0.0254949 -0.14707166 0.20339061 -0.08767546
-0.2081065 0.14958875 -0.021014828 0.19885547 0.04727498 -0.20034014 0.09083097 -0.0053110463
-0.07235236 -0.059792653 -0.12592039 0.085609525 -0.08889074 -0.17425035 0.14328252 -0.0016501446
-0.13223034 -0.14627576 0.19779223 0.16435795 -0.02689089 0.1492926 -0.06033939 0.033443563
-0.20674974 0.09134728 0.1967806 0.0010124622 0.07330966 0.033260502 -0.006094666 0.066265404
0.13881177 -0.18413913 0.15708305 -0.023358282 0.07504882 -0.18806006 0.17876545 0.20204803
0.096480906 -0.15135391 0.015759658 0.06521893 -0.13338493 -0.06831177 0.098144606 0.069165654
-0.21122044 0.16598704 -0.21284434 0.17761144 0.085914165 -0.00231062 -0.13224053 -0.057679098
0.09961116 0.20845051 -0.012453808 0.18180737 -0.067412734 -0.0061211223 0.20703244 0.211377
0.014806267 -0.10581817 -0.0389636 -0.071950644 0.16197228 -0.16689411 -0.05625283 -0.0042564296
0.1941621 0.03590876 0.09786418 0.11930835 0.14770176 -0.10991695 0.19924954 -0.22080888
-0.15573414 -0.17824647 0.1399707 -0.036127727 -0.109411635 0.11202188 0.017491544 0.19669697
0.10674517 -0.09849868 -0.06272186 0.01225448 -0.14140137 0.15838474 -0.1401507 0.17455316
0.118621185 -0.15027224 0.12314276 0.10610205 0.114362374 -0.13396837 -0.19314823 -0.19176364
0.004820566 -0.09585331 -0.10529901 -0.1435964 0.19565222 -0.1291839 -0.13744879 0.18669699
0.047473516 0.20245102 -0.13348466 -0.051461652 0.11665305 -0.16139628 -0.17719474 -0.038604226
0.04000333 0.09175454 -0.09746859 -0.16315876 -0.18706296 -0.044528197 -0.0006005463 -0.018345412
00000000: 9849 133e 91e0 37be 7425 2a3e ac6d a8bd
00000010: d732 c83d bd69 31be 3b7d 223e 111a c9bd
00000020: 4081 12be 6233 403e 9975 5ebe 5201 123e
00000030: aa01 07bd 2397 b83d 1f8b c6bd be35 fc3c
00000040: 14f4 083e 9d1f 24bd e656 083e 120b d83c
00000050: 0798 44be 6a90 07be 2b1d f9bc 3e12 a8bd
00000060: ab70 a3bd 4a7c f83d bfcb f5bd 960e 1cbe
00000070: 7673 df3d ea2d ef3c 29df 863d 8dd9 9abd
00000080: 27bb b03d 4b1f 103d afde 7c3d 4302 4d3e
00000090: 8ec4 b8bb 45f0 073e c62d 863d b87c 313e
000000a0: 9346 73bc f8b4 c7bd 0f29 013e 1375 273e
000000b0: 3086 0b3e b7a9 2e3e 3c70 843c 0a8c d0bd
000000c0: 6ea7 093e 0ce3 3d3e 1841 03bd 85e6 f03d
000000d0: c493 403e 6661 2bbe 3903 ecbb aaed 3dbe
000000e0: 139d 07be cebb 26be 68d9 493e 8bda c73b
000000f0: 68c5 a6bb 474a 2b3e ab60 38be 9a8a 36be
00000100: 8ad1 7e3d 1ac9 c4bd 311f dbbd ca04 f63d
00000110: 3293 553e 3715 c33d 98b5 63bd 1e41 f7bd
00000120: ab46 ec3c 00f1 2cbe bb06 7bbc 9f61 34be
00000130: 07ff 0ebe 7a8d 28be 2b91 4a3b 8bce 023e
00000140: 9845 20ba 68da a3bd c9ab 3cbe 5209 fb3a
00000150: aaaf 01be b374 e7bd 98a5 273e 70c4 163e
00000160: d462 1cbd 154e 29be 612d 45bb 90b4 edbb
00000170: f5e3 e1bc 3f9e dcbd f9a0 4cbe b0f0 14bd
00000180: 27de 1bbe 1754 56be b372 4b3e fc5f 9c3c
00000190: 473a 2c3d 03ba 783c 36ca b6bc 86f0 14be
000001a0: e03e 90bc 492d 0f3d ea66 2a3e 4bf9 43bd
000001b0: 318a 163e e1a2 a2bd 29b0 0cbe 152b 2c3e
000001c0: 0535 633e 5b76 43be ee7e 6ebd 30cd 07bd
000001d0: c23b bf3a cd3f 7abd 7814 553e d75c 463e
000001e0: df18 b13c 720e 0abe 9738 003e ca5b 14be
000001f0: aeda d03c f499 16be a145 503e 318f b3bd
00000200: df19 55be cb2d 193e 4a27 acbc c5a0 4b3e
00000210: 69a3 413d f725 4dbe 9605 ba3d 4908 aebb
00000220: 792d 94bd 24e9 74bd 46f1 00be 0c54 af3d
00000230: 590c b6bd af6e 32be a7b8 123e aa49 d8ba
00000240: 6467 07be 50c9 15be 0c8a 4a3e 734d 283e
00000250: 494a dcbc 29e0 183e 7026 77bd 1efc 083d
00000260: 34b6 53be 4814 bb3d db80 493e 98b4 843a
00000270: 6023 963d 2a3c 083d c4b5 c7bb 28b6 873d
00000280: ac24 0e3e f88e 3cbe 61da 203e de59 bfbc
00000290: 32b3 993d d192 40be 4a0e 373e aee5 4e3e
000002a0: c897 c53d 85fc 1abe 661a 813c 8191 853d
000002b0: 0f96 08be 0be7 8bbd 0a00 c93d b9a6 8d3d
000002c0: 2c4a 58be 82f8 293e def3 59be c6df 353e
000002d0: c4f3 af3d c56d 17bb 106a 07be eb40 6cbd
000002e0: f000 cc3d 0d74 553e 0f0b 4cbc b62b 3a3e
000002f0: b00f 8abd b293 c8bb 5000 543e 3673 583e
00000300: fc95 723c 32b7 d8bd 4c98 1fbd dc5a 93bd
00000310: 10dc 253e 4ae6 2abe 5e69 66bd 8579 8bbb
00000320: 6ed2 463e 1015 133d 046d c83d f057 f43d
00000330: 213f 173e 231c e1bd 1208 4c3e b91b 62be
00000340: c578 1fbe 3e86 36be 7b54 0f3e abfa 13bd
00000350: 3513 e0bd ba6b e53d 6d4a 8f3c ee6a 493e
00000360: 369d da3d adb9 c9bd 5274 80bd 04c7 483c
00000370: 85cb 10be 9c2f 223e aa83 0fbe 10be 323e
00000380: aaef f23d f7e0 19be 4532 fc3d 084c d93d
00000390: d236 ea3d 012f 09be a6c8 45be b05d 44be
000003a0: d7f5 9d3b bd4e c4bd 02a7 d7bd ef0a 13be
000003b0: 0e59 483e c948 04be 60bf 0cbe 7f2d 3f3e
000003c0: 9773 423d 524f 4f3e 34b0 08be 74c9 52bd
000003d0: cbe7 ee3d 1145 25be 8a72 35be 771f 1ebd
000003e0: 88da 233d cee9 bb3d 9d9d c7bd 1713 27be
000003f0: 6f8d 3fbe 3363 36bd fb6d 1dba 1e49 96bc

network.hidden_layer_2.bias f4 [20]
0.17200048 -0.2130223 -0.21269172 0.2063772 -0.1805502 0.029322762 0.1906172 0.20489746
0.13734704 -0.024893628 -0.11812333 0.04228744 0.080411315 -0.12978029 -0.10370935 0.09129895
-0.13496509 -0.124569364 0.11056768 -0.14968514
00000000: e520 303e 8522 5abe dccb 59be 8b54 533e
00000010: 27e2 38be 4a36 f03c 2831 433e a4d0 513e
00000020: b4a4 0c3e b9ed cbbc a5ea f1bd 9835 2d3d
00000030: b0ae a43d 20e5 04be 9165 d4bd f2fa ba3d
00000040: 4a34 0abe 391e ffbd 4f71 e23d 1047 19be

network.hidden_layer_3.weight f4 [20, 20]
0.19550325 -0.05906516 -0.11913076 -0.02206566 0.00013454902 0.15689711 0.20611353 -0.22294347
-0.22396281 0.106412984 0.13781236 -0.19266827 0.035855874 -0.04928859 -0.052176043 0.22907116
0.10017024 0.0568556 -0.0745795 -0.03954123 -0.062149726 0.102872446 0.14561006 -0.08054143
0.19947822 0.15913723 -0.020515516 -0.12260615 0.13460788 0.1354105 -0.031202067 0.012518617
0.06413039 -0.14811413 0.09376823 0.049099285 -0.047489047 -0.18688618 -0.1822512 0.010973503
-0.18973255 -0.16665268 0.141504 -0.22946805 -0.14517699 0.029290073 0.0006703535 -0.106318496
-0.1724067 0.14189345 -0.013752565 0.13214882 0.21310154 -0.039001074 -0.19899258 -0.043582506
-0.032883145 -0.08859805 0.21330088 0.20804761 -0.07709799 0.16956708 0.1921396 -0.023820896
0.0053225607 -0.1448678 0.044399146 -0.09721846 -0.003787926 0.034115702 0.12848404 0.089917675
0.0068453555 -0.0212822 0.02044116 0.060126897 -0.22505018 -0.03169565 0.11698918 0.009068942
-0.07678318 0.18088748 0.21880127 -0.13976307 -0.113602154 -0.123002626 -0.190162 -0.09801207
0.20029472 0.06324831 -0.05988969 -0.091648504 0.16782631 0.11426648 -0.043988507 0.01167923
-0.15029661 -0.013742493 0.0762386 -0.093443975 0.03983426 0.1124453 -0.06856719 0.14823848
0.15914585 0.19761561 -0.1963736 -0.008591657 -0.0163732 -0.2045591 -0.0892272 -0.13264205
-0.18736523 -0.11982918 -0.17580982 -0.059242547 -0.11445489 0.14346708 0.16253136 -0.08957353
0.04183862 -0.093760796 0.120322786 0.17134582 0.18892847 -0.10910359 -0.08415647 -0.0077299885
-0.13193895 0.041886196 0.062685065 -0.23148476 0.11178341 0.15183423 0.22202426 0.13793021
0.1863986 0.1803951 -0.151017 -0.11812385 0.0823365 0.1649063 -0.008535184 0.10654849
-0.13691278 0.14411244 0.038139112 -0.10210763 -0.031230357 -0.043531008 -0.03749064 0.09511744
0.19558229 -0.14431743 0.17103003 0.17597163 0.15240835 -0.20502761 0.19841708 -0.13044441
-0.1306218 -0.1388645 -0.11739855 0.20945567 0.20770171 0.16142704 0.18623276 -0.14727427
-0.07906597 0.14296684 0.09130622 0.09283296 0.17022456 -0.15066598 0.03936713 0.14498343
-0.07941675 -0.1791806 0.14001538 -0.16281086 0.014285178 -0.19096106 0.06450411 -0.1206483
0.063632086 0.117422484 0.009689029 -0.118265375 0.051180072 -0.22084416 -0.018524276 -0.12748481
-0.18161443 0.046878923 -0.014569257 0.108376 0.06384697 0.079363264 0.11193847 -0.034608934
-0.14591067 -0.1732621 -0.004097821 -0.057927772 0.1661555 0.15276048 0.12190676 0.13104685
-0.1200133 -0.11222301 0.20646454 0.17217098 -0.19236659 -0.108031966 0.1744716 -0.20833702
0.07995648 0.046587594 -0.21608299 0.17244576 -0.20015831 -0.008007527 -0.118499085 0.07995148
0.10864672 -0.08444596 -0.09110095 -0.18118437 -0.06289157 0.17918405 -0.19804402 0.18423009
-0.08521385 0.06966464 -0.07639365 -0.15956202 0.03797282 0.001974327 0.106366776 -0.068299614
-0.016168322 -0.14673439 -0.18808213 -0.074157506 -0.18201128 -0.21855679 0.013687283 -0.07119132
0.09451479 -0.16008595 -0.0859184 -0.060535733 -0.09352156 0.011267025 -0.12104088 -0.072128825
00000000: 0132 483e 4fee 71bd d4fa f3bd 0bc3 b4bc
00000010: ba15 0d39 a3a9 203e 6d0f 533e 4b4b 64be
00000020: 8256 65be 0def d93d af1e 0d3e d54a 45be
00000030: 9cdd 123d d5e2 49bd 8cb6 55bd a191 6a3e
00000040: 0e26 cd3d 6be1 683d 23bd 98bd fcf5 21bd
00000050: b690 7ebd caae d23d ce1a 153e e8f2 a4bd
00000060: 0544 4c3e dff4 223e 2810 a8bc ef18 fbbd
00000070: a6d6 093e 0da9 0a3e 7a9b ffbc e31a 4d3c
00000080: cb56 833d 3bab 17be 8f09 c03d 551c 493d
00000090: e083 42bd 175f 3fbe 0fa0 3abe 35ca 333c
000000a0: 4049 42be 00a7 2abe 6de6 103e acf9 6abe
000000b0: 47a9 14be bcf1 ef3c a9ba 2f3a 83bd d9bd
000000c0: 628b 30be 844c 113e 7052 61bc 0552 073e
000000d0: 4a37 5a3e 97bf 1fbd b6c4 4bbe 9283 32bd
000000e0: 7ab0 06bd e572 b5bd 8c6b 5a3e 6f0a 553e
000000f0: 8de5 9dbd fea2 2d3e 3ec0 443e 0a24 c3bc
00000100: e068 ae3b 3958 14be e1db 353d 791a c7bd
00000110: da3e 78bb e8bc 0b3d 5291 033e c226 b83d
00000120: 014f e03b 0258 aebc 3874 a73c 9f47 763d
00000130: 8e73 66be 4cd3 01bd 0698 ef3d e695 143c
00000140: 8040 9dbd 913a 393e 710d 603e 0d1e 0fbe
00000150: 3fa8 e8bd cde8 fbbd d4b9 42be 8dba c8bd
00000160: 0f1a 4d3e 5488 813d e44e 75bd 36b2 bbbd
00000170: a9da 2b3e 8b04 ea3d 4b2d 34bd 3e5a 3f3c
00000180: 5be7 19be 3228 61bc fc22 9c3d 8e5f bfbd
00000190: 4029 233d b949 e63d f46c 8cbd d4cb 173e
000001a0: 21f7 223e bf5b 4a3e 2916 49be 05c4 0cbc
000001b0: 1721 86bc f177 51be c0bc b6bd 51d3 07be
000001c0: acdc 3fbe 0069 f5bd 7d07 34be 50a8 72bd
000001d0: 5367 eabd 09e9 123e 9f6e 263e 5472 b7bd
000001e0: f95e 2b3d a905 c0bd cb6b f63d 4775 2f3e
000001f0: 7776 413e b471 dfbd 3a5a acbd d84b fdbb
00000200: 011b 07be dc90 2b3d 0761 803d 570a 6dbe
00000210: b3ee e43d 6f7a 1b3e 545a 633e 943d 0d3e
00000220: 46df 3e3e 7eb9 383e 33a4 1abe ebea f1bd
00000230: 0aa0 a83d 32dd 283e 28d7 0bbc 1836 da3d
00000240: dd32 0cbe 3692 133e c237 1c3d ce1d d1bd
00000250: ced6 ffbc 924d 32bd c98f 19bd efcc c23d
00000260: b946 483e f3c7 13be 7f22 2f3e e831 343e
00000270: ef10 1c3e c2f2 51be d92d 4b3e 3893 05be
00000280: b9c1 05be 7f32 0ebe a76e f0bd 8c7b 563e
00000290: c2af 543e 214d 253e cdb3 3e3e 11cf 16be
000002a0: 57ed a1bd e665 123e c1fe ba3d 351f be3d
000002b0: 594f 2e3e 2f48 1abe 6d3f 213d 8976 143e
000002c0: 40a5 a2bd 1f7b 37be 3160 0f3e e4b7 26be
000002d0: 610c 6a3c 4c8b 43be bb1a 843d 7516 f7bd
000002e0: 8a51 823d 337b f03d bcbe 1e3c 1e35 f2bd
000002f0: 32a2 513d f924 62be 39c0 97bc 618b 02be
00000300: 22f9 39be 1d04 403d e5b3 6ebc 3cf4 dd3d
00000310: 33c2 823d 3589 a23d ff3f e53d 19c2 0dbd
00000320: 9b69 15be 9f6b 31be 0447 86bb ac45 6dbd
00000330: ab24 2a3e 3e6d 1c3e 40aa f93d 2531 063e
00000340: 88c9 f5bd 2dd5 e5bd 716b 533e 974d 303e
00000350: bffb 44be dd3f ddbd afa8 323e 4d56 55be
00000360: 39c0 a33d a2d2 3e3d dc44 5dbe 9f95 303e
00000370: 4df6 4cbe 0132 03bc a6af f2bd 9abd a33d
00000380: 2c82 de3d 01f2 acbd 2393 babd 6588 39be
00000390: 4ccd 80bd 067c 373e 0dcc 4abe d0a6 3c3e
000003a0: 9984 aebd 56ac 8e3d 4674 9cbd 3a64 23be
000003b0: 6389 1b3d b663 013b d3d6 d93d abe0 8bbd
000003c0: 6e73 84bc 8a41 16be 9a98 40be e4df 97bd
000003d0: 2a61 3abe 5acd 5fbe a040 603c c1cc 91bd
000003e0: f890 c13d 92ed 23be fcf5 afbd 51f4 77bd
000003f0: 3b88 bfbd 5499 383c 48e4 f7bd 47b8 93bd

network.hidden_layer_3.bias f4 [20]
0.059264123 -0.13264777 -0.08564839 0.006284721 -0.058126666 0.11351125 0.00730547 0.028829921
0.050680887 0.18796569 0.14431183 0.17962617 -0.04684325 0.13698964 0.045700688 0.009530291
0.18758169 -0.19288881 0.015404277 0.006718064
00000000: f0be 723d d1d4 07be 6c68 afbd 10f0 cd3b
00000010: 3a16 6ebd 9678 e83d b962 ef3b ba2c ec3c
00000020: c396 4f3d 147a 403e 7bc6 133e ecef 373e
00000030: b5de 3fbd 0347 0c3e a530 3b3d f024 1c3c
00000040: 6a15 403e a584 45be 3862 7c3c 3523 dc3b

network.hidden_layer_4.weight f4 [20, 20]
-0.1796211 -0.13965364 -0.11434354 0.01984185 0.073406294 0.016421461 0.19727956 -0.094534196
0.18018447 0.077849016 0.13772322 0.16941273 0.1874534 -0.09805398 -0.0633587 0.129757
-0.18551737 0.080855206 0.0558835 0.13737753 -0.20171082 -0.15232621 -0.08173424 0.061773855
0.12519631 -0.209073 -0.16718444 -0.028218301 -0.062142517 -0.19332647 -0.08505538 -0.1585221
0.14203648 0.044312146 -0.20905529 -0.023308435 0.11912225 -0.09757131 -0.16177323 0.08810928
-0.04847996 -0.100417584 -0.15697189 0.04192048 -0.1430303 0.07217691 0.21865156 0.004504364
0.07076378 0.011590276 0.012102755 0.16731662 -0.15195493 -0.060029615 0.15940763 -0.17226532
0.21686034 0.1834607 -0.090937845 -0.116716765 0.1397318 0.041351706 -0.14811479 0.071105525
-0.1967172 -0.1860023 -0.091198444 -0.10981114 0.11527818 -0.099077746 0.18695788 -0.18214887
0.14891395 0.091675326 0.03314087 -0.006280926 -0.11100201 -0.10924488 0.013229712 -0.16084313
0.105151094 -0.18674289 -0.07161445 -0.03289962 -0.055947732 0.095895946 -0.032439664 -0.030607406
-0.21815939 -0.0726677 0.14451878 0.032588374 -0.19165911 0.035525914 0.19902731 0.1839647
0.06805333 0.12830837 -0.089568414 -0.17920116 -0.048725836 -0.18113728 -0.0054071536 0.01669494
-0.11056871 0.20599349 0.17415911 0.14573978 -0.11396983 0.009373045 -0.0097630825 -0.08549176
-0.14312063 -0.021028081 0.15177172 -0.20988896 -0.0019749023 0.22108388 0.08575309 0.1222528
0.026488114 -0.024535859 0.008359919 -0.2125776 -0.062288284 0.112575695 -0.056313165 -0.05418768
-0.05095342 0.21182382 -0.22349325 0.19019818 0.09834497 -0.04887521 -0.08034963 0.12716535
-0.08036335 0.12885955 0.19006303 -0.14212318 -0.15432914 -0.19526708 0.05132748 -0.13778709
-0.081218235 0.024858272 0.19071607 0.07260848 -0.13346873 0.1526708 -0.12670931 0.06671621
0.21095905 0.10437683 -0.05998785 0.03758149 0.21033515 0.0018158602 0.21876127 0.22297171
0.018850304 0.0022890365 0.16224724 0.0072716204 -0.00039214327 -0.098784596 0.22323203 0.13987829
-0.10769747 0.16070578 0.1082884 0.10913571 0.17017922 0.0675747 -0.07073449 -0.16751851
-0.09621127 -0.112859026 -0.14521895 -0.19961417 0.09415736 0.007390589 0.15334606 0.018353963
0.124580726 -0.095021926 0.074493065 0.18512966 0.18845609 -0.0068134028 0.0510638 0.019628111
-0.023466686 0.17076139 -0.16654722 -0.08299243 0.15378715 -0.11311434 0.16281216 0.11133155
0.15578459 0.03085156 -0.0237052 -0.18830769 -0.1935904 -0.19387527 -0.0965967 -0.058204424
-0.01286275 -0.0696947 -0.22405367 -0.030012095 -0.12823114 -0.067572914 0.13170618 -0.18915136
-0.020007078 0.12994182 -0.1593089 -0.006358518 -0.08875184 -0.005784402 -0.17212512 0.016589953
-0.18244226 -0.14085865 0.1100494 -0.20763414 -0.20491916 -0.21153866 -0.090728104 -0.051855497
0.21376711 -0.06872996 -0.03645097 -0.0035517467 -0.15341741 -0.111878194 -0.19552144 -0.00802151
-0.15504077 0.1861442 0.05680855 -0.028974649 -0.060160257 0.099220514 0.081508026 -0.029472554
0.055073775 -0.20910737 -0.079438485 0.11446372 0.032125603 -0.14723524 -0.099510096 0.0074822563
00000000: 98ee 37be 5d01 0fbe f22c eabd 608b a23c
00000010: 0a56 963d 4d86 863c a703 4a3e 259b c1bd
00000020: 4782 383e 4e6f 9f3d 5107 0d3e 887a 2d3e
00000030: c9f3 3f3e 86d0 c8bd 35c2 81bd 05df 043e
00000040: 44f8 3dbe 6a97 a53d 19e6 643d b2ac 0c3e
00000050: 488d 4ebe 67fb 1bbe 4864 a7bd 9506 7d3d
00000060: 7633 003e 3c17 56be 6632 2bbe 112a e7bc
00000070: 2789 7ebd 60f7 45be 8431 aebd 9e53 22be
00000080: 0372 113e a780 353d 9712 56be 55f1 bebc
00000090: 5ef6 f33d 78d3 c7bd e2a7 25be a372 b43d
000000a0: ec92 46bd bca7 cdbd 3dbd 20be cfb4 2b3d
000000b0: 8976 12be 7dd1 933d 32e6 5f3e 5899 933b
000000c0: 9aec 903d 24e5 3d3c a24a 463c 0c55 2b3e
000000d0: 139a 1bbe 9de1 75bd c13b 233e 5266 30be
000000e0: a310 5e3e 1fdd 3b3e 9f3d babd 3309 efbd
000000f0: da15 0f3e 6860 293d 67ab 17be c69f 913d
00000100: 3c70 49be 6377 3ebe 40c6 babd aae4 e0bd
00000110: f716 ec3d 46e9 cabd e371 3f3e 3c85 3abe
00000120: e67c 183e 46c0 bb3d b9be 073d 3ad0 cdbb
00000130: 0655 e3bd c8bb dfbd 6fc1 583c 10b4 24be
00000140: 7559 d73d 8739 3fbe 99aa 92bd c0c1 06bd
00000150: 7329 65bd 1865 c43d 74df 04bd 62bc fabc
00000160: 2d65 5fbe ced2 94bd bbfc 133e 637b 053d
00000170: 4942 44be 9f83 113d d1cd 4b3e 3e61 3c3e
00000180: 8b5f 8b3d 4563 033e a56f b7bd 8280 37be
00000190: be94 47bd 0d7c 39be 7e2e b1bb d4c3 883c
000001a0: d971 e2bd f5ef 523e c456 323e cf3c 153e
000001b0: 0469 e9bd 6691 193c 56f5 1fbc 4e16 afbd
000001c0: 378e 12be 1543 acbc 0c6a 1b3e 22ed 56be
000001d0: 5d6d 01bb d063 623e 519f af3d ad5f fa3d
000001e0: 9afd d83c 6dff c8bc 0bf8 083c f1ad 59be
000001f0: 0022 7fbd 168e e63d a2a8 66bd e7f3 5dbd
00000200: 89b4 50bd 58e8 583e 6adb 64be 50c3 423e
00000210: 1669 c93d 5f31 48bd 598e a4bd a237 023e
00000220: 8a95 a4bd c2f3 033e e29f 423e bd88 11be
00000230: 7508 1ebe 18f4 47be c33c 523d 0f18 0dbe
00000240: bf55 a6bd 93a3 cb3c 134b 433e c1b3 943d
00000250: 07ac 08be bc55 1c3e 16c0 01be 82a2 883d
00000260: a605 583e 85c3 d53d d2b5 75bd 0cef 193d
00000270: 1962 573e 2802 ee3a f402 603e b252 643e
00000280: f46b 9a3c a903 163b 2424 263e c646 ee3b
00000290: 9498 cdb9 944f cabd f096 643e 413c 0f3e
000002a0: 7e90 dcbd 0e90 243e 4fc6 dd3d 8b82 df3d
000002b0: 7643 2e3e 9b64 8a3d 3fdd 90bd f989 2bbe
000002c0: 6a0a c5bd a222 e7bd 47b4 14be a867 4cbe
000002d0: 93d5 c03d c12c f23b c006 1d3e 0d5b 963c
000002e0: 2e24 ff3d db9a c2bd d28f 983d a192 3d3e
000002f0: a2fa 403e f742 dfbb 4628 513d 22cb a03c
00000300: 353d c0bc 13dc 2e3e 5b8b 2abe eff7 a9bd
00000310: 617a 1d3e 7ea8 e7bd 3bb8 263e cc01 e43d
00000320: ff85 1f3e 69bc fc3c 6831 c2bc bbd3 40be
00000330: 903c 46be 3d87 46be 7ed4 c5bd c367 6ebd
00000340: 49be 52bc 18bc 8ebd 536e 65be eddb f5bc
00000350: 064f 03be ab63 8abd fcdd 063e e5b0 41be
00000360: e2e5 a3bc 780f 053e df21 23be 1d5b d0bb
00000370: 86c3 b5bd 158b bdbb 9141 30be a7e7 873c
00000380: 25d2 3abe 403d 10be 9461 e13d 0b9e 54be
00000390: 54d6 51be 979d 58be a8cf b9bd 6e66 54bd
000003a0: c4e5 5a3e 4bc2 8cbd 9d4d 15bd 6cc4 68bb
000003b0: 7419 1dbe 6520 e5bd c636 48be a76c 03bc
000003c0: 02c3 1ebe 969c 3e3e 15b0 683d 3e5c edbc
000003d0: 9a6a 76bd 2034 cb3d aeed a63d 6d70 f1bc
000003e0: 0a95 613d 3e20 56be a5b0 a2bd f46b ea3d
000003f0: 2396 033d d6c4 16be f3cb cbbd b72d f53b

network.hidden_layer_4.bias f4 [20]
-0.0042335778 0.14348832 -0.10435361 0.12143769 0.16706152 0.17786577 -0.063022815 -0.13996571
-0.009354765 -0.20262365 0.117498904 -0.054462478 0.08902176 -0.15733309 0.20268627 -0.023767753
-0.18556447 0.18115406 0.17133869 -0.095053494
00000000: d3b9 8abb 9aee 123e 58b7 d5bd 53b4 f83d
00000010: 2d12 2b3e 7222 363e 1b12 81bd 2c53 0fbe
00000020: ba44 19bc 937c 4fbe 44a3 f03d 0c14 5fbd
00000030: 0a51 b63d ed1b 21be fd8c 4f3e 97b4 c2bc
00000040: 9d04 3ebe 7380 393e 6973 2f3e 68ab c2bd

network.hidden_layer_5.weight f4 [20, 20]
0.12930353 0.1709945 -0.11819513 0.1268438 -0.19243692 -0.19955005 -0.09302864 -0.022784516
-0.09704551 0.061614566 -0.110285446 -0.19715287 0.102347285 -0.15862353 -0.0829006 -0.18046132
-0.09466058 0.21521424 -0.08723307 0.061822187 0.18338542 0.001218723 0.1611795 -0.20230335
-0.04953822 0.09882561 0.13896711 -0.04105863 0.059277765 0.18809518 0.17477192 -0.026339972
0.04808038 0.16761838 0.04779757 0.10547977 -0.0863456 0.040997572 -0.03030275 0.039626844
-0.049375493 0.20778516 -0.13114794 0.051696874 0.095332585 0.21829766 0.16800466 -0.20008945
0.07690811 0.19413832 0.060573306 0.09448368 0.08215201 -0.20667192 -0.039378654 -0.012370652
0.024835784 -0.075827114 0.21079661 0.08131135 0.02364986 0.17159392 0.15401913 0.08359401
-0.19114423 0.13696767 0.024593033 0.041612417 -0.19252734 0.06788242 0.14056419 -0.17114064
0.13491991 0.1422863 0.1977824 -0.0860729 -0.05003881 -0.011349178 0.18971781 0.0071453475
-0.034607153 0.027856324 0.06781705 0.09057026 0.0769673 -0.11979042 -0.17395753 -0.09646576
-0.04150515 0.18510412 -0.18315211 0.08352761 -0.020282967 -0.18219368 -0.06368244 0.10089511
0.030361494 0.002936883 -0.021644233 -0.0594284 0.06268411 -0.12886198 0.20797917 -0.20092762
0.084523395 -0.1220754 -0.069536604 -0.005820383 0.22676037 -0.06957218 0.066298254 0.1388825
0.035152167 -0.043635126 0.090367235 0.18969893 0.017468933 0.22304483 -0.09118095 -0.017025542
-0.18381715 -0.15013085 -0.078185625 0.13004185 0.13421199 0.21575342 0.2281154 0.104135655
-0.09950814 -0.18175495 -0.11435197 0.095804155 -0.081394 0.16335195 -0.15917356 -0.028292188
-0.091629796 -0.035013203 -0.1483894 -0.14842789 0.07469223 -0.04410147 -0.009097028 -0.08362434
0.08864346 -0.11940337 -0.0799602 0.10857483 0.19175074 -0.08787297 -0.060954846 -0.20522764
0.20176336 -0.16916649 0.17459095 -0.16505745 -0.12468711 0.19051991 0.10112283 0.12098286
-0.10955806 -0.1147623 -0.19084747 0.057912 0.12982747 0.20491958 -0.16967738 -0.17766078
0.19532347 0.14258651 0.12415212 -0.20725241 0.036294848 0.17057087 0.21554354 -0.12809163
0.14078295 0.06946089 -0.21902794 0.15704475 0.0070173433 -0.018503457 -0.16206372 0.08784646
-0.09432324 -0.06387463 0.121111214 -0.023101535 -0.12956633 0.0070477426 0.14091863 0.20002513
-0.1450861 0.16461991 -0.15208627 -0.012178892 0.16597073 -0.09210647 -0.071359605 0.19296758
0.04499578 -0.22152098 0.14054498 0.06268209 0.17558181 0.08194968 -0.098983064 -0.17750715
0.2024525 -0.11130905 0.098109275 0.12163295 0.07675412 -0.11466455 0.07276272 0.1366639
-0.21720259 -0.17245734 0.13922626 -0.16347505 -0.047547296 -0.15231758 -0.06370819 0.11244483
0.021944784 0.10816943 0.18997455 0.073316716 -0.02263982 0.15454932 -0.047760148 0.09916675
0.14417197 0.085664816 -0.077644855 0.15643302 0.009371698 0.041922446 0.04351256 0.057254743
0.04102038 -0.2030476 0.1906979 -0.16200848 -0.078706786 -0.080151044 -0.11610854 -0.020463713
0.10564026 -0.18167368 0.18241972 -0.22015545 -0.20689662 0.054424167 -0.11611763 0.14845145
00000000: 2568 043e 2f19 2f3e 4a10 f2bd 57e3 013e
00000010: 2f0e 45be d956 4cbe cd85 bebd 98a6 babc
00000020: ccbf c6bd 8e5f 7c3d 56dd e1bd 71e2 49be
00000030: 749b d13d 356e 22be cac7 a9bd daca 38be
00000040: 68dd c1bd 1f61 5c3e 40a7 b2bd 4339 7d3d
00000050: 63c9 3b3e 8fbd 9f3a 3d0c 253e 9c28 4fbe
00000060: 97e8 4abd 1565 ca3d 654d 0e3e 182d 28bd
00000070: 3ecd 723d 069c 403e 69f7 323e edc6 d7bc
00000080: efef 443d 27a4 2b3e 62c7 433d c705 d83d
00000090: f6d5 b0bd 12ed 273d 793d f8bc c24f 223d
000000a0: f53d 4abd a2c5 543e a54b 06be 1ac0 533d
000000b0: bb3d c33d 6c89 5f3e 6a09 2c3e 40e4 4cbe
000000c0: 0082 9d3d 32cc 463e b71b 783d a980 c13d
000000d0: 503f a83d cea1 53be 834b 21bd 46ae 4abc
000000e0: 6a74 cb3c 3f4b 9bbd 11db 573e 9186 a63d
000000f0: 5abd c13c 51b6 2f3e 31b7 1d3e 5633 ab3d
00000100: 50bb 43be 4141 0c3e 5477 c93c c871 2a3d
00000110: e325 45be f005 8b3d 0ff0 0f3e 7e3f 2fbe
00000120: 7228 0a3e 80b3 113e 7887 4a3e fd46 b0bd
00000130: 7ff5 4cbd e7f1 39bc 6345 423e 8523 ea3b
00000140: 3bc0 0dbd f232 e43c aae3 8a3d e77c b93d
00000150: 08a1 9d3d ae54 f5bd ec21 32be d78f c5bd
00000160: 4e01 2abd ef8b 3d3e 3a8c 3bbe 8610 ab3d
00000170: 7728 a6bc fb90 3abe f06b 82bd 18a2 ce3d
00000180: abb8 f83c b878 403b 3f4f b1bc 326b 73bd
00000190: 8760 803d 65f4 03be 7ef8 543e f8bf 4dbe
000001a0: 9a1a ad3d ab02 fabd 3569 8ebd e9b8 bebb
000001b0: df33 683e dc7b 8ebd 61c7 873d 3737 0e3e
000001c0: b8fb 0f3d bfba 32bd 7512 b93d 7040 423e
000001d0: 021b 8f3c dd65 643e 14bd babd 2679 8bbc
000001e0: 903a 3cbe e7bb 19be c91f a0bd b129 053e
000001f0: de6e 093e 77ee 5c3e 1597 693e 1345 d53d
00000200: ecca cbbd f81d 3abe 5e31 eabd f834 c43d
00000210: e6b1 a6bd bc45 273e 65fe 22be 05c5 e7bc
00000220: 67a8 bbbd 016a 0fbd 64f3 17be 7bfd 17be
00000230: 3df8 983d bea3 34bd b30b 15bc 3d43 abbd
00000240: b48a b53d c189 f4bd 2cc2 a3bd 7b5c de3d
00000250: 4e5a 443e bef6 b3bd caab 79bd 3227 52be
00000260: 0e9b 4e3e fb39 2dbe f8c7 323e d204 29be
00000270: f55b ffbd a717 433e 7c19 cf3d ddc5 f73d
00000280: fa5f e0bd 7f08 ebbd 856d 43be 2235 6d3d
00000290: 7ef1 043e 70d6 513e e8bf 2dbe b5ec 35be
000002a0: e002 483e 3302 123e 7743 fe3d fa39 54be
000002b0: e8a9 143d 21aa 2e3e 72b7 5c3e 742a 03be
000002c0: 6829 103e 8341 8e3d dc48 60be 57d0 203e
000002d0: bef1 e53b 9094 97bc 08f4 25be d8e8 b33d
000002e0: 8b2c c1bd b4d0 82bd 2809 f83d 6e3f bdbc
000002f0: 09ad 04be c0f0 e63b f94c 103e 63d3 4c3e
00000300: 7391 14be 1f92 283e 81bc 1bbe fa89 47bc
00000310: 3bf4 293e 51a2 bcbd fc24 92bd 4b99 453e
00000320: 7f4d 383d 65d6 62be 06eb 0f3e 785f 803d
00000330: b8cb 333e 3cd5 a73d a2b7 cabd 6fc4 35be
00000340: b54f 4f3e 00f6 e3bd 84ed c83d b21a f93d
00000350: 4431 9d3d 3fd5 eabd 9f04 953d 9ff1 0b3e
00000360: 5b6a 5ebe a898 30be 5491 0e3e 0166 27be
00000370: f4c0 42bd 24f9 1bbe 7179 82bd 7a49 e63d
00000380: 8cc5 b33c ef87 dd3d b088 423e 1327 963d
00000390: 2577 b9bc 2d42 1e3e 25a0 43bd f017 cb3d
000003a0: d1a1 133e 0971 af3d 4404 9fbd fa2f 203e
000003b0: c08b 193c dfb6 2b3d 3a3a 323d f383 6a3d
000003c0: fc04 283d b6eb 4fbe 4f46 433e 8de5 25be
000003d0: 0631 a1bd 3b26 a4bd 50ca edbd 84a3 a7bc
000003e0: ec59 d83d aa08 3abe 3ccc 3a3e 6e70 61be
000003f0: b5dc 53be e0eb 5e3d 14cf edbd a803 183e

network.hidden_layer_5.bias f4 [20]
0.116018705 -0.16966285 -0.13116498 -0.18521436 -0.20072468 0.13737644 -0.10655282 -0.21236093
0.21665116 0.20625052 0.18981922 -0.15143412 -0.13646528 0.048406243 0.14314468 0.15173675
-0.12776683 0.00021193075 -0.024045916 -0.038374897
00000000: 379b ed3d 19bc 2dbe 1d50 06be d5a8 3dbe
00000010: c58a 4dbe 69ac 0c3e 5d38 dabd 2575 59be
00000020: cdd9 5d3e 5633 533e f85f 423e 8c11 1bbe
00000030: 8ebd 0bbe a045 463d 8594 123e e160 1b3e
00000040: 4fd5 02be ba39 5e39 f1fb c4bc ff2e 1dbd

network.hidden_layer_6.weight f4 [20, 20]
0.03482793 0.17897022 -0.06409787 0.09329548 0.19011362 0.029072978 -0.13125774 -0.05177728
0.20772313 -0.16763988 -0.18513592 -0.20873061 -0.07613354 0.1750695 -0.21450335 0.053031407
-0.11006783 0.074818045 -0.1466032 -0.1632626 0.0960053 -0.11676102 -0.16726258 -0.055348553
0.18598278 0.009362523 0.12953065 0.18100652 -0.045559365 0.21114434 -0.015157682 -0.04175911
0.16464126 -0.11022599 0.017583458 -0.0155279515 -0.014321001 0.1649972 0.13982105 -0.050854642
-0.18287916 0.03344113 0.13070855 0.08482772 -0.14829272 0.053327326 -0.21507189 0.0034163499
-0.15988514 0.03899005 0.17567763 0.11495493 0.11819312 -0.21498343 0.13668141 -0.14303009
-0.17100543 -0.19971585 0.12301925 0.1477057 -0.03735537 -0.11430024 0.023704797 0.057592135
0.030441377 -0.097956926 0.056769557 -0.047025498 0.056149706 0.021290896 0.06074028 -0.08188424
-0.10622469 -0.07902033 0.15855564 -0.13746113 -0.1320859 -0.16363 0.00689314 0.17722113
0.08019714 0.16987734 -0.20627403 0.112238035 -0.21997519 -0.21163464 0.18488553 0.18498424
-0.14413343 0.21343343 -0.074950255 -0.19933553 0.16661748 -0.13132034 0.17681094 -0.21179035
0.09060822 -0.053892773 0.074736945 -0.058374945 0.17376654 -0.097774796 0.08929703 0.12162566
-0.040155165 -0.15642452 0.1348267 0.11041178 -0.03473821 -0.18599075 0.110009 0.09650914
0.16786204 -0.20654298 0.035904843 -0.18265642 -0.07410089 -0.14038241 0.15003406 -0.22307871
0.18905956 0.028286463 -0.12274727 -0.121804774 0.034283333 -0.030307768 0.03787911 0.17126094
-0.04730291 0.094324104 0.0550171 -0.16945505 0.10774774 -0.15373021 0.08148694 0.19368976
0.1208022 -0.14798796 0.010867277 -0.03227709 -0.06450069 0.17319833 -0.08987505 -0.082456216
-0.20954497 -0.06669751 0.12567781 0.13740847 0.05845835 -0.02653966 0.060479 -0.0672365
-0.12246245 -0.044689476 -0.2156972 0.131028 -0.16250232 0.15894459 0.21802878 0.0328719
0.117561586 0.11321454 -0.21850333 0.00028701627 0.041105174 0.16291341 0.19731598 0.073407754
0.046343673 -0.17095585 -0.17960311 0.17015433 -0.00025582113 0.08651042 -0.16204123 -0.011228207
-0.04609333 0.13208157 -0.034591127 -0.01805808 0.16023606 0.15277232 -0.20616338 0.0210053
0.017536733 -0.15109718 -0.013861784 0.11854555 -0.21072553 -0.04178729 -0.15274313 0.123493485
0.22463018 -0.16486777 0.11309545 -0.045197092 -0.015763085 -0.10461356 -0.17214842 0.2113493
0.10576726 0.0065528257 -0.21918602 0.15970136 0.027273001 0.06900812 0.009566287 -0.008344661
0.20953336 0.17221312 0.061963856 0.07766813 0.123880826 0.022542723 -0.14881667 -0.010456805
0.073546655 0.07743341 -0.21022624 0.05650809 0.16270575 0.1606579 -0.19120249 -0.06393349
-0.062400382 0.1654526 0.0201526 0.09582998 0.20328301 0.02678149 0.064334854 -0.0866346
0.075415105 -0.1459213 0.009512836 0.014318506 0.14200473 -0.09367181 0.18978272 0.0061574043
-0.0045716767 0.16055126 0.21467209 0.1976203 -0.1441836 0.10043154 -0.03821207 0.038179033
0.1910109 -0.02060306 -0.11990636 0.02912404 0.0036706775 -0.089876726 0.07792935 -0.08974385
00000000: bba7 0e3d f843 373e be45 83bd b311 bf3d
00000010: 25ad 423e 742a ee3c 6e68 06be 6a14 54bd
00000020: 5fb5 543e caa9 2bbe 4594 3dbe 7abd 55be
00000030: e7eb 9bbd 6b45 333e c4a6 5bbe 7637 593d
00000040: 3e6b e1bd 343a 993d 261f 16be 502e 27be
00000050: 6d9e c43d 6720 efbd e246 2bbe 2ab5 62bd
00000060: 4572 3e3e 4565 193c afa3 043e c659 393e
00000070: 759c 3abd 3936 583e ed57 78bc 9a0b 2bbd
00000080: b897 283e 2abe e1bd 2f0b 903c f368 7ebc
00000090: a2a2 6abc 07f5 283e 402d 0f3e f54c 50bd
000000a0: ad44 3bbe 91f9 083d 76d8 053e 28ba ad3d
000000b0: 0cda 17be c16d 5a3d ce3b 5cbe d7e4 5f3b
000000c0: eeb8 23be 08b4 1f3d d6e4 333e 7e6d eb3d
000000d0: 3c0f f23d 9e24 5cbe 36f6 0b3e 7b76 12be
000000e0: 0c1c 2fbe 5082 4cbe 84f1 fb3d 2a40 173e
000000f0: f201 19bd 3f16 eabd 9030 c23c bbe5 6b3d
00000100: 3260 f93c a49d c8bd 3287 683d cf9d 40bd
00000110: 3cfd 653d 3f6a ae3c cdca 783d edb2 a7bd
00000120: 558c d9bd 69d5 a1bd 695c 223e 9cc2 0cbe
00000130: 8741 07be 9f8e 27be d9df e13b 7579 353e
00000140: 663e a43d 53f4 2d3e 8039 53be 0edd e53d
00000150: 2d41 61be c0b6 58be a252 3d3e 826c 3d3e
00000160: b797 13be 4b8e 5a3e 857f 99bd 9d1e 4cbe
00000170: c69d 2a3e d778 06be ed0d 353e 92df 58be
00000180: cd90 b93d abbe 5cbd af0f 993d 911a 6fbd
00000190: dbef 313e 273e c8bd 5ce1 b63d e016 f93d
000001a0: be79 24bd c02d 20be 0310 0a3e 921f e23d
000001b0: a749 0ebd 5c74 3ebe 664c e13d 96a6 c53d
000001c0: 07e4 2b3e 0180 53be f510 133d 490a 3bbe
000001d0: 35c2 97bd 68c0 0fbe 87a2 193e bf6e 64be
000001e0: d498 413e 03b9 e73c ec62 fbbd c874 f9bd
000001f0: ae6c 0c3d ff47 f8bc 2027 1b3d 075f 2f3e
00000200: b2c0 41bd ff2c c13d 9c59 613d a085 2dbe
00000210: d9aa dc3d 746b 1dbe a0e2 a63d 9c56 463e
00000220: 2567 f73d 288a 17be aa0c 323c fb34 04bd
00000230: f018 84bd e75a 313e 6910 b8bd cede a8bd
00000240: f592 56be b498 88bd afb1 003e ceb4 0c3e
00000250: 0672 6f3d b369 d9bc d4b8 773d 4ab3 89bd
00000260: 98cd fabd 500c 37bd badf 5cbe 342c 063e
00000270: 0267 26be 5fc2 223e f042 5f3e afa4 063d
00000280: 21c4 f03d 06dd e73d 56bf 5fbe ac7a 9639
00000290: e65d 283d c6d2 263e 330d 4a3e ce56 963d
000002a0: ddd2 3d3d 0d0f 2fbe e1e9 37be f03c 2e3e
000002b0: bb1f 86b9 602c b13d 23ee 25be 83f6 37bc
000002c0: 5ccc 3cbd 6440 073e 6daf 0dbd 8aee 93bc
000002d0: ec14 243e 5970 1c3e 7e1c 53be 4f13 ac3c
000002e0: 32a9 8f3c 38b9 1abe 891c 63bc 02c8 f23d
000002f0: 6fc8 57be 2629 2bbd b268 1cbe 27ea fc3d
00000300: 7405 663e 19d3 28be 969e e73d 9620 39bd
00000310: 9621 81bc a23f d6bd ad47 30be f36b 583e
00000320: 819c d83d 16b9 d63b 4d72 60be c188 233e
00000330: a16b df3c 2154 8d3d eabb 1c3c 0cb8 08bc
00000340: ea8f 563e a358 303e d0cd 7d3d 7810 9f3d
00000350: 3bb5 fd3d 84ab b83c 6663 18be 0553 2bbc
00000360: a19f 963d 6895 9e3d 8c45 57be 0775 673d
00000370: 569c 263e 8183 243e 96ca 43be 90ef 82bd
00000380: 8b97 7fbd 686c 293e 1117 a53c 8242 c43d
00000390: 6c29 503e db64 db3c fec1 833d 7b6d b1bd
000003a0: 3c73 9a3d 656c 15be badb 1b3c 2b98 6a3c
000003b0: b069 113e 02d7 bfbd 6756 423e 0dc4 c93b
000003c0: 01ce 95bb 8d67 243e 00d3 5b3e fa5c 4a3e
000003d0: dea4 13be 0daf cd3d 4284 1cbd 9e61 1c3d
000003e0: 5d98 433e c0c7 a8bc 7791 f5bd 8a95 ee3c
000003f0: c08f 703b 4a11 b8bd 6c99 9f3d a0cb b7bd

network.hidden_layer_6.bias f4 [20]
0.030215835 0.015774777 0.20362687 -0.14622118 0.17581466 -0.026160888 0.19856386 0.11447896
-0.069097675 0.1148259 0.050718408 -0.20940615 0.17585193 -0.13037369 -0.16368623 -0.15528917
0.012676421 -0.12021509 -0.19185448 0.08661418
00000000: 3387 f73c 1b3a 813c 9083 503e 01bb 15be
00000010: c208 343e 5c4f d6bc 5354 4b3e f273 ea3d
00000020: 1583 8dbd d729 eb3d 1bbe 4f3d 916e 56be
00000030: 8712 343e ae80 05be 5d9d 27be 2004 1fbe
00000040: c3b0 4f3c 5433 f6bd 8075 44be c662 b13d
