model.onnx (onnx, 15876 bytes, 17 tensors)

input_layer.weight f4 [20, 16]
0	0x3dc8edcc	0.09810981
1	0x3d9edbfd	0.07756803
2	0xbd18e93d	-0.03733181
3	0xbd052e80	-0.03251505
4	0x3cc308a0	0.023807824
5	0x3da91384	0.082556754
6	0xbdbec81b	-0.09315511
7	0xbe467840	-0.19381809
8	0xbe1b6aa1	-0.15177394
9	0xbe0cf2dd	-0.1376452
10	0xbb937eb9	-0.0045011905
11	0xbd56c642	-0.052435167
12	0x3e07da6b	0.13266914
13	0x3e5cc923	0.21561103
14	0x3e752f8e	0.23943922
15	0xbe2b3b0e	-0.16721746
16	0xbe67858e	-0.22609541
17	0xbdc983a7	-0.09839564
18	0x3d8800d6	0.066407844
19	0xbe5e6be6	-0.21720847
20	0xbdc2f584	-0.09519485
21	0x3d3a51d0	0.04548818
22	0x3dafeb84	0.08589843
23	0x3d97a6fb	0.07404896
24	0xbe353bc5	-0.17698582
25	0x3cbbbe34	0.022917844
26	0x3e02c515	0.12770493
27	0x3daaedeb	0.083461605
28	0xbe42ba23	-0.19016318
29	0x3e55b6aa	0.20870462
30	0x3e0ac7f2	0.13552836
31	0xbde4b5a4	-0.11167458
32	0xbe4b9d7d	-0.19884296
33	0x3e53159c	0.20613712
34	0xbe03d5a8	-0.12874472
35	0xbe773842	-0.24142554
36	0xbda0f698	-0.07859534
37	0x3e09855e	0.13429782
38	0x3e7c5c6d	0.24644633
39	0x3e4e585d	0.20150895
40	0x3e37b7a5	0.17941149
41	0xbd983b3c	-0.07433173
42	0xbe58fe1c	-0.21190685
43	0xbca52aa4	-0.020161934
44	0xbe102a75	-0.14078696
45	0x3c4ebde5	0.012618517
46	0x3deb60b8	0.11493057
47	0xbd8af6fc	-0.0678539
48	0xbe69978e	-0.2281172
49	0xbe13f1cc	-0.14447707
50	0xbe5874e5	-0.21138342
51	0xbe6a51d4	-0.22882777
52	0x3e39e93e	0.18155381
53	0xbd8c91e4	-0.06863764
54	0xbdf50a62	-0.11964871
55	0x3cba8301	0.022767546
56	0x3e20bb7e	0.15696523
57	0xbe6b30bb	-0.22967808
58	0x3e7c97af	0.24667238
59	0x3e3b0d97	0.18266903
60	0x3e784f22	0.24248937
61	0xbcb3becd	-0.021941567
62	0xbe3a6b10	-0.18204904
63	0x3e2fa402	0.17152408
64	0x3d25e720	0.04050362
65	0x3e35d9a8	0.1775881
66	0xbca5fd2e	-0.020262327
67	0x3ce60220	0.028077185
68	0xbe67e542	-0.22646049
69	0xbdc56d64	-0.09640005
70	0xbe107b53	-0.14109544
71	0x3e4f2df0	0.20232368
72	0xbe30b92f	-0.17258142
73	0xbd8fbcc8	-0.07018429
74	0xbda5995c	-0.080858916
75	0x3cbcb8e0	0.023037374
76	0xbd37fea5	-0.044920582
77	0x3e850c99	0.25986174
78	0x3e47634c	0.19471473
79	0x3d4576a8	0.048208863
80	0xbe538e67	-0.20659791
81	0xbd2c96a1	-0.04213584
82	0xbe176843	-0.14785866
83	0x3e56aed6	0.20965132
84	0x3d1f5190	0.038896143
85	0xbe2fe7b6	-0.17178234
86	0x3daabb78	0.08336538
87	0xbe03a4ca	-0.12855831
88	0xbe81adba	-0.25327855
89	0x3cb96152	0.022629414
90	0xbe587b61	-0.21140815
91	0x3e5cbad0	0.21555638
92	0xbe06fab6	-0.13181576
93	0xbccfe359	-0.025376962
94	0xbe16ea3c	-0.14737791
95	0xbe4394d6	-0.19099745
96	0x3e419a5b	0.18906538
97	0xbe04f194	-0.1298278
98	0x3b2d6f9b	0.0026464227
99	0x3e1a0efe	0.15044782
100	0xbe3d7f34	-0.18505555
101	0xbdca7348	-0.098852694
102	0xbd4e73ef	-0.05040353
103	0x3e047316	0.12934527
104	0xbe85455b	-0.26029477
105	0x3df3fd9f	0.11913609
106	0xbd9af506	-0.07566266
107	0xbe77568d	-0.2415411
108	0xbdf062d3	-0.11737599
109	0x3dabf802	0.08396913
110	0xbe497df6	-0.19676957
111	0xbe0371a6	-0.12836322
112	0xbd866f16	-0.06564157
113	0xbdcf4906	-0.1012135
114	0x3da54a57	0.0807082
115	0xbdc914f4	-0.098184496
116	0x3d917ef8	0.071042955
117	0xbe15008a	-0.14550987
118	0x3d3ea1a4	0.04654087
119	0x3e260bb2	0.16215399
120	0x3e3b2f1b	0.18279688
121	0x3e006246	0.12537488
122	0x3ccf947a	0.025339354
123	0xbd97db0d	-0.074148275
124	0x3da5cdf9	0.08095927
125	0x3d1a24b4	0.03763266
126	0xbe5a59d0	-0.21323323
127	0x3e77aaac	0.241862
128	0x3d60a078	0.054840535
129	0xbdaa75f9	-0.08323283
130	0x3d3e0a42	0.0463965
131	0x3e123872	0.14279345
132	0xbe4981c6	-0.19678411
133	0xbe4f497a	-0.20242873
134	0xbe455210	-0.19269586
135	0xbd717e44	-0.058958307
136	0x3d76347f	0.060108658
137	0xbe1ed0cb	-0.15509336
138	0xbe549ff3	-0.20764141
139	0xbe1a2601	-0.1505356
140	0xbb91c744	-0.004448803
141	0x3e377286	0.17914781
142	0xbe6b92b4	-0.23005182
143	0x3c4ce560	0.012505859
144	0xbe56248c	-0.20912379
145	0x3de4db74	0.1117467
146	0x3e462b41	0.19352438
147	0xbdf84ef0	-0.12124431
148	0x3e269f6c	0.16271752
149	0x3def0448	0.116707385
150	0xbe5b59de	-0.21421
151	0xbe24d078	-0.1609515
152	0x3deee118	0.11664027
153	0xbe4fc0b3	-0.20288353
154	0x3e730c8b	0.23735254
155	0xbe78574e	-0.24252054
156	0x3e34df56	0.17663321
157	0x3e16e6f5	0.1473654
158	0xbe0bdfa6	-0.13659534
159	0xbd170350	-0.036868393
160	0xbceeba1f	-0.029141484
161	0xbe093753	-0.13400011
162	0xbe5e822d	-0.21729346
163	0xbe544802	-0.20730594
164	0x3c6a9fc0	0.014320314
165	0x3e1d9638	0.15389335
166	0x3e7ad873	0.24496631
167	0x3d9c2a10	0.0762521
168	0xbe6e3338	-0.23261726
169	0xbe689431	-0.2271278
170	0x3d530da7	0.05152669
171	0x3de25864	0.110520154
172	0xbe6fa2a8	-0.23401892
173	0xbdd353dd	-0.1031873
174	0xbda18f18	-0.07888621
175	0x3e6d137a	0.23151961
176	0xbe54e927	-0.20792066
177	0xbe11a932	-0.14224699
178	0xbe24d9d2	-0.16098717
179	0x3dea7278	0.114476144
180	0xbdc1f594	-0.094706684
181	0x3d986e28	0.07442886
182	0x3ceacc3a	0.028661836
183	0x3e2c7ea9	0.16845192
184	0x3e2dd57c	0.16975969
185	0x3e10f633	0.14156418
186	0x3e479511	0.19490458
187	0xbe60fc0e	-0.21971151
188	0xbe53130d	-0.20612736
189	0xbdb7fb85	-0.089835204
190	0x3e54e7d2	0.20791557
191	0x3e203f96	0.15649256
192	0x3d122eca	0.035689153
193	0xbcc1dabd	-0.023663873
194	0xbe006c16	-0.12541232
195	0x3e0c6c36	0.13713154
196	0x3d11b808	0.035575897
197	0x3e6c8342	0.23096946
198	0x3e1be44b	0.15223806
199	0x3e63501d	0.2219853
200	0x3e3975fc	0.18111414
201	0xbe28e193	-0.164923
202	0xbe3c3871	-0.18380906
203	0x3e825dca	0.2546218
204	0xbdf384c9	-0.11890561
205	0xbdb3872f	-0.087660186
206	0xbe51631e	-0.20447966
207	0xbc907f50	-0.017638832
208	0x3d847c8c	0.06469068
209	0xbe132d10	-0.14372659
210	0xbe5d1c4f	-0.2159283
211	0xbd4bd8f0	-0.049767435
212	0xbdce516c	-0.10074124
213	0xbdc81a64	-0.097706586
214	0x3e65609e	0.22400138
215	0xbca30305	-0.0198989
216	0x3d9baa68	0.07600862
217	0xbde2dce4	-0.11077288
218	0x3d044a97	0.032297697
219	0x3dd75af7	0.10515397
220	0xbd2d838e	-0.04236179
221	0x3e6a8dd0	0.2290566
222	0x3e2391b6	0.15973553
223	0xbdc895f0	-0.09794223
224	0xbdad83a0	-0.08472371
225	0xbd882c4f	-0.06649076
226	0xbe268e1b	-0.16265146
227	0xbe4debcc	-0.2010948
228	0xbe651988	-0.2237302
229	0x3c720b20	0.01477316
230	0x3de81fae	0.113341674
231	0x3db9bc66	0.09069137
232	0x3ddf2ccc	0.10897216
233	0x3dd4cb14	0.103902966
234	0x3d0d3bad	0.03448074
235	0x3e57b324	0.2106443
236	0xbdc19110	-0.094514966
237	0x3de294c7	0.11063533
238	0xbe76cbaa	-0.24101129
239	0xbe2eac22	-0.17057851
240	0x3e42d406	0.19026193
241	0xbe6932f3	-0.22773342
242	0x3e34017b	0.1757869
243	0xbb96f000	-0.004606247
244	0x3e2ae956	0.16690573
245	0xbe1f2d58	-0.15544641
246	0xbc787134	-0.0151637085
247	0x3d95bcd7	0.07311409
248	0x3df6a1a1	0.12042547
249	0xbe5a0342	-0.21290305
250	0x3e3d2aa2	0.18473294
251	0x3d94cb23	0.07265308
252	0xbe1b9daa	-0.15196863
253	0x3dbc3bdc	0.09191105
254	0xbd535600	-0.051595688
255	0xbd26c728	-0.040717274

input_layer.bias f4 [20]
0	0xbe73d739	-0.2381257
1	0xbc95563a	-0.018229593
2	0x3e073b86	0.132063
3	0xbe6e02a8	-0.23243201
4	0x3e587b4a	0.21140781
5	0x3e199cf7	0.15001284
6	0xbba94a80	-0.005166352
7	0xbd1458e3	-0.03621758
8	0xbe142a4a	-0.14469257
9	0xbdbe2655	-0.09284655
10	0xbce9efcc	-0.028556727
11	0xbe00d930	-0.1258285
12	0x3e0e014c	0.13867682
13	0xbe6fca15	-0.23416932
14	0xbcb5a989	-0.022175567
15	0xbe842054	-0.25805914
16	0xbdac65c1	-0.084178455
17	0xbda0981a	-0.07841511
18	0xbe0b3679	-0.13594998
19	0xbdff837f	-0.12476253

hidden_layer_1.weight f4 [20, 20]
0	0xbe6ad60e	-0.22933218
1	0xbe6b2f7f	-0.22967337
2	0x3bcace06	0.0061891107
3	0xbd40b4a3	-0.04704727
4	0xbe4e172e	-0.2012603
5	0xbcb1ec91	-0.021719249
6	0x3db28c29	0.0871814
7	0x3e35d59d	0.17757268
8	0x3d618a46	0.05506351
9	0xbe4a5b81	-0.19761468
10	0xb99567ab	-0.00028496733
11	0x3db64d07	0.089014105
12	0xbe53dfdb	-0.20690863
13	0xbe0563ad	-0.13026305
14	0xbe2b0d8a	-0.16704383
15	0xbdd40bae	-0.1035379
16	0xbe0682ba	-0.13135806
17	0xbe0ca131	-0.13733365
18	0x3b58ebaa	0.003309945
19	0x3e536a0a	0.2064592
20	0x3d8e215e	0.06939958
21	0x3e2ff57f	0.17183493
22	0xbd6657e2	-0.056236155
23	0xbd2dfb89	-0.04247621
24	0xbe16c065	-0.1472183
25	0x3dcff12d	0.101534225
26	0x3d70e1fe	0.058809273
27	0xbe0b28c8	-0.13589776
28	0xbd789ca4	-0.06069626
29	0xbe1ec588	-0.1550504
30	0x3cf5765b	0.029963663
31	0xbe707ab6	-0.2348431
32	0xbda8e0b8	-0.08245987
33	0xbbc6a05c	-0.006061597
34	0x3e0a685b	0.13516371
35	0xbba78339	-0.0051120785
36	0x3e5909f8	0.21195209
37	0x3d5a6059	0.05331454
38	0xbe5cfe7f	-0.21581458
39	0x3e183fd4	0.14868098
40	0xbe27450c	-0.16334933
41	0x3e42144b	0.18953054
42	0xbe0f5924	-0.13998848
43	0x3db909c6	0.09035067
44	0x3dce78e7	0.10081654
45	0x3e1c9aee	0.15293476
46	0x3e29a43c	0.16566557
47	0x3e28d79e	0.16488501
48	0xbe16960d	-0.14705677
49	0x3e3a4532	0.18190458
50	0xbce10bcc	-0.027471446
51	0xbe2b940b	-0.16755693
52	0x3db1da51	0.08684219
53	0x3cb77c97	0.022398276
54	0xbde63142	-0.11239864
55	0x3d65f1fe	0.056138985
56	0xbe50b117	-0.20380054
57	0x3e031f7b	0.12804978
58	0x3d2b82b1	0.041872684
59	0xbd06fa32	-0.03295345
60	0x3e3dcd3f	0.18535326
61	0xbe174bdc	-0.14775032
62	0xbd8a3d7c	-0.067500085
63	0xbc3ded51	-0.011592225
64	0xbe139aff	-0.14414595
65	0x3dec39b4	0.115344435
66	0xbcb2cc9d	-0.021826083
67	0x3e3103b5	0.1728657
68	0x3d655ace	0.0559948
69	0x3e50ecad	0.20402785
70	0xbe123556	-0.14278159
71	0xbe341efd	-0.17589946
72	0x3d3ccac3	0.046091806
73	0x3df8af76	0.121428415
74	0xbbfe4223	-0.007759349
75	0xbcb43803	-0.021999365
76	0x3c488957	0.012239776
77	0xbd51f497	-0.05125865
78	0x3d0c0616	0.03418549
79	0x3e0c6a66	0.13712463
80	0x3e373ed2	0.17895058
81	0xbe5a0131	-0.21289517
82	0x3e67fd19	0.22655143
83	0xbe747547	-0.23872863
84	0xbd31d727	-0.043418076
85	0x3d3fe2d8	0.046847194
86	0x3d41172a	0.04714123
87	0x3de165b8	0.110057294
88	0xbdc8fe5b	-0.098141395
89	0x3e1de0fa	0.15417853
90	0x3de66be4	0.11251047
91	0xbe270a18	-0.16312444
92	0x3df1ae88	0.11800867
93	0xbe51b755	-0.20480092
94	0xbe03a19c	-0.12854618
95	0x3e3a949d	0.18220754
96	0x3c8d7813	0.01726917
97	0xbe6e3d27	-0.23265515
98	0xbd55298f	-0.052041586
99	0x3d8abf0c	0.067747205
100	0xbe200e47	-0.15630446
101	0xbe1508a3	-0.14554076
102	0x3da8d34a	0.08243425
103	0x3e269bb0	0.16270328
104	0x3df8d4f0	0.121499896
105	0xbe3d5dc1	-0.18492796
106	0xbe5d8c21	-0.21635486
107	0xbcd6c891	-0.026218684
108	0xbe3d184d	-0.18466301
109	0xbe1b140a	-0.15144363
110	0x3e1f5b48	0.15562165
111	0xb9b06b9b	-0.00033649508
112	0xbe13c66f	-0.14431165
113	0x3e00fef5	0.12597258
114	0xbd084207	-0.033266094
115	0x3e574464	0.21022183
116	0xbe1e394b	-0.15451543
117	0x3e0e91db	0.13922827
118	0x3d7bd77e	0.061484806
119	0x3ddc381e	0.10752891
120	0x3e1c95f9	0.15291585
121	0x3e19a74e	0.15005228
122	0xbdbd7649	-0.09251077
123	0x3d8df966	0.069323346
124	0x3d137862	0.036003478
125	0x3c8d3100	0.01723528
126	0x3e511bc6	0.20420751
127	0xbd25a914	-0.04044445
128	0xbe0311a8	-0.12799704
129	0xbdac9f94	-0.084288746
130	0x3d32cd36	0.043652736
131	0x3d8efaa6	0.06981401
132	0xbcfe6d6c	-0.031058036
133	0xbe21aef5	-0.15789397
134	0xbb5ec210	-0.0033990182
135	0xbe2717ef	-0.16317724
136	0xbe3de033	-0.18542556
137	0xbcd1cdd5	-0.025610844
138	0x3e04723b	0.129342
139	0x3e575a20	0.21030474
140	0x3d749e14	0.059721068
141	0x3ded342d	0.11582217
142	0xbd604e4d	-0.054762173
143	0xbdfac21a	-0.12244053
144	0xbacef6a7	-0.0015790061
145	0xbe212206	-0.15735635
146	0xbe06d977	-0.13168894
147	0x3d9e6c02	0.077354446
148	0x3df6a650	0.1204344
149	0xbd0647db	-0.03278337
150	0x3e205c23	0.15660147
151	0xbe1f05d1	-0.15529563
152	0x3cbdffa1	0.023193182
153	0xbde1f1ee	-0.110324726
154	0xbe0658d7	-0.13119827
155	0x3dc8b49c	0.098000735
156	0xbe1468da	-0.14493123
157	0x3e09fce1	0.13475372
158	0xbe25391c	-0.16135067
159	0xbe3590d8	-0.17731035
160	0x3d8b4cb8	0.06801742
161	0x3d0290b0	0.031876266
162	0xbd6aaffa	-0.05729673
163	0x3c91a181	0.017777206
164	0x3e12192f	0.1426742
165	0x3e1e815d	0.15479036
166	0xbd241c8b	-0.040066283
167	0x3d9c2980	0.07625103
168	0xbe281e81	-0.16417886
169	0xbdc3b1d4	-0.095554024
170	0x3defe24a	0.11713083
171	0xbd25fac4	-0.04052235
172	0xbe6cd3a2	-0.23127607
173	0xbda458d4	-0.08024755
174	0x3c214123	0.00984219
175	0x3e002ea3	0.1251779
176	0x3dcf1ade	0.101125464
177	0x3e6a89a1	0.22904064
178	0x3e1703a3	0.14747481
179	0x3e541f96	0.20715174
180	0xbe611625	-0.21981104
181	0x3d9a99b9	0.075488515
182	0x3cada536	0.021196943
183	0xbdaf74d7	-0.08567207
184	0x3d2fc0c4	0.042908445
185	0xbe48d017	-0.1961063
186	0xbdfc0957	-0.12306469
187	0xbe1b3074	-0.15155202
188	0x3e1fa013	0.15588407
189	0xbe5e32b3	-0.21699028
190	0x3b01943a	0.0019772188
191	0x3e1c2bc1	0.15251066
192	0x3da4b9e7	0.080432706
193	0x3e2be73e	0.1678743
194	0x3e6ba24e	0.23011133
195	0x3e3a067a	0.18166533
196	0xbe03acd1	-0.12858893
197	0x3ded385c	0.11583015
198	0x3e3ce1f7	0.18445574
199	0xbe12a2da	-0.14319935
200	0xbe038900	-0.1284523
201	0xbcfa1c4a	-0.030531067
202	0xbe0209e9	-0.12699093
203	0xbe414d3d	-0.1887712
204	0x3cb3a651	0.021929892
205	0x3d2eabb7	0.04264423
206	0xbe43f105	-0.1913491
207	0x3db4d02b	0.088287674
208	0x3e56595f	0.2093253
209	0x3e2c7f39	0.16845407
210	0x3e017ca0	0.12645197
211	0xbd1cd7bf	-0.03829169
212	0xbe47d35c	-0.19514221
213	0x3d96f718	0.07371348
214	0xbd889fc4	-0.06671098
215	0xb90e6eb4	-0.00013583415
216	0xbcc94094	-0.024566926
217	0x3d33e553	0.043919872
218	0xbe2bdc78	-0.16783321
219	0xbc9dae92	-0.01924828
220	0xbe6502f2	-0.22364405
221	0xbd1e8acc	-0.038706586
222	0x3e0029fe	0.12516019
223	0x3d25ea97	0.040506925
224	0xbdee7234	-0.11642876
225	0xbe504ec1	-0.20342542
226	0xbdc8d03b	-0.09805342
227	0x3de1c4a1	0.11023832
228	0xbd880402	-0.066413894
229	0xbe39d6db	-0.18148367
230	0xbcd7445c	-0.026277713
231	0x3c9c6003	0.01908875
232	0x3e351ce6	0.17686805
233	0xbe12fcc2	-0.14354232
234	0xbd78a88b	-0.06070761
235	0xbd089b5e	-0.033351295
236	0xbe15e51e	-0.14638183
237	0xbdbe6a65	-0.09297637
238	0xbe0fce4e	-0.14043543
239	0x3dbc064e	0.0918089
240	0x3e10c581	0.14137842
241	0xbc5ef834	-0.013608981
242	0xbdba7ba3	-0.09105613
243	0x3d807552	0.06272377
244	0x3e1b5582	0.15169337
245	0xbd16a3d9	-0.03677735
246	0x3da65e98	0.08123511
247	0xbd930abe	-0.07179783
248	0x3d8b798c	0.068102926
249	0xbe0bee14	-0.13665038
250	0x3cfb5018	0.03067784
251	0xbe1f5b0b	-0.15562074
252	0xbe680eb3	-0.22661857
253	0xbe53318e	-0.20624372
254	0xbdc20900	-0.09474373
255	0xbc0d16ba	-0.0086113755

hidden_layer_1.bias f4 [20]
0	0xbde4cc3e	-0.111717686
1	0x3e284591	0.16432787
2	0xbb02f08f	-0.001997981
3	0x3c6386c8	0.013887115
4	0x3dad85f2	0.08472814
5	0x3e376d5e	0.17912814
6	0xbe29503a	-0.1653451
7	0x3e049ce2	0.12950471
8	0x3dbcd888	0.092209876
9	0xbacaabc6	-0.001546257
10	0xbe2a12f9	-0.166088
11	0x3de90d14	0.113794476
12	0xbe04c8fe	-0.12967297
13	0x3e5502a6	0.20801792
14	0x3d81b702	0.06333734
15	0xbe13075f	-0.1435828
16	0xbe43187b	-0.19052307
17	0xbd6d8fe4	-0.057998553
18	0x3e5b50f7	0.21417604
19	0xbe650330	-0.22364497

hidden_layer_2.weight f4 [20, 20]
0	0xbdb71165	-0.089388646
1	0x3e516715	0.20449479
2	0xbd6e74a8	-0.05821672
3	0xbd1b2fa5	-0.037887234
4	0x3e5bef08	0.21477902
5	0x3e1ca833	0.15298538
6	0xbe46be63	-0.19408564
7	0x3e553016	0.20819125
8	0x3be0fe02	0.0068662176
9	0xbdbec7a2	-0.09315421
10	0xbe3ad2f3	-0.18244533
11	0xbe6936c7	-0.22774802
12	0x3dfd7a0c	0.12376794
13	0xbdfcf93a	-0.12352224
14	0x3bae397a	0.0053169103
15	0x3e17ca7a	0.14823332
16	0x3be31bd5	0.006930808
17	0xbcddeae4	-0.027089544
18	0xbc8333e7	-0.01601596
19	0x3c75d7aa	0.015005032
20	0xbde35f42	-0.11102153
21	0x3d609775	0.05483194
22	0x3cc85dd1	0.024458798
23	0x3e36b82e	0.17843696
24	0x3e5731e2	0.21015123
25	0xbe085e13	-0.13317136
26	0x3da3cccf	0.079980485
27	0xbe06c0c5	-0.13159473
28	0x3df5fa75	0.120106615
29	0x3d38bfe7	0.045104887
30	0xbd2f882d	-0.042854477
31	0xbc945961	-0.018109025
32	0x3d81e2c5	0.06342081
33	0xbe147336	-0.14497074
34	0xbe144abc	-0.14481634
35	0x3e1f5602	0.15560153
36	0xbd169a91	-0.0367685
37	0xbdebb764	-0.11509588
38	0xbd632680	-0.05545664
39	0xbe0afe27	-0.13573514
40	0xbe55e77d	-0.20889087
41	0xbe6162b7	-0.22010313
42	0xbdf88a5f	-0.12135767
43	0xbe4183e8	-0.18897974
44	0x3e272bb3	0.16325264
45	0x3de61491	0.112343915
46	0xbe261065	-0.16217192
47	0xbd1d9ed9	-0.038481567
48	0x3e1fae04	0.15593725
49	0x3d43e2a2	0.047823556
50	0x3e1beb06	0.15226373
51	0xbc294740	-0.010331929
52	0xbe0bb584	-0.13643461
53	0x3d1c5c41	0.038173918
54	0xbde81b68	-0.11333352
55	0xbe365168	-0.17804492
56	0xbe182a03	-0.14859776
57	0x3e17a9cb	0.14810865
58	0xbe5daa72	-0.21647051
59	0xbc7b7f80	-0.015350223
60	0x3e33f997	0.1757568
61	0x3dec9e41	0.11553622
62	0xbe1d2221	-0.1534505
63	0xbe0739e5	-0.13205679
64	0xbe1f744e	-0.1557171
65	0x3d8e7044	0.06955007
66	0x3de9069b	0.11378213
67	0xbd8ff74d	-0.07029591
68	0x3dd692a4	0.10477188
69	0xbcb40c67	-0.02197857
70	0x3caa601f	0.020797787
71	0xbe48f5bf	-0.19624995
72	0x3c81d104	0.015846737
73	0xbdc396c5	-0.095502414
74	0xbd2b6060	-0.041839957
75	0xbe37d9d5	-0.1795419
76	0x3e5059b8	0.20346725
77	0xbe42af55	-0.19012196
78	0x3e4c0b05	0.19926079
79	0x3c4ac57f	0.012376188
80	0xbd0b1a40	-0.03396058
81	0x3db4a9bf	0.08821439
82	0x3de2c093	0.11071887
83	0xbda3c5a5	-0.07996682
84	0x3e102fff	0.14080809
85	0x3e1e8b69	0.15482868
86	0xbe5a01c8	-0.21289742
87	0xbe35be76	-0.17748436
88	0xbdd147ee	-0.102187976
89	0x3d3ba7b4	0.04581423
90	0xbcf082d7	-0.029359264
91	0x3e498b68	0.19682086
92	0x3dc001a5	0.09375314
93	0x3e2eb8de	0.17062709
94	0xbe29fc4c	-0.1660015
95	0xbce24e71	-0.027625294
96	0xbcd5bfc7	-0.026092423
97	0xbd886f17	-0.06661814
98	0xbd8851a7	-0.06656199
99	0xbe5a55b5	-0.21321757
100	0xbc03c48c	-0.008042466
101	0xbdfbfb90	-0.12303841
102	0xbe234e83	-0.15947919
103	0x3db53fa3	0.08850028
104	0x3da9c366	0.082892224
105	0x3e1c9a2a	0.15293184
106	0xbdfe85bd	-0.12427852
107	0xbc41013a	-0.011780078
108	0xbe35ec63	-0.17765956
109	0xbdaaeeac	-0.08346304
110	0xbde2bbd5	-0.11070982
111	0x3d83e415	0.064399876
112	0x3e3f6d39	0.18694009
113	0x3e5677bc	0.20944113
114	0x3ce31ed0	0.027724653
115	0x3e1ffca6	0.15623721
116	0xbdc24475	-0.094857134
117	0xbd34910c	-0.04408364
118	0xbd162b22	-0.03666223
119	0xbe0324ff	-0.12807082
120	0xbe019c0f	-0.12657188
121	0x3d79ce2f	0.060987648
122	0xbe3c9dae	-0.18419525
123	0x3dbc1a39	0.09184689
124	0x3d75747e	0.05992555
125	0xbd913634	-0.070904166
126	0xbd4fbe8e	-0.050718836
127	0xbe573228	-0.21015227
128	0xbd9d66f3	-0.07685652
129	0xbe129275	-0.14313681
130	0x3cb0727e	0.02153897
131	0xbccf59e7	-0.025311423
132	0xbe24d237	-0.16095816
133	0x3c355a74	0.011068929
134	0x3d9d476e	0.0767964
135	0xbdc04f8f	-0.093901746
136	0x3e53c2ac	0.2067973
137	0xbe0d6584	-0.13808256
138	0xbe571755	-0.21004994
139	0xbdd25532	-0.10270156
140	0x3cdebb32	0.027188871
141	0xbce74fba	-0.028236259
142	0xbe0f5f35	-0.14001162
143	0xbd384330	-0.04498595
144	0xbd98e7ef	-0.07466113
145	0x3e226213	0.15857725
146	0xbe4e0a8c	-0.20121211
147	0x3c076f46	0.008266276
148	0xbd95a4b5	-0.07306806
149	0xbe3d21d0	-0.1846993
150	0xbe3ef268	-0.18647158
151	0x3e2d9d21	0.16954471
152	0x3e517ea7	0.2045847
153	0xbe6c0603	-0.23049168
154	0xbe2cfb7d	-0.1689281
155	0xbbfc0d59	-0.007692021
156	0xbd02ae9c	-0.0319048
157	0x3d86a047	0.06573539
158	0x3e03287b	0.12808411
159	0x3d9e164d	0.07719097
160	0x3e0506bf	0.12990855
161	0x3dd116f5	0.10209457
162	0x3d8b1176	0.0679044
163	0xbe1ba466	-0.15199432
164	0xba0c91fc	-0.00053623295
165	0x3d3715dc	0.04469858
166	0xbe041a93	-0.12900762
167	0xbdb8d1ea	-0.09024413
168	0xbe3652b4	-0.17804986
169	0xbdab6ef1	-0.0837077
170	0xbd7cb8ad	-0.061699558
171	0x3e15477f	0.14578055
172	0xbe1e5a56	-0.15464148
173	0xbe0b85de	-0.13625285
174	0x3c8ae967	0.016956998
175	0x3da9c4c8	0.08289486
176	0x3e241c66	0.16026458
177	0xbe3ba5c8	-0.1832496
178	0xbe3f719c	-0.18695682
179	0xbe353ef3	-0.17699794
180	0x3de0be3b	0.109737836
181	0xbd07a176	-0.033112966
182	0xbdb7d88b	-0.08976849
183	0xbc931b7b	-0.01795744
184	0xbdc9da8c	-0.09856138
185	0x3e1a6c0d	0.1508028
186	0x3ca7ab64	0.020467468
187	0x3e744218	0.23853338
188	0xbd1468ee	-0.03623288
189	0xbd984e23	-0.074367784
190	0x3cd6a72d	0.026202762
191	0xbe379b61	-0.17930366
192	0xbe45f700	-0.19332504
193	0xbbe501b2	-0.0069887275
194	0xbe062ce9	-0.1310307
195	0xbddcaf55	-0.107756294
196	0xbe23313d	-0.15936752
197	0x3dba353d	0.09092186
198	0x3e10fcf9	0.14159001
199	0x3dde0070	0.10839927
200	0x3d89333d	0.06699226
201	0xbdf22e70	-0.118252635
202	0xbe5b5d2f	-0.21422265
203	0xbde5cc05	-0.11220554
204	0x3e164e0c	0.1467821
205	0xbe494f02	-0.19659045
206	0x3cf5fa34	0.030026533
207	0xbe180a67	-0.14847718
208	0xbe015551	-0.12630202
209	0xbc39d2a2	-0.011341723
210	0xbd9b5b6b	-0.07585796
211	0xbdc9bd4c	-0.09850559
212	0x3e09c6f6	0.13454804
213	0xbe228bb1	-0.158736
214	0xbcb256e4	-0.021769948
215	0xbde1d8e2	-0.11027695
216	0x3dd0d8fb	0.10197636
217	0x3dbc4133	0.09192123
218	0xbe1e36a4	-0.15450531
219	0x3e2dc22c	0.16968602
220	0x3e32dc53	0.1746686
221	0xbd43b0f7	-0.04777619
222	0x3e1146a9	0.14187111
223	0x3e271701	0.16317369
224	0x3e1c9ec6	0.15294942
225	0x3d96baf8	0.0735988
226	0x3e43ef60	0.19134283
227	0x3e628e2d	0.22124548
228	0x3d70c9ca	0.05878619
229	0x3e2b1f7b	0.16711228
230	0xbbe8d1fd	-0.0071051107
231	0x3e5a4535	0.21315463
232	0xbe66ad85	-0.2252713
233	0x3e70473c	0.23464674
234	0x3e505428	0.20344603
235	0x3dd5647c	0.104195565
236	0xbe04b080	-0.12957954
237	0x3dbe2737	0.092848234
238	0xbe23edf2	-0.16008738
239	0xbe09dbe2	-0.13462785
240	0x3d496f08	0.049178153
241	0x3e2edc11	0.17076136
242	0x3de0071e	0.109388575
243	0x3e2d929d	0.1695046
244	0xbe2ceef8	-0.16888034
245	0x3e4c400d	0.19946308
246	0x3e1b2caf	0.15153764
247	0x3dbf5bf9	0.09343714
248	0xbde103fb	-0.10987087
249	0xbd5d9497	-0.054096784
250	0xbd84d0a4	-0.064851075
251	0x3e1691f5	0.14704116
252	0xbbf6231c	-0.0075115096
253	0xbba592d8	-0.0050529055
254	0x3c6dba24	0.014509711
255	0x3de71073	0.11282434

hidden_layer_2.bias f4 [20]
0	0x3e14d558	0.14534509
1	0x3e621a19	0.22080268
2	0x3d0fddea	0.035123743
3	0x3e0bc4cc	0.13649291
4	0xbd77881c	-0.06043254
5	0x3d8f6edf	0.07003569
6	0xbe00e7fa	-0.12588492
7	0xbe6efb1d	-0.2333798
8	0xbe1dff26	-0.15429363
9	0x3e0b1bdc	0.13584846
10	0x3d31ae25	0.043378968
11	0x3b4510f8	0.0030069929
12	0xbc0bd102	-0.008533718
13	0xbe132521	-0.14369632
14	0x3e690626	0.22756252
15	0x3e3cf5bf	0.1845312
16	0xbe5a90fa	-0.21344367
17	0x3d12a3f0	0.035800874
18	0x3e1b9676	0.15194115
19	0xbe49ed1e	-0.1971936

hidden_layer_3.weight f4 [20, 20]
0	0x3d576fa7	0.052596714
1	0xbdf11940	-0.11772394
2	0xbd1edecc	-0.038786694
3	0xbdeb0671	-0.11475838
4	0x3e19621c	0.14978832
5	0xbdfdceef	-0.12392985
6	0x3e4a5fd2	0.19763115
7	0x3e474437	0.19459616
8	0xbe3fde0e	-0.18737051
9	0xbd6bc943	-0.057564985
10	0x3e03f178	0.12885082
11	0x3e46a464	0.19398648
12	0x3d3e86c3	0.046515238
13	0x3d5c77cb	0.05382518
14	0xbe327e4d	-0.17430992
15	0xbe5286c7	-0.20559226
16	0xbddc8181	-0.107668884
17	0x3e5779fb	0.21042626
18	0x3dd0604f	0.101746194
19	0xbc477e11	-0.012176053
20	0x3de08b54	0.10964075
21	0xbdce5c49	-0.10076196
22	0xbdb2d4a3	-0.087319635
23	0xbe2e035a	-0.16993466
24	0x3e2c42d5	0.1682237
25	0xbcac23db	-0.021013191
26	0xbe34ba3f	-0.17649172
27	0x3d05cbed	0.032665182
28	0x3dcbd634	0.099529654
29	0xbd6135dc	-0.054983005
30	0xbdbb44a0	-0.091439486
31	0xbe4a7a0c	-0.1977312
32	0x3c2df244	0.010616843
33	0xbe30e976	-0.17276558
34	0xbe4d1801	-0.20028688
35	0x3de936bb	0.11387392
36	0x3e4d0af6	0.20023713
37	0x3d1fd1ab	0.039018314
38	0xbd4d271b	-0.050086122
39	0x3cdd2c89	0.026998775
40	0xbd5f4682	-0.0545106
41	0x3dc8dc26	0.09807615
42	0xbd0b2700	-0.03397274
43	0xbe0edab5	-0.13950618
44	0x3b7d6a27	0.0038668008
45	0x3e360aa8	0.17777503
46	0xbd24bd55	-0.040219624
47	0x3e4cad0b	0.19987886
48	0xbe5284d3	-0.20558481
49	0x3d0f6743	0.035010587
50	0xbd93903e	-0.072052464
51	0x3dedf100	0.11618233
52	0x3d671bbc	0.056422934
53	0xbe5746ac	-0.21023053
54	0xbe2cfa49	-0.16892351
55	0x3d989448	0.074501574
56	0x3d35c21d	0.044374574
57	0x3de00242	0.10937931
58	0xbd92df9b	-0.071715556
59	0x3e3c1eb6	0.1837109
60	0x3e515315	0.2044185
61	0xbe63d0d1	-0.22247626
62	0x3dfe4aed	0.12416635
63	0xbe09daf4	-0.1346243
64	0x3beb501c	0.0071811806
65	0x3e334206	0.17505655
66	0xbcf8f1a6	-0.030388664
67	0x3e02295d	0.12711091
68	0xbe466eb6	-0.1937817
69	0xbd19db26	-0.03756251
70	0xbd8646fc	-0.06556508
71	0xbd9d25ce	-0.07673226
72	0x3e563392	0.2091811
73	0x3e29d8d5	0.16586621
74	0x3d7af39b	0.061267477
75	0x3d811156	0.06302135
76	0xbe1a340c	-0.15058917
77	0xbe2c69cb	-0.16837232
78	0xbe6f6060	-0.23376608
79	0x3dc0eb8c	0.09419927
80	0x3dff9531	0.12479628
81	0x3e387cc2	0.18016341
82	0xbe110633	-0.14162521
83	0xbd0551c4	-0.03254868
84	0xbe669c93	-0.22520666
85	0x3dcaa786	0.09895234
86	0x3e70b469	0.23506321
87	0xbe537d05	-0.2065316
88	0xbdbaeaf1	-0.09126843
89	0xbe0f5d24	-0.14000374
90	0x3e1166bb	0.14199345
91	0xbd01f305	-0.031725902
92	0x3e6677c9	0.22506632
93	0x3d916a2d	0.071003295
94	0xbd84cec1	-0.06484748
95	0xbe4297a5	-0.1900316
96	0xbe56ae13	-0.20964842
97	0x3da2a35d	0.07941315
98	0xbd9df443	-0.07712605
99	0x3de53f3f	0.11193704
100	0xbd249a8b	-0.040186446
101	0xbe4c2436	-0.19935688
102	0xbe2ca3cf	-0.16859363
103	0xbe5943ae	-0.21217224
104	0x3daceb68	0.08443338
105	0x3d814fa6	0.0631402
106	0x3dd2b152	0.102877274
107	0x3e1b1ef2	0.15148523
108	0x3e5cea4c	0.21573752
109	0x3e150471	0.14552476
110	0xbe5dd768	-0.21664202
111	0x3e0a0bcc	0.13481063
112	0x3da8ef3c	0.08248755
113	0x3e48539c	0.19563144
114	0xbe554c6f	-0.20829938
115	0x3dd6a5ec	0.10480866
116	0x3e287391	0.16450335
117	0x3d5e8df9	0.054334614
118	0xbdf250a9	-0.11831791
119	0x3e319dd5	0.17345364
120	0x3e20930d	0.15681095
121	0x3b8d9f90	0.004322
122	0x3ddf0eb5	0.10891477
123	0x3de1b3d0	0.11020625
124	0xbd5967ef	-0.053077634
125	0xbdd8f24c	-0.105930895
126	0xbd745714	-0.059653357
127	0xbe3434c6	-0.17598256
128	0xbc73a48f	-0.014870777
129	0xbe5544da	-0.20827046
130	0xbd988c2a	-0.07448609
131	0x3e31a402	0.1734772
132	0xbe773441	-0.24141027
133	0xbe211c1c	-0.15733379
134	0x3e3b6389	0.18299688
135	0x3e56f3a4	0.20991379
136	0xbd6c42e2	-0.057680972
137	0x3d117acc	0.0355175
138	0xbdd924d8	-0.106027305
139	0x3db008df	0.08595442
140	0x3e33ea54	0.17569858
141	0xbdfb314b	-0.12265261
142	0xbe1ecd11	-0.15507914
143	0x3e418475	0.18898185
144	0x3d5cd5e7	0.05391493
145	0xbd6d32e3	-0.057909857
146	0xbdd32cad	-0.103112556
147	0xbe5b5f03	-0.21422963
148	0xbe16fa62	-0.14743951
149	0x3cf1ecb1	0.029531809
150	0x3e024b41	0.1272402
151	0xbe0e24c3	-0.13881211
152	0x3df9620e	0.121769056
153	0x3c9d1f77	0.019180043
154	0x3e0523b2	0.13001898
155	0x3e1d08ca	0.15335384
156	0xbe21a330	-0.15784907
157	0xbdca0cd5	-0.09865729
158	0x3e053064	0.13006741
159	0x3e1de014	0.1541751
160	0xbde45cc6	-0.11150508
161	0x3d192c78	0.037395924
162	0x39b42f7a	0.00034367648
163	0xbdb1455c	-0.086558074
164	0xbe22f357	-0.1591314
165	0xbdce6396	-0.10077588
166	0xbe0ddda5	-0.13854082
167	0x3e6b1463	0.22956996
168	0xbd8b7f3d	-0.06811378
169	0x3da70c82	0.081566826
170	0x3e4d08c2	0.20022872
171	0xbe1a5908	-0.15073025
172	0xbdbb9bcd	-0.09160576
173	0x3e23d6e1	0.15999939
174	0x3e3d48e8	0.18484843
175	0xbd5b8866	-0.053596877
176	0xbdd318fa	-0.10307498
177	0x3cd0258e	0.025408532
178	0x3cfc62bf	0.030808805
179	0x3c10a088	0.008827336
180	0xbdcd26be	-0.10017155
181	0xbcd55218	-0.026040122
182	0x3daaece4	0.083459646
183	0x3e1b4b94	0.1516555
184	0x3bd59c2e	0.006518862
185	0x3e476bc9	0.1947471
186	0x3e658850	0.2241528
187	0x3e1851d8	0.14874971
188	0x3d003b86	0.031306766
189	0xbe078b62	-0.13236764
190	0x3e12c769	0.14333881
191	0xbe0f0af2	-0.13969019
192	0xbe26f6cd	-0.16305085
193	0x3d83e43b	0.06440016
194	0xbd2fa6ab	-0.042883556
195	0x3df25239	0.11832089
196	0x3e0e97e6	0.13925132
197	0x3e09c10f	0.13452552
198	0x3db4d3d6	0.08829467
199	0x3e42acaf	0.19011186
200	0x3ddc6f97	0.107634716
201	0xbe2984ac	-0.16554517
202	0x3d2a6d73	0.041608285
203	0x3e4ddab5	0.20102961
204	0xbd087124	-0.033311024
205	0xbe678241	-0.22608282
206	0xbac94f76	-0.0015358764
207	0x3e64e72b	0.22353809
208	0xbd03494b	-0.03205232
209	0xbe1c3eec	-0.15258378
210	0x3e662227	0.22473966
211	0x3da6b29d	0.081395365
212	0x3d980c27	0.07424193
213	0xbc5218fd	-0.0128233405
214	0xbab47eb3	-0.001377067
215	0xbe4bbdb6	-0.19896588
216	0xbde4f7ac	-0.11180052
217	0xbe6bda42	-0.23032477
218	0xbda31c23	-0.07964351
219	0x3ca7a706	0.020465385
220	0x3d099b8b	0.033595603
221	0x3e20e5b6	0.15712628
222	0xbdfb7b83	-0.12279417
223	0xbe076300	-0.13221359
224	0xbc933510	-0.017969638
225	0x3e109794	0.14120322
226	0xbe0a77f7	-0.13522325
227	0xbc341176	-0.010990491
228	0xbe120856	-0.14260992
229	0x3db98bd1	0.09059871
230	0xbdfa538d	-0.12222967
231	0x3de97bb7	0.1140055
232	0x3dfb6a73	0.12276163
233	0x3e26c1b3	0.16284828
234	0xbddfb4f8	-0.10923189
235	0x3d24f101	0.0402689
236	0xbe4fc571	-0.20290162
237	0x3e0668b8	0.13125885
238	0xbd96b500	-0.07358742
239	0x3e045fc3	0.12927155
240	0xbd8a4440	-0.06751299
241	0x3dfb833b	0.122808896
242	0x3c85db03	0.016339784
243	0x3d63f662	0.05565489
244	0x3dbac342	0.09119274
245	0x3e295a28	0.16538298
246	0xbdc18cd0	-0.09450686
247	0x3e379b9b	0.17930453
248	0xbe23ac9a	-0.15983811
249	0xbe16de19	-0.14733161
250	0xbd78722d	-0.06065576
251	0x3e0b7278	0.13617885
252	0x3dc7cbeb	0.09755691
253	0xbde3172f	-0.11088406
254	0xbd904a68	-0.07045442
255	0x3e0ed2e8	0.13947642

hidden_layer_3.bias f4 [20]
0	0xbd9ad5cc	-0.0756031
1	0x3c72c5aa	0.014817635
2	0x3dead260	0.11465907
3	0xb9066cd5	-0.00012819779
4	0xbe2ad23c	-0.1668176
5	0xbe4db31d	-0.20087858
6	0xbd29f8ea	-0.04149715
7	0x3e4f1ecc	0.20226592
8	0x3ba3629a	0.0049861195
9	0x3d4b0a8e	0.049570613
10	0x3cd82bc9	0.026388066
11	0xbd231784	-0.039817348
12	0x3dfb5710	0.12272465
13	0x3d8fd8ee	0.07023798
14	0x3d14fbce	0.036372952
15	0xbdaa87d3	-0.08326688
16	0x3e3b6563	0.18300395
17	0xbe354c7b	-0.17704956
18	0xbdd41e81	-0.10357381
19	0xbe402816	-0.18765292

hidden_layer_4.weight f4 [20, 20]
0	0x3e183fb2	0.14868048
1	0xbdc1fffc	-0.09472653
2	0x3d38ac03	0.04508592
3	0xbcafb62b	-0.02144917
4	0xbcb8d6d1	-0.02256337
5	0x3e590e1e	0.21196792
6	0xbce1de28	-0.027571753
7	0xbe749f73	-0.2388895
8	0x3e11b5a3	0.14229445
9	0x3d07b98c	0.033135936
10	0x3d970d13	0.073755406
11	0x3e16e499	0.1473564
12	0xbdb904c2	-0.090341106
13	0xbe30c1a2	-0.17261365
14	0x3c8262fe	0.015916344
15	0x3e48884f	0.19583248
16	0xbe5b5fca	-0.2142326
17	0x3dca778f	0.09886085
18	0xbde77ef1	-0.11303509
19	0x3e0b2663	0.13588862
20	0x3e59fe9e	0.21288535
21	0x3dec73cc	0.11545524
22	0x3aa04b1e	0.0012229418
23	0xbe39b68e	-0.18136045
24	0xbe4af8a5	-0.19821413
25	0xbe3c2934	-0.18375093
26	0xbcea3e41	-0.028594138
27	0x3e6db6c4	0.23214251
28	0xbda60fde	-0.08108495
29	0x3e1db216	0.15399966
30	0xbe4af0c4	-0.19818407
31	0x3d1ad6af	0.037802394
32	0x3d27288d	0.040810157
33	0xbde8cf1c	-0.11367628
34	0x3e2bf9da	0.1679453
35	0x3dca2897	0.09871023
36	0x3dd4d719	0.10392589
37	0x3e426591	0.18984057
38	0xbe331425	-0.17488153
39	0x3da0625e	0.07831262
40	0xbde79493	-0.11307635
41	0xbcdd8e43	-0.027045375
42	0x3df93938	0.12169117
43	0x3d4d27e1	0.05008686
44	0xbd464aa3	-0.048411023
45	0x3e18ea9c	0.14933246
46	0xbdecdc18	-0.11565417
47	0x3deacd42	0.11464931
48	0xbc026364	-0.007958267
49	0x3d7c5c23	0.061611306
50	0x3d860c29	0.06545288
51	0x3de2f5fc	0.11082074
52	0x3e2fbc88	0.17161763
53	0xbe0ed2ec	-0.13947648
54	0x3e5eb81f	0.21749924
55	0x3e2d1d52	0.16905716
56	0x3d0142bc	0.031557783
57	0x3e6ec24d	0.23316307
58	0xbcaf7662	-0.021418754
59	0x3e54a500	0.20766068
60	0xbd1ca615	-0.038244326
61	0xbe2b8546	-0.16750059
62	0x3c067d2d	0.008208555
63	0x3e16c309	0.14722838
64	0xbe55677f	-0.20840262
65	0xbd7a4fd4	-0.061111286
66	0x3d765ae3	0.06014527
67	0x3e0587b3	0.13040046
68	0xbe3a8a25	-0.1821676
69	0xbe013605	-0.12618263
70	0xbde51770	-0.11186111
71	0x3da0746b	0.07834705
72	0xbe0d2144	-0.13782221
73	0x3e64e36e	0.22352383
74	0x3e32b6d3	0.17452554
75	0x3dbd1c2b	0.09233888
76	0x3e3974be	0.1811094
77	0xbdc73c07	-0.09728246
78	0x3e4a2422	0.19740346
79	0xbde2c609	-0.110729285
80	0x3daf0fea	0.08547957
81	0x3d27d5f7	0.040975537
82	0x3d07e067	0.03317299
83	0xbd82cd4e	-0.06386815
84	0xbcfdce75	-0.030982235
85	0x3d714432	0.058902927
86	0x3dab7f46	0.08373885
87	0x3e4b1776	0.19833168
88	0xbe019e87	-0.1265813
89	0xbdc68b6f	-0.096945636
90	0x3e01682d	0.12637396
91	0xbe2197b7	-0.15780531
92	0xbdcf2e54	-0.10116258
93	0xbe1ea26a	-0.15491644
94	0xbc8be9b7	-0.017079217
95	0xbd815953	-0.06315865
96	0xbdbfa5ca	-0.09357794
97	0xbe04d4ab	-0.12971751
98	0xbc7b46cd	-0.015336704
99	0xbdd65e55	-0.10467211
100	0xbe4020d1	-0.18762518
101	0xbdf2c587	-0.118540816
102	0x3cb6e20e	0.022324588
103	0x3e09c1d8	0.13452852
104	0x3e2ada91	0.16684939
105	0xbe564c44	-0.2092753
106	0xbdd10d27	-0.10207587
107	0xbad48db8	-0.0016216552
108	0x3dd68002	0.10473634
109	0x3c0ec8f5	0.008714904
110	0xbd9040be	-0.070435986
111	0xbd83d385	-0.064368285
112	0x3e1c1c61	0.152452
113	0x3b395b46	0.0028283163
114	0xbdad041f	-0.08448052
115	0xbe384e07	-0.17998515
116	0xbe57bab0	-0.2106731
117	0xbddcc395	-0.10779492
118	0x3c261ef2	0.010139214
119	0x3defd5a9	0.11710674
120	0xbdec876e	-0.11549269
121	0x3debf332	0.11520995
122	0xbe17fafd	-0.14841838
123	0x3dc7003b	0.09716841
124	0x3dc2387f	0.09483432
125	0x3e4f177e	0.20223805
126	0x3e4b447d	0.19850345
127	0xbe56a96e	-0.2096307
128	0xbe0fac4f	-0.14030574
129	0x3df03645	0.11729101
130	0x3e28df81	0.1649151
131	0x3cb3d3fb	0.021951666
132	0x3aa65c0a	0.0012692225
133	0xbe43adf1	-0.19109322
134	0xbe18fb2c	-0.14939564
135	0x3cbd6db8	0.023123607
136	0x3d390e1d	0.045179475
137	0x3cb9ec1c	0.022695594
138	0xbcfff82a	-0.031246264
139	0x3e092a24	0.13394982
140	0x3e47efcc	0.19525069
141	0x3dddd82b	0.108322464
142	0xbe46de7a	-0.19420806
143	0xbe292b8b	-0.16520517
144	0xbdce0da7	-0.10061198
145	0x3d74f048	0.059799463
146	0xbd82badb	-0.06383296
147	0x3ddc2e04	0.10750964
148	0xbdd72ec8	-0.1050697
149	0xbc68bb5d	-0.014204827
150	0xbe1b68c1	-0.15176679
151	0x3e2fe331	0.1717651
152	0xbc136e51	-0.008998469
153	0xbdf5eb03	-0.120077156
154	0xbe53273f	-0.2062044
155	0xbd872a60	-0.06599879
156	0x3e645615	0.22298463
157	0xbd08ef76	-0.033431493
158	0x3e55533c	0.20832533
159	0xbe32b761	-0.17452766
160	0x3d8fac87	0.07015329
161	0x3df6f302	0.12058069
162	0x3cbe7adc	0.023251943
163	0x3c886a42	0.01665223
164	0xbe2c9bde	-0.16856334
165	0x3decc412	0.11560835
166	0x3da3358d	0.079691984
167	0x3e04a4b8	0.1295346
168	0xbe330926	-0.17483959
169	0x3dee15cf	0.116252534
170	0xbca78ef0	-0.0204539
171	0x3e580cf4	0.21098691
172	0x3e288896	0.16458353
173	0xbb0e66c3	-0.0021728731
174	0xbe6862c1	-0.22693922
175	0x3e419e9f	0.18908165
176	0x3e67f076	0.22650322
177	0x3e30c54e	0.17262766
178	0x3beb921f	0.00718905
179	0xbdcf34b7	-0.101174764
180	0xbe085d17	-0.13316761
181	0x3b0ef2be	0.0021812166
182	0xbe1f8e77	-0.1558169
183	0x3e43e3d3	0.19129877
184	0x3decb66c	0.11558232
185	0xbe4bd8a5	-0.19906862
186	0xbda8dd55	-0.08245341
187	0xbe3682ff	-0.17823409
188	0x3e0c2dd9	0.13689364
189	0xbe3db53f	-0.18526171
190	0xbdd1e517	-0.102487735
191	0x3de197ce	0.110152826
192	0x3d682329	0.056674156
193	0xbd095c6f	-0.033535417
194	0x3e3da505	0.18519981
195	0x3e4873b4	0.19575387
196	0x3e16041b	0.14650004
197	0xbe0b1401	-0.1358185
198	0xbd68ab92	-0.056804247
199	0xbd5f1207	-0.05446055
200	0xbe1cbdf0	-0.1530683
201	0x3dea0728	0.11427146
202	0xbe04ed7c	-0.12981218
203	0x3e1d11d7	0.15338837
204	0xbd5b3b66	-0.053523444
205	0x3e03b93a	0.12863627
206	0x3d807cf0	0.0627383
207	0x3e0f8a62	0.14017633
208	0xbbb7593c	-0.0055953544
209	0xbd35f9f0	-0.044427812
210	0x3e5b63f3	0.21424846
211	0x3de27a15	0.110584415
212	0xbe528298	-0.2055763
213	0x3e621831	0.22079541
214	0xbd766593	-0.060155462
215	0x3e344b6f	0.176069
216	0x3d39be7f	0.045347687
217	0xbe457d66	-0.19286117
218	0x3e251fe8	0.16125453
219	0xbe4147e9	-0.18875088
220	0xbd4475c9	-0.04796389
221	0x3e43f23a	0.19135371
222	0xbdbd734f	-0.09250509
223	0xbdfabd1d	-0.12243102
224	0xbe4900ec	-0.19629258
225	0xbd5bfd69	-0.053708468
226	0x3dcf2744	0.10114911
227	0x3e4990fc	0.19684213
228	0xbbe4f5f7	-0.006987329
229	0x3dd3be99	0.10339088
230	0xbe2aae97	-0.16668163
231	0x3d7bfc82	0.061520107
232	0xbe225a59	-0.15854777
233	0x3dc2a0ed	0.095033504
234	0xbe4542cf	-0.19263767
235	0xbcf9cfd7	-0.030494614
236	0xbc3b8af7	-0.011446706
237	0x3d84f95c	0.06492874
238	0x3e10298f	0.14078353
239	0xbe103094	-0.14081031
240	0xbdaf5cec	-0.08562645
241	0x3caf413c	0.02139341
242	0x3de21a19	0.11040134
243	0x3d41286a	0.047157682
244	0x3dc5fb8f	0.096671216
245	0x3dac3b35	0.0840973
246	0xbe12d27f	-0.1433811
247	0x3b773aa9	0.0037724173
248	0x3d0e5e03	0.034757625
249	0xbda11e1f	-0.07867073
250	0x3e4e55f9	0.20149983
251	0x3d8be7c6	0.06831317
252	0xbe5f1c34	-0.21788102
253	0xbe0a9047	-0.135316
254	0x3e02e749	0.12783541
255	0x3de4bc04	0.11168674

hidden_layer_4.bias f4 [20]
0	0x3d0836b4	0.033255294
1	0xbe2a3d00	-0.16624832
2	0xbe35148b	-0.17683618
3	0x3e56c841	0.20974828
4	0xbe4a173b	-0.19735424
5	0xbdedfffa	-0.11621089
6	0xbe130156	-0.14355978
7	0xbe0bcad4	-0.13651592
8	0xbb6e5002	-0.0036363606
9	0xbd3157d0	-0.043296635
10	0xbe315f77	-0.17321573
11	0x3e545848	0.20736802
12	0xbda27d66	-0.07934074
13	0x3cef7528	0.02923067
14	0x3e56d1dd	0.20978494
15	0xbcd92e6f	-0.0265114
16	0xbe1b0b61	-0.1514106
17	0x3e17346e	0.14766094
18	0xbe12aca1	-0.14323665
19	0x3e45f944	0.19333369

hidden_layer_5.weight f4 [20, 20]
0	0xbd85b50e	-0.06528674
1	0x3e347cd8	0.17625749
2	0xbcd01363	-0.02539987
3	0x3e2a9335	0.16657718
4	0xbc92e695	-0.017932216
5	0xbe517e8d	-0.20458432
6	0xbdda1fb8	-0.10650581
7	0x3e0e7b43	0.13914208
8	0xbe36cd4b	-0.1785175
9	0xbddb2ff4	-0.10702506
10	0x3d9a65dc	0.075389594
11	0x3e339a98	0.17539442
12	0x3d5d01b3	0.0539567
13	0x3d48ac9c	0.048992738
14	0x3d7b636f	0.061374124
15	0x3db9dc8d	0.0907527
16	0xbe086e0b	-0.13323228
17	0x3dfbf10d	0.12301836
18	0x3e03d504	0.12874228
19	0x3e4ef019	0.20208777
20	0xbdcdb374	-0.100439936
21	0xbe621aa3	-0.22080474
22	0xbd653d5f	-0.05596673
23	0xbdf8663c	-0.12128875
24	0xbe67213e	-0.22571275
25	0x3bb577be	0.005537956
26	0xbe240d04	-0.1602059
27	0x3e11ec1b	0.14250223
28	0x3e33ce45	0.17559154
29	0x3d1d85e6	0.038457774
30	0xbe1d3173	-0.15350895
31	0xbd157f11	-0.036498133
32	0xbcac9b12	-0.021070037
33	0x3cbf9ec5	0.023391137
34	0xbd6ee7f0	-0.05832666
35	0x3d55ada6	0.052167557
36	0xbe6f03c1	-0.23341276
37	0xbd960604	-0.07325366
38	0x3d7804a7	0.06055131
39	0x3d1b6c24	0.037944928
40	0x3e6c38dc	0.23068565
41	0x3e237495	0.15962441
42	0x3ce3bba4	0.027799435
43	0x3e26391e	0.16232726
44	0x3e07ec37	0.13273703
45	0x3d045188	0.032304317
46	0x3d0a74cd	0.033802796
47	0x3de15233	0.110020064
48	0xbe0ee09d	-0.1395287
49	0x3c7c0a8d	0.015383375
50	0xbe3c2c24	-0.18376213
51	0xbdb82dcf	-0.08993112
52	0xbe1e60ae	-0.15466568
53	0xbe3c12f7	-0.1836661
54	0xbccd6f4f	-0.02507749
55	0x3d794e5d	0.06086575
56	0x3d3bfd5b	0.045895915
57	0x3e0807b3	0.13284187
58	0x3de512b3	0.11185207
59	0x3d009f97	0.031402197
60	0xbe4de441	-0.20106603
61	0xbc857fd8	-0.016296312
62	0x3e1d327d	0.15351291
63	0xbe289346	-0.1646243
64	0x3e37db51	0.17954756
65	0x3e44080c	0.19143695
66	0xbdec9724	-0.11552265
67	0xbda9aea8	-0.08285266
68	0x3d09d91b	0.033654314
69	0xbd81f1c5	-0.06344942
70	0x3b8b8565	0.004257845
71	0xbcc6d306	-0.024270546
72	0xbe12c2aa	-0.14332071
73	0xbd4be347	-0.049777295
74	0x3e5aaf50	0.21355939
75	0xbe257b6e	-0.16160366
76	0x3d1d1932	0.038354106
77	0xbe11edb0	-0.14250827
78	0x3d806a7c	0.0627031
79	0x3dee5dfb	0.11639019
80	0x3e6cf327	0.2313963
81	0xbe3623ec	-0.1778714
82	0xbe49aa88	-0.19693959
83	0xbe6462fb	-0.22303383
84	0xbdb8fc97	-0.09032553
85	0xbda388c6	-0.07985072
86	0x3bc8a050	0.0061226264
87	0x3d56dbda	0.05245576
88	0xbe020daa	-0.12700525
89	0x3e4f7cdd	0.20262475
90	0xbe20f367	-0.1571785
91	0xbdbeb948	-0.09312683
92	0x3cce2da8	0.025168255
93	0xbd025f38	-0.03182909
94	0x3e2cb6e7	0.16866647
95	0xbdc6c305	-0.09705166
96	0xbe549e0b	-0.20763414
97	0xbe2a6ccd	-0.16643067
98	0xbc802fdb	-0.01564782
99	0x3ca24b8b	0.019811412
100	0x3c4fc680	0.012681603
101	0x3e1b5850	0.15170407
102	0xbe27e807	-0.16397105
103	0x3d98afb4	0.07455388
104	0x3e2957dc	0.16537422
105	0xbe29c581	-0.16579248
106	0xbd8baa9d	-0.06819651
107	0x3e57b637	0.21065603
108	0x3e02dd2e	0.12779686
109	0xbdf9573c	-0.12174842
110	0x3db48ec3	0.08816292
111	0x3bfbbbb0	0.007682286
112	0xbe4b51fc	-0.19855493
113	0xbe0f247a	-0.13978758
114	0xbe3a57b7	-0.18197523
115	0xbdd1e6e5	-0.10249118
116	0xbdd5e30a	-0.10443695
117	0xbda95d13	-0.082697056
118	0x3c59be52	0.013290005
119	0x3cda9d08	0.026686206
120	0x3e65c450	0.22438169
121	0xbe346338	-0.17615974
122	0x3e5ec2a6	0.2175394
123	0xbe1d473d	-0.15359206
124	0x3d33fb0e	0.043940596
125	0x3e0c51d3	0.13703088
126	0x3e308294	0.17237312
127	0xbd0f0d3b	-0.034924727
128	0x3e1f0ffc	0.15533441
129	0xbe433614	-0.19063598
130	0x3e4b4c21	0.1985326
131	0xbc7f6a74	-0.015589345
132	0xbd816bda	-0.06319399
133	0xbe3c57b6	-0.18392834
134	0xbe450276	-0.1923922
135	0x3e532477	0.20619379
136	0xbe4ed8ac	-0.20199841
137	0x3d98c411	0.07459272
138	0x3e2be4ec	0.16786546
139	0xbe1e7bcd	-0.15476914
140	0x3e5a2741	0.21304037
141	0xbd9c6714	-0.07636848
142	0xbd999268	-0.07498628
143	0xbe598e02	-0.21245578
144	0x3df95cb3	0.12175884
145	0xbc0cdaca	-0.008597085
146	0x3df9b9eb	0.12193664
147	0xbe0d1f70	-0.13781524
148	0x3e3b8e2a	0.1831595
149	0x3dd87dd4	0.10570875
150	0x3e37a2ee	0.17933246
151	0xbe52b36b	-0.20576255
152	0x3d115037	0.03547689
153	0xbded8d1a	-0.115991786
154	0x3c774a5a	0.01509341
155	0x3e2bae74	0.16765767
156	0xbd469286	-0.04847958
157	0xbe27178e	-0.16317579
158	0x3e0fe67e	0.1405277
159	0xbde88f6d	-0.11355481
160	0xbe2ad60c	-0.16683215
161	0x3e2b07f9	0.1670226
162	0xbdb155cc	-0.086589426
163	0xbe6e251b	-0.23256342
164	0xbdac9f2c	-0.08428797
165	0x3c3fddac	0.011710566
166	0xbd8a5704	-0.06754878
167	0x3dc085ec	0.094005436
168	0xbe33f74d	-0.17574807
169	0xbe2e146e	-0.16999981
170	0x3e066e49	0.13128008
171	0xbdbdead0	-0.092733026
172	0x3d0123a1	0.03152812
173	0xbe02b0f6	-0.12762818
174	0x3de7ca82	0.11317922
175	0xbde8c303	-0.113653205
176	0xbcd196b8	-0.025584564
177	0xbe5304bf	-0.20607279
178	0x3e23c263	0.15992121
179	0xbe2b687b	-0.16739075
180	0x3e014b9c	0.12626499
181	0x3c551c22	0.013007196
182	0x3e1a3bf1	0.15061928
183	0xbd2280cd	-0.039673615
184	0xbd7dcc20	-0.061962247
185	0x3e46937a	0.19392195
186	0x3e1cfb33	0.153302
187	0xbd337799	-0.04381523
188	0xbe5f6ad6	-0.21818098
189	0x3c90289d	0.01759749
190	0x3df74c5c	0.12075111
191	0xbe559c46	-0.20860395
192	0x3e3d1271	0.18464066
193	0x3d52ddde	0.05148112
194	0x3ba92854	0.005162278
195	0xbe3ac134	-0.18237764
196	0x3e583e3f	0.21117495
197	0x3d4ce37c	0.050021634
198	0x3e550dfd	0.20806117
199	0x3dccc20a	0.099979475
200	0xbe03b483	-0.12861829
201	0xbd2b307c	-0.041794285
202	0x3db1434e	0.086554155
203	0xbd59ba7f	-0.053156372
204	0x3d9fbbff	0.07799529
205	0xbd62ca01	-0.055368427
206	0xbe034a76	-0.12821373
207	0x3e05a44c	0.13050956
208	0xbd8e450b	-0.06946763
209	0x3df6f313	0.120580815
210	0x3c2d424f	0.010574891
211	0xbce1cccd	-0.027563477
212	0x3dbad6d9	0.0912301
213	0xbc9ab56c	-0.018885337
214	0xbe1e1ac9	-0.15439905
215	0xbe2a4040	-0.16626072
216	0x3ce169dc	0.027516298
217	0xbe56597f	-0.20932578
218	0x3d24d90f	0.040246066
219	0x3b957f85	0.0045623207
220	0xbd6e416c	-0.05816786
221	0x3d25871f	0.040412065
222	0xbd991fb6	-0.074767515
223	0xbe43a601	-0.19106294
224	0x3e0bc92d	0.13650961
225	0xbc9a116d	-0.018807137
226	0x3e188b7d	0.1489696
227	0xbd404552	-0.04694111
228	0xbc1d7971	-0.009611473
229	0xbe08a169	-0.13342823
230	0xbe5d7742	-0.21627524
231	0xbe28db6c	-0.16489953
232	0xbe5a2abd	-0.21305366
233	0xbca4de8a	-0.020125646
234	0x3df109ca	0.11769445
235	0x3d66b24b	0.056322377
236	0x3e1c6bc3	0.15275483
237	0x3e2adacc	0.16685027
238	0xbdaafbe4	-0.083488256
239	0xbe25fe2e	-0.16210243
240	0xbde739a8	-0.11290294
241	0xbe4e71bb	-0.20160572
242	0x3dfb53aa	0.12271817
243	0xbe6c7a14	-0.23093444
244	0x3d9adc12	0.07561506
245	0x3c5541db	0.013016189
246	0xbd96bbd8	-0.07360047
247	0xbdaf4d09	-0.08559615
248	0xbe2aaf3f	-0.16668414
249	0x3dfef2ec	0.124486774
250	0x3d931ff8	0.07183832
251	0x3e22392c	0.15842122
252	0x3da267f0	0.07929981
253	0xbe23774d	-0.15963478
254	0x3da8916f	0.08230864
255	0xbe3b079f	-0.18264626

hidden_layer_5.bias f4 [20]
0	0xbdd3c581	-0.10340405
1	0x3d3acf52	0.045607872
2	0x3e32b84b	0.17453115
3	0xbe4c5703	-0.19955067
4	0xbe3e2f0f	-0.18572639
5	0xbe2d08fd	-0.1689796
6	0xbd94858d	-0.07252035
7	0x3e3f37e2	0.18673661
8	0xbe28f8ca	-0.16501155
9	0xbd8b3ca2	-0.06798674
10	0x3d81cf49	0.06338365
11	0x3e3a3dfe	0.1818771
12	0x3e351db2	0.17687109
13	0x3c41d962	0.011831613
14	0x3e11c290	0.14234376
15	0xbc70f024	-0.0147056915
16	0xbd3bc80f	-0.045845088
17	0x3df64f68	0.12026864
18	0xbd6bbcb3	-0.057553004
19	0xbe090806	-0.13381967
