model_CNN_mejorada.onnx (onnx, 7822 bytes, 9 tensors)

conv1_1.weight f4 [16, 1, 3, 3]
0.2816356 -0.42505053 -0.02139371 -0.14544217 -0.2278626 -0.6061486 -0.28868955 0.1340355
0.15578587 -0.19374566 0.22612095 0.009627053 0.13175571 0.466015 0.37626418 -0.3300334
-0.63075805 0.2587249 0.0805382 0.30665937 -0.3349616 -0.41101083 0.37422723 0.91179234
-0.4247462 0.14902635 -0.2246731 -0.35592142 0.25144175 0.046149246 0.21280168 0.32149163
0.43038768 0.23726712 -0.25200567 0.23180366 0.19268739 0.16558829 0.04790249 0.20705935
0.34384555 -0.24397998 0.17462051 0.23499537 0.059811164 0.058999285 0.20073862 -0.34701103
-0.1624498 0.43048015 -0.24369387 0.33486435 -0.5848681 -0.3686827 -0.0037954904 -0.000719247
-0.20461634 -0.104419135 -0.2512358 -0.5257753 0.3815123 0.3189459 -0.0689539 0.3926249
-0.22036564 -0.16843244 -0.028290281 0.054915674 -0.15796645 0.3381521 -0.28217703 0.065781385
0.22162509 0.22619659 1.1044228 -0.4086081 -0.052886616 0.49992836 -0.1388114 -0.11286026
0.24342187 -0.116284795 -0.6982048 -0.013555918 -0.21634176 0.5941815 -0.39231378 0.17055833
0.107403494 -0.34468353 0.38952518 0.08381553 -0.04264465 -0.350956 -0.4335322 0.1704557
-0.30191034 -0.31517938 -0.2555493 -0.40964985 -0.50960225 0.15257968 0.012886067 0.21148998
-0.6087276 0.39676923 -0.07156675 -0.32532743 0.44397196 0.24254712 -0.5375548 0.014033228
0.3289245 -0.35954225 -0.45734662 -0.57096595 0.09105301 -0.17281912 -0.08102937 0.16852261
0.28824085 0.7185317 -0.16726375 -0.42844993 -0.46393487 -0.14626129 -0.1712708 0.035953674
0.022862062 -0.1620751 -0.48671353 0.029845921 0.10835758 -0.158165 -0.048943084 -0.17132066
-0.16217354 0.3096708 0.09251699 0.045886796 -0.23812476 0.31019592 0.36393604 0.028731043
00000000: 8b32 903e 39a0 d9be dd41 afbc cbee 14be
00000010: d054 69be 8e2c 1bbf 1ecf 93be 9a40 093e
00000020: 5586 1f3e 4365 46be 408c 673e c9ba 1d3c
00000030: f8ea 063e 8599 ee3e b3a5 c03e 23fa a8be
00000040: 5c79 21bf 9777 843e 36f1 a43d 7502 9d3e
00000050: 1680 abbe 0370 d2be b69a bf3e 396b 693f
00000060: 5578 d9be 5d9a 183e b510 66be 553b b6be
00000070: f9bc 803e fe06 3d3d afe8 593e 8d9a a43e
00000080: c65b dc3e 27f6 723e e306 81be f05d 6d3e
00000090: d84f 453e fa8f 293e 6735 443d 5e07 543e
000000a0: 860c b03e e3d5 79be b8cf 323e a0a2 703e
000000b0: 8dfc 743d 3ca9 713d 6d8e 4d3e 6eab b1be
000000c0: 3e59 26be e567 dc3e e38a 79be 5773 ab3e
000000d0: eab9 15bf fbc3 bcbe c3bd 78bb d98b 3cba
000000e0: f286 51be b3d9 d5bd fba1 80be 3699 06bf
000000f0: 9555 c33e e14c a33e b437 8dbd 2206 c93e
00000100: 88a7 61be 8e79 2cbe 05c1 e7bc 42ef 603d
00000110: f5c1 21be 4622 ad3e 8279 90be 64b8 863d
00000120: b0f1 623e 14a0 673e ba5d 8d3f 1535 d1be
00000130: a39f 58bd 9cf6 ff3e 9324 0ebe 4823 e7bd
00000140: 9543 793e b926 eebd 8dbd 32bf a419 5ebc
00000150: b288 5dbe 471c 183f 5add c8be d8a6 2e3e
00000160: 5df6 db3d 5c7a b0be d86f c73e 7aa7 ab3d
00000170: 28ac 2ebd 81b0 b3be eff7 ddbe f08b 2e3e
00000180: fe93 9abe 315f a1be 5cd7 82be a0bd d1be
00000190: 4b75 02bf d93d 1c3e 1520 533c d490 583e
000001a0: 92d5 1bbf 5625 cb3e 9791 92bd 5191 a6be
000001b0: 4b50 e33e 465e 783e 319d 09bf a0eb 653c
000001c0: cb68 a83e ec15 b8be 5629 eabe d32a 12bf
000001d0: 007a ba3d 7ff7 30be baf2 a5bd 3191 2c3e
000001e0: 4e94 933e b2f1 373f 3047 2bbe ca5d dbbe
000001f0: df88 edbe 85c5 15be 9d61 2fbe 2944 133d
00000200: 3849 bb3c 04f7 25be 8432 f9be 6f7f f43c
00000210: 94ea dd3d 01f6 21be 8b78 48bd af6e 2fbe
00000220: d210 26be 2c8d 9e3e 8c79 bd3d cbf3 3b3d
00000230: fad6 73be 00d2 9e3e d355 ba3e 5d5d eb3c

conv1_1.bias f4 [16]
-0.096375346 -0.33560857 1.1267595 0.00055424316 0.3163384 1.1355016 1.0321364 -0.10136983
-0.062309694 -0.29548222 -2.02085e-05 -0.007039703 -0.024149392 1.015196 0.0002494491 0.118238874
00000000: 7060 c5bd e3d4 abbe a839 903f a14a 113a
00000010: 1bf7 a13e 1e58 913f 0c1d 843f fc9a cfbd
00000020: 7338 7fbd 7249 97be 6c85 a9b7 4fad e6bb
00000030: f2d4 c5bc f1f1 813f 7ec8 8239 3927 f23d

conv1_2.weight f4 [1, 16, 3, 3]
-0.08712417 -0.080237314 0.31073567 -0.14631395 -0.20707491 -0.11694599 0.012081422 0.012415564
-0.13929899 -0.69366807 -0.043468002 0.294077 -0.00026034113 0.16936602 0.19249184 0.091851816
0.0933788 0.2253667 0.16338731 0.120814815 0.11362445 0.36647582 0.1629028 -0.35862002
0.35410422 0.14116688 -0.23642074 -0.10400991 -0.07051695 -0.023157297 -0.08053751 0.028058982
-0.011411839 -0.071054496 -0.05875421 0.18671979 0.030834945 0.021356232 0.024602802 -0.13292763
-0.005976503 -0.07138043 0.034687012 0.0003053394 -0.04433759 0.26713434 0.064867176 -0.17798056
0.007988988 0.25428414 0.111432575 0.14781749 0.24869786 -0.012504995 0.20156394 -0.056519464
0.028556863 0.12289948 -0.13306725 0.14698522 0.32531562 0.12576586 0.43236515 0.16440059
0.1313008 -0.05146156 0.1089877 0.006037991 -0.014799787 0.106090166 -0.0070170164 -0.021777978
0.07294778 0.03984002 0.09436118 -0.021362722 0.020248348 -0.36080554 -0.36358303 -0.1661964
-0.14430057 -0.11276333 0.31786793 -0.25280073 -0.4204112 0.33480084 -0.20471 -0.47128537
-0.5244896 -0.26343912 0.04085236 -0.00973708 -0.09199265 0.007594442 -0.19708136 -0.21160252
-0.011255576 -0.06814642 -0.07610873 -0.015134779 -0.22851053 -0.30355054 -0.1896334 -0.21479307
-0.30537495 -0.08067608 -0.19145675 -0.08867148 0.022852533 0.08324504 0.0053815288 -0.50796586
0.05683645 0.027822174 -0.21615955 -0.18032737 -0.15034804 0.206574 0.053996164 0.25808573
-0.17055485 0.23130292 0.011521971 0.019192731 0.14782013 0.23645577 0.065531135 -0.020415578
-0.05671909 -0.016224846 -0.14418937 -0.16365486 -0.049133744 0.03736795 -0.016611299 0.14393553
0.07524238 0.047883563 -0.18839374 -0.034392882 -0.040025767 -0.022014892 0.004703172 0.05236594
00000000: 286e b2bd 7653 a4bd bf18 9f3e 53d3 15be
00000010: 720b 54be 6181 efbd 28f1 453c a66a 4b3c
00000020: 65a4 0ebe 3b94 31bf 810b 32bd 4391 963e
00000030: 657e 88b9 496e 2d3e 951c 453e ce1c bc3d
00000040: 623d bf3d 87c6 663e 014f 273e c26d f73d
00000050: f0b3 e83d b8a2 bb3e fecf 263e 0b9d b7be
00000060: 264d b53e 0d8e 103e 4718 72be 2603 d5bd
00000070: 316b 90bd 5fb4 bdbc daf0 a4bd f3db e53c
00000080: b9f8 3abc 0585 91bd 41a8 70bd 7933 3f3e
00000090: 9199 fc3c 44f3 ae3c d18b c93c 2e1e 08be
000000a0: 8ad6 c3bb e72f 92bd f813 0e3d f615 a039
000000b0: 559b 35bd d5c5 883e 15d9 843d 8940 36be
000000c0: 3fe4 023c 8831 823e c336 e43d 785d 173e
000000d0: a7aa 7e3e c0e1 4cbc c766 4e3e f480 67bd
000000e0: 15f0 e93c b9b2 fb3d c842 08be 4b83 163e
000000f0: c58f a63e c4c8 003e f75e dd3e a158 283e
00000100: b873 063e 5bc9 52bd f134 df3d 57da c53b
00000110: ce7a 72bc cd45 d93d 00ef e5bb bb67 b2bc
00000120: a565 953d 4a2f 233d 6f40 c13d e000 afbc
00000130: dddf a53c 81bb b8be 8e27 babe 642f 2abe
00000140: 87c3 13be 76f0 e6bd 96bf a23e 196f 81be
00000150: 2340 d7be 046b ab3e 809f 51be 514c f1be
00000160: f344 06bf 7ee1 86be ce54 273d 4688 1fbc
00000170: a466 bcbd ccda f83b b2cf 49be 55ae 58be
00000180: 4f69 38bc 5a90 8bbd e5de 9bbd ddf7 77bc
00000190: aafe 69be fa6a 9bbe 422f 42be b7f2 5bbe
000001a0: 1b5a 9cbe 8039 a5bd 3d0d 44be 6599 b5bd
000001b0: 3c35 bb3c 607c aa3d 8957 b03b 0d0a 02bf
000001c0: 56cd 683d 54eb e33c ee58 5dbe bda7 38be
000001d0: d6f4 19be 2288 533e 152b 5d3d d023 843e
000001e0: eea5 2ebe acda 6c3e a6c6 3c3c 133a 9d3c
000001f0: 295e 173e 7621 723e 3035 863d 923e a7bc
00000200: 4752 68bd f8e9 84bc 61a6 13be 2495 27be
00000210: 7740 49bd 230f 193d 6b14 88bc d663 133e
00000220: ad18 9a3d 8e21 443d 4aea 40be 8ddf 0cbd
00000230: 0ff2 23bd 9358 b4bc 111d 9a3b ab7d 563d

conv2_1.weight f4 [16, 1, 3, 3]
-0.17319198 0.19740847 0.042783078 -0.05565346 0.116287835 -0.20318843 0.20204407 -0.14396894
-0.3709025 -0.21260092 0.236528 0.24127145 -0.08113339 0.25909108 -0.115326524 0.2260885
0.11173145 -0.06070822 -0.3741778 0.12895428 0.079608984 -0.3792375 -0.4240818 -0.13927826
-0.36994663 0.049924802 0.26874337 0.12410615 -0.13363029 0.14428972 0.28737313 0.33345395
-0.18173517 0.102816835 0.1494139 -0.01806008 -0.0394197 0.23809823 -0.08176892 -0.40678453
0.12326165 0.32172698 0.042084236 0.0380456 -0.39290592 0.2800597 0.029889878 -0.16213812
0.081539415 0.25949648 0.21173295 -0.2386085 -0.04927078 -0.06778884 -0.24640293 -0.3320253
0.09283799 0.19131547 -0.45114598 0.32678694 -0.12780708 0.26492772 -0.19448298 0.276649
-0.33723947 0.10534992 0.050283015 -0.15669256 0.2920059 -0.037444826 0.09195486 0.35345733
0.22598349 0.28424594 0.24477826 0.11497874 0.15332615 0.027934317 0.12072564 -0.28516042
-0.13406841 0.14093956 0.15983728 -0.2120457 -0.111721106 -0.0809989 0.3189467 -0.2725886
-0.2939973 -0.008564491 -0.30470207 0.13193408 -0.44432062 0.05162242 0.8569498 -0.11286348
-0.020837698 -0.24508432 -0.50152624 -0.18929769 -0.42750338 -0.013297823 -0.26436132 0.26423666
-0.021167865 0.008688216 0.29214755 0.2019607 -0.31727222 -0.2751471 0.67261094 -0.4930715
-0.4458576 0.15751188 0.012264158 -0.15865436 0.12449106 0.28248188 0.20889896 0.07886933
0.004112935 0.09180904 0.056574684 0.03237632 0.1896645 0.028155183 -0.15783289 -0.039380006
0.022172876 0.46119258 0.013885932 -0.24103034 0.44699946 0.09041361 -0.2312444 0.3062208
0.17170934 -0.036371842 -0.0023667498 -0.39195758 -0.24654968 0.026413836 -0.4023584 -0.079855576
00000000: 3d59 31be 7225 4a3e 4f3d 2f3d e2f4 63bd
00000010: 5128 ee3d a110 50be a4e4 4e3e 986c 13be
00000020: efe6 bdbe 0eb4 59be 6534 723e dd0f 773e
00000030: 4329 a6bd 96a7 843e 5030 ecbd be83 673e
00000040: 75d3 e43d 2fa9 78bd 3c94 bfbe 970c 043e
00000050: 090a a33d 6b2b c2be 4021 d9be f69e 0ebe
00000060: a569 bdbe f37d 4c3d bb98 893e 5d2b fe3d
00000070: 61d6 08be afc0 133e 9222 933e 7aba aa3e
00000080: c918 3abe a291 d23d f5ff 183e bcf2 93bc
00000090: 8d76 21bd 06d0 733e 7776 a7bd 1046 d0be
000000a0: 9b70 fc3d 66b9 a43e 8560 2c3d b4d5 1b3d
000000b0: f72a c9be fc63 8f3e 9edb f43c 8907 26be
000000c0: 23fe a63d b9dc 843e 86d0 583e c955 74be
000000d0: 28d0 49bd e0d4 8abd 0d51 7cbe 38ff a9be
000000e0: d821 be3d 34e8 433e 9bfc e6be 9e50 a73e
000000f0: dcdf 02be 9ba4 873e 8c26 47be f0a4 8d3e
00000100: a7aa acbe b3c1 d73d 90f5 4d3d 0474 20be
00000110: cc81 953e bf5f 19bd d452 bc3d 5cf8 b43e
00000120: 3768 673e af88 913e 27a7 7a3e f979 eb3d
00000130: 8801 1d3e 82d6 e43c 013f f73d 8c00 92be
00000140: 3b49 09be 7652 103e 62ac 233e 8222 59be
00000150: 09ce e4bd c0e2 a5bd fb4c a33e bc90 8bbe
00000160: d086 96be 1452 0cbc e901 9cbe ba19 073e
00000170: fe7d e3be 0872 533d 1061 5b3f f824 e7bd
00000180: d2b3 aabc 62f7 7abe 0664 00bf 41d7 41be
00000190: b9e1 dabe 1ddf 59bc 5e5a 87be 074a 873e
000001a0: 3b68 adbc 0559 0e3c 5d94 953e c9ce 4e3e
000001b0: 8171 a2be 15e0 8cbe 3b30 2c3f de73 fcbe
000001c0: 7347 e4be cb4a 213e 9bef 483c 4a76 22be
000001d0: 2bf5 fe3d 77a1 903e 9ce9 553e 3e86 a13d
000001e0: cdc5 863b 6106 bc3d dbba 673d 089d 043d
000001f0: 6937 423e b3a5 e63c f29e 21be ee4c 21bd
00000200: e4a3 b53c 6f21 ec3e d281 633c a8d0 76be
00000210: 1ddd e43e c52a b93d 55cb 6cbe f9c8 9c3e
00000220: 93d4 2f3e a4fa 14bd 791b 1bbb aaae c8be
00000230: 8577 7cbe d461 d83c ec01 cebe 528b a3bd

conv2_1.bias f4 [16]
0.40909317 0.2290906 0.06754735 -0.27014673 -0.18088947 0.018412007 0.2477887 0.4521331
-0.14237902 0.10075814 -0.45291004 0.2142016 1.1455632 -0.19003895 0.8092827 0.8544188
00000000: a974 d13e ba96 6a3e 4456 8a3d ac50 8abe
00000010: 173b 39be c7d4 963c 52bc 7d3e fd7d e73e
00000020: cecb 11be 495a ce3d d3e3 e7be aa57 5b3e
00000030: d1a1 923f 9299 42be 272d 4f3f 31bb 5a3f

conv2_2.weight f4 [1, 16, 3, 3]
0.09093052 -0.045197096 -0.021709133 -0.18596378 0.025132291 -0.063875526 0.018584901 0.03175464
0.13765875 -0.022433948 0.033861686 0.043950256 0.07136176 0.050136894 -0.040152267 -0.009610571
-0.03220084 0.009896294 -0.11434833 -0.01877447 0.05664327 -0.082362205 -0.17286819 -0.18139833
0.057273638 -0.011516707 -0.07391823 0.103758655 0.043586265 -0.055417094 -0.048964337 0.03690564
0.060794275 0.028432505 -0.035628133 0.0675977 0.008170246 0.2530282 -0.107344896 0.19685225
0.25206628 -0.18768407 0.04116957 0.022484468 0.077707864 -0.014321579 0.023826757 0.012424158
0.033233978 0.119571105 0.09224995 0.009056588 0.034752637 -0.04102933 -0.086991794 -0.074343175
-0.053840287 0.09460721 -0.23227608 -0.24211483 -0.015574294 -0.08174007 -0.20221871 0.031221893
0.11504281 0.053602263 -0.09052778 -0.05843551 -0.027234936 -0.035589576 0.09158226 -0.046387322
-0.02424544 0.025515603 -0.0056360504 -0.031377662 0.115739875 -0.05752549 -0.06558294 -0.071167216
-0.032249745 -0.093445346 0.0059947367 0.06927723 -0.02837893 -0.10343162 -0.23239914 -0.09574656
0.04105627 0.0090115415 0.06803208 0.026768442 0.08030341 -0.0035467504 0.55618805 -0.14022774
-0.055046707 0.109685436 0.018911319 0.01933838 -0.034941483 0.057436906 -0.056559302 0.14687474
-0.11664386 -0.037933003 0.07367096 -0.02576148 0.03356365 0.10055092 -0.01557219 0.07338889
-0.037910346 -0.14546031 -0.07152894 -0.06391539 -0.2601772 -0.027633457 0.03507891 -0.02486347
0.06344211 -0.012369472 0.013999477 0.027188065 0.068971485 -0.08690736 0.23340963 0.11701749
-0.19362628 -0.17938818 -0.30312684 -0.20163721 0.03013924 -0.049455106 -0.011003179 0.0494729
0.04341558 -0.1734427 -0.5531 -0.6243052 0.022660913 0.10088611 -0.057036307 -0.17219234
00000000: c839 ba3d 9720 39bd 5ad7 b1bc 4a6d 3ebe
00000010: 3ce2 cd3c 2cd1 82bd 5d3f 983c 2711 023d
00000020: 6af6 0c3e 66c7 b7bc 8db2 0a3d 2f05 343d
00000030: 1d26 923d 585c 4d3d b476 24bd a875 1dbc
00000040: 07e5 03bd 1124 223c 752f eabd ebcc 99bc
00000050: c602 683d 84ad a8bd 5c04 31be 7cc0 39be
00000060: c397 6a3d 92b0 3cbc 7162 97bd 6b7f d43d
00000070: 8387 323d 09fd 62bd d48e 48bd 5e2a 173d
00000080: 6b03 793d 49eb e83c ceee 11bd aa70 8a3d
00000090: 7fdc 053c ea8c 813e a4d7 dbbd a393 493e
000000a0: d50e 813e 4130 40be 6ca1 283d 5931 b83c
000000b0: 4d25 9f3d 0ea5 6abc 5530 c33c b28e 4b3c
000000c0: 5a20 083d b2e1 f43d 8bed bc3d 1562 143c
000000d0: c858 0e3d 5f0e 28bd c128 b2bd 3c41 98bd
000000e0: a287 5cbd 6dc1 c13d c8d9 6dbe f3ec 77be
000000f0: 532b 7fbc 5667 a7bd 6c12 4fbe 0ec5 ff3c
00000100: 919b eb3d 0c8e 5b3d a166 b9bd 135a 6fbd
00000110: cd1b dfbc 60c6 11bd 7b8f bb3d a200 3ebd
00000120: 5f9e c6bc 1906 d13c 9eae b8bb dd85 00bd
00000130: 0709 ed3d d99f 6bbd 5950 86bd 1ec0 91bd
00000140: 4f18 04bd 4660 bfbd 7f6f c43b 38e1 8d3d
00000150: ee7a e8bc f5d3 d3bd 0afa 6dbe c616 c4bd
00000160: 9f2a 283d 25a5 133c 6754 8b3d 7e49 db3c
00000170: 1d76 a43d 9970 68bb 5762 0e3f dc97 0fbe
00000180: a878 61bd c2a2 e03d e9eb 9a3c 866b 9e3c
00000190: cd1e 0fbd f642 6b3d baaa 67bd 5566 163e
000001a0: fae2 eebd a35f 1bbd cde0 963d bd09 d3bc
000001b0: 0a7a 093d a4ed cd3d 8022 7fbc ea4c 963d
000001c0: e147 1bbd 8cf3 14be c47d 92bd 12e6 82bd
000001d0: f235 85be 8f5f e2bc e7ae 0f3d 7aae cbbc
000001e0: f0ed 813d 53a9 4abc 105e 653c 81b9 de3c
000001f0: ec40 8d3d 7cfc b1bd ef02 6f3e dea6 ef3d
00000200: f845 46be 89b1 37be 7133 9bbe fc79 4ebe
00000210: 91e6 f63c 7091 4abd ad46 34bc 18a4 4a3d
00000220: 89d4 313d f79a 31be f697 0dbf 77d2 1fbf
00000230: 61a3 b93c 609d ce3d e79e 69bd 3053 30be

conv3_1.weight f4 [16, 1, 3, 3]
-0.08058567 0.14240837 0.25321054 -0.06369515 -0.2142714 0.27830797 -0.10982205 -0.05603494
-0.21638158 -0.23707335 -0.089459434 0.030152269 -0.47405404 -0.040856995 0.29474682 -0.4839083
0.073447354 0.05453968 0.17049684 0.070604146 0.04087099 -0.29515663 -0.85954887 -0.27972135
0.28635567 -0.281337 -0.18863541 0.07698086 -0.2764397 -0.032902967 -0.12327866 -0.37986153
-0.18758337 -0.2950911 -0.21968344 0.11880436 0.11776793 0.019615838 -0.051048655 -0.12914509
-0.021039823 0.20853001 0.23398063 0.19243865 -0.24929148 -0.3158712 0.23780692 -0.3124804
-0.31066382 0.0815145 0.28272244 0.064710274 -0.29443505 -0.2816182 -0.23634626 -0.35102126
0.17142366 -0.1372028 -0.53113216 -0.026478542 0.21673298 -0.098322034 -4.5153018e-05 -0.2165049
0.2596006 -0.30231056 -0.48907542 0.40587145 0.070973754 -0.1581721 -0.51861966 -0.23297097
-0.09829779 -0.21659023 0.11231753 0.2386444 0.109000534 0.3558376 -0.3976107 0.22645393
0.24901918 -0.21632272 -0.08306958 -0.19357105 0.2937568 0.31192848 0.01322556 0.1807631
-0.2790511 0.22052373 0.040314954 0.4166454 -0.11273855 -0.086192966 0.092872016 -0.006696416
0.3129744 0.092934296 -0.10758051 -0.28373918 -0.42604718 -0.201654 0.029227879 0.013987783
0.34391934 0.18057753 -0.28102794 0.19587515 0.24029453 0.3915946 -0.20633793 0.3282258
-0.010478902 0.4372426 -0.13462669 0.17502624 -0.34738547 -0.107553 0.042255167 0.29199612
-0.3541281 0.279328 -0.090145044 -0.22542536 -0.29441097 0.034698516 -0.07061065 -0.022393694
-0.14375672 -0.05082863 0.62105995 -0.08681999 -0.012081893 0.05066641 0.059469484 0.058669195
0.17664643 0.020629803 -0.13732965 0.33477387 0.0046628313 0.10328343 0.14011797 0.10013058
00000000: 1a0a a5bd 80d3 113e d0a4 813e 9a72 82bd
00000010: f669 5bbe 627e 8e3e 62ea e0bd e584 65bd
00000020: 2293 5dbe 5bc3 72be 8236 b7bd e401 f73c
00000030: 36b7 f2be aa59 27bd 0ee9 963e d4c2 f7be
00000040: 916b 963d 0065 5f3d b996 2e3e e898 903d
00000050: 5768 273d c51e 97be 650b 5cbf a337 8fbe
00000060: 369d 923e 670b 90be a429 41be 24a8 9d3d
00000070: 8189 8dbe 43c5 06bd 8679 fcbd 367d c2be
00000080: db15 40be 2e16 97be b2f4 60be b34f f33d
00000090: 5030 f13d 65b1 a03c 6518 51bd 9c3e 04be
000000a0: b55b acbc e488 553e 9e98 6f3e a30e 453e
000000b0: 4446 7fbe dfb9 a1be a883 733e 6efd 9fbe
000000c0: 540f 9fbe 13f1 a63d ffc0 903e d286 843d
000000d0: 31c0 96be 4330 90be c104 72be 0fb9 b3be
000000e0: af89 2f3e e47e 0cbe 47f8 07bf 87e9 d8bc
000000f0: 40ef 5d3e 105d c9bd af62 3db8 76b3 5dbe
00000100: 5fea 843e 73c8 9abe 1868 fabe 62ce cf3e
00000110: b05a 913d def7 21be 42c4 04bf f18f 6ebe
00000120: 5a50 c9bd d4c9 5dbe bc06 e63d 335f 743e
00000130: ac3b df3d 5930 b63e a193 cbbe 8ae3 673e
00000140: e2fe 7e3e b483 5dbe 6220 aabd 7d37 46be
00000150: 4b67 963e 17b5 9f3e 05b0 583c f619 393e
00000160: c9df 8ebe f9d0 613e 4b21 253d 8c52 d53e
00000170: 78e3 e6bd f085 b0bd af33 be3d 9c6d dbbb
00000180: 2e3e a03e 5654 be3d 2c53 dcbd 4346 91be
00000190: db22 dabe 637e 4ebe 4e6f ef3c 042d 653c
000001a0: 3216 b03e 51e9 383e e5e2 8fbe 7f93 483e
000001b0: c50f 763e 167f c83e 404a 53be 360d a83e
000001c0: b3af 2bbc 43de df3e 94db 09be 143a 333e
000001d0: 82dc b1be bf44 dcbd c113 2d3d 8480 953e
000001e0: 4750 b5be 1404 8f3e f79d b8bd e8d5 66be
000001f0: 09bd 96be 0820 0e3d 519c 90bd fb72 b7bc
00000200: f634 13be ae31 50bd c9fd 1e3f aece b1bd
00000210: 22f3 45bc 9587 4f3d 4696 733d 1c4f 703d
00000220: cde2 343e d5ff a83c 25a0 0cbe 7b67 ab3e
00000230: aaca 983b 4386 d33d 167b 0f3e 4311 cd3d

conv3_1.bias f4 [16]
0.038133126 -0.15430523 0.22640416 -0.08905428 -0.07919626 -0.37944928 0.21315052 -0.48247233
-0.060768895 0.2008726 0.011836915 0.11738145 0.08490633 -0.06687547 -0.07624504 0.16175604
00000000: 7b31 1c3d 3102 1ebe 7ed6 673e 1762 b6bd
00000010: a631 a2bd 2d47 c2be 2144 5a3e 9d06 f7be
00000020: cee8 78bd 8cb1 4d3e 9fef 413c b065 f03d
00000030: 5fe3 ad3d 02f6 88bd 5c26 9cbd 60a3 253e

conv3_2.weight f4 [1, 16, 3, 3]
-0.13601607 0.04406158 0.07560943 0.091377914 -0.0112108905 -0.11647171 0.14741024 -0.07622538
0.076869465 -0.05813716 0.042387214 0.091362886 0.11647399 -0.049066257 -0.23212291 -0.039688207
0.068586 -0.114255436 0.068401635 0.095602214 -0.113024436 -0.08018962 -0.4449027 -0.17243797
-0.0017389939 -0.015952585 0.11093489 -0.07697501 -0.033237327 0.09631225 -0.024299668 -0.1853919
-0.07974925 -0.040420197 0.0006092727 0.03004385 -0.043991704 0.0688617 -0.41963205 0.14702468
0.059986547 -0.22074354 -0.16181439 0.08628758 0.046562597 0.09761636 -0.0128573235 -0.045336984
0.16003363 0.1148747 -0.1581962 0.03501791 0.058783695 0.2387911 0.024332168 -0.0059582517
-0.12326954 -0.11785407 -0.2514453 -0.13888015 -0.08901951 -0.14489943 -0.16611841 -0.07672752
0.022608353 0.04378379 0.04887681 0.24990703 -0.05501779 0.02162793 0.0542085 -0.051588167
0.024735546 -0.048480723 0.15666816 0.008698035 -0.10309334 -0.057981662 -0.033592094 -0.04725383
0.056350283 0.056642592 0.062969185 0.015824264 0.023929965 0.10129049 -0.004899663 0.022726685
0.039676785 0.05131906 0.047251582 0.03065695 -0.0481132 -0.049935456 -0.011886317 0.03223126
0.056211777 -0.005631378 -0.08195351 -0.0799401 -0.023009166 -0.024786066 0.18953682 -0.112881705
0.046393935 -0.13014883 -0.05145117 -0.121401355 -0.12924708 -0.027793098 0.1388298 0.09917275
-0.03640879 -0.039677665 -0.041089494 -0.096198134 -0.1629188 -0.08077556 0.05443824 0.012433498
-0.056436583 0.06347626 -0.07239587 -0.026718682 -0.08979424 -0.10647714 0.10323538 0.102702126
0.0045908876 -0.15322423 0.4914344 -0.04630651 0.041013446 0.073497154 0.07454296 0.09271291
0.069211595 -0.008618659 -0.0019990252 0.033617035 0.0145495385 0.02947327 0.013151381 -0.009837446
00000000: cc47 0bbe ea79 343d 1ed9 9a3d 5824 bb3d
00000010: e2ad 37bc b888 eebd b6f2 163e 0d1c 9cbd
00000020: bd6d 9d3d 3b21 6ebd 379e 2d3d 771c bb3d
00000030: ea89 ee3d b3f9 48bd a1b1 6dbe 1a90 22bd
00000040: d176 8c3d c1fe e9bd 2816 8c3d 18cb c33d
00000050: 5b79 e7bd 753a a4bd 49ca e3be 9493 30be
00000060: f4ee e3ba ffae 82bc d531 e33d 13a5 9dbd
00000070: dd23 08bd 5b3f c53d 1910 c7bc 60d7 3dbe
00000080: 9353 a3bd a68f 25bd 99b7 1f3a 851e f63c
00000090: a530 34bd 5d07 8d3d 03da d6be a38d 163e
000000a0: 74b4 753d 980a 62be acb2 25be 8bb7 b03d
000000b0: 6cb8 3e3d 16eb c73d 86a7 52bc 46b3 39bd
000000c0: dbdf 233e 6d43 eb3d 2ffe 21be f16e 0f3d
000000d0: 2cc7 703d a785 743e 4154 c73c 703d c3bb
000000e0: be74 fcbd 7a5d f1bd 70bd 80be 9936 0ebe
000000f0: dc4f b6bd 8460 14be f21a 2abe 5123 9dbd
00000100: 2735 b93c a256 333d 0d33 483d a1e7 7f3e
00000110: 565a 61bd 0f2d b13c bb09 5e3d 1d4e 53bd
00000120: 33a2 ca3c b993 46bd 9e6d 203e 3482 0e3c
00000130: 9a22 d3bd 2e7e 6dbd dd97 09bd 3b8d 41bd
00000140: 8ecf 663d 1002 683d fdf5 803d e3a1 813c
00000150: c608 c43c 6371 cf3d 5a8d a0bb 502d ba3c
00000160: 2084 223d ef33 523d e08a 413d 4924 fb3c
00000170: 5912 45bd 1f89 4cbd d4be 42bc ed04 043d
00000180: 523e 663d 6c87 b8bb 3ed7 a7bd a3b7 a3bd
00000190: b87d bcbc 260c cbbc f115 423e 862e e7bd
000001a0: 9107 3e3d bc45 05be 76be 52bd 46a1 f8bd
000001b0: 5959 04be 5aae e3bc 6629 0e3e 151b cb3d
000001c0: 6221 15bd 0c85 22bd 754d 28bd 8703 c5bd
000001d0: 30d4 26be a86d a5bd a2fa 5e3d dfb5 4b3c
000001e0: 0c2a 67bd d7ff 813d 4944 94bd 23e1 dabc
000001f0: 0be6 b7bd b010 dabd 126d d33d 7e55 d23d
00000200: 286f 963b d0e6 1cbe 4a9d fb3e e5ab 3dbd
00000210: b7fd 273d ad85 963d fba9 983d 44e0 bd3d
00000220: cfbe 8d3d 4735 0dbc 1402 03bb 04b2 093d
00000230: 3061 6e3c ed71 f13c e478 573c 3d2d 21bc
