model_MLP_dinamica_1.onnx (onnx, 1116 bytes, 4 tensors)

fc1.weight f4 [32, 2]
0	0x3d55c2f6	0.052187882
1	0xbeb7385a	-0.3578518
2	0xbe2226da	-0.15835133
3	0x3eef7c9c	0.46774757
4	0x3e8b9eda	0.27269632
5	0xbf2104c4	-0.62897897
6	0xbec1888c	-0.3779949
7	0x3be698d4	0.0070372615
8	0x3ec2d383	0.38051996
9	0x3ed3ce63	0.41368398
10	0xbe3f9e87	-0.18712817
11	0xbe95e8cc	-0.29279172
12	0x3e34d17c	0.17658037
13	0xbe5da6f6	-0.21645722
14	0x3dadbbcb	0.08483084
15	0x3e6a055c	0.22853607
16	0x3ef42444	0.47683918
17	0xbdd109f6	-0.10206978
18	0xbf1ce304	-0.612839
19	0xbf1402ce	-0.5781678
20	0x3e96cce4	0.29453194
21	0xbdc6e5ce	-0.097118005
22	0xbf14ca94	-0.5812161
23	0x3e624b2f	0.22098993
24	0xbe81702c	-0.25280893
25	0xbf297e53	-0.6620838
26	0x3f0eeaec	0.5582721
27	0x3edc1988	0.4298823
28	0xbdb85f10	-0.09002507
29	0xbf1eafa6	-0.6198677
30	0xbf051e34	-0.5199921
31	0xbe02e20e	-0.12781546
32	0x3f079d0e	0.5297402
33	0xbed76b3e	-0.42074007
34	0xbf2ac77d	-0.66710645
35	0xbef41ae3	-0.47676763
36	0xbeab3bd8	-0.33444095
37	0x3f1836e2	0.59458745
38	0xbe63d25e	-0.22248217
39	0x3edf7e88	0.43651223
40	0xbf1deed4	-0.6169255
41	0x3e490f7e	0.19634816
42	0x3e86c188	0.26319528
43	0x3f0dfebf	0.55466837
44	0x3ea07ae7	0.31343767
45	0xbdd7597c	-0.10515115
46	0xbc35dace	-0.01109953
47	0x3ef8d663	0.48601064
48	0xbf1d8897	-0.61536545
49	0xbe8e4e32	-0.27794033
50	0xbee5d34a	-0.44887763
51	0x3cf67c0b	0.030088445
52	0xbe9e5002	-0.30920416
53	0xbf2bce5e	-0.67111766
54	0x3c50cddc	0.012744393
55	0x3f01b92f	0.5067319
56	0xbd6c1a78	-0.05764243
57	0x3eddb031	0.43298486
58	0x3f114db2	0.5675918
59	0x3e6aedb6	0.22942242
60	0xbeb3db92	-0.35128456
61	0x3db6570e	0.08903323
62	0xbe6e28a8	-0.23257697
63	0xbe1337d4	-0.14376765

fc1.bias f4 [32]
0	0x3f11afe3	0.56909007
1	0xbe994c88	-0.299412
2	0xbf3293d5	-0.69756824
3	0x3f013332	0.5046874
4	0xbf2d5e15	-0.6772168
5	0x3eb27c39	0.348604
6	0xbc96f493	-0.018427169
7	0xbd7300c6	-0.05932691
8	0x3ebc5596	0.36784047
9	0x3f1f157d	0.62142164
10	0x3e40d9a4	0.18833023
11	0xbec5e143	-0.38648424
12	0x3eb4f6fc	0.35344684
13	0x3eef2ceb	0.46713957
14	0x3e9ea056	0.30981702
15	0x3e443b82	0.19163325
16	0xbed291ee	-0.4112696
17	0x3efdb2bc	0.49550426
18	0xbf136296	-0.57572305
19	0x3be7697b	0.007062135
20	0x3f030814	0.511842
21	0xbf2bdc40	-0.6713295
22	0x3f01f011	0.5075694
23	0x3eca6ea2	0.3953753
24	0x3ed692ba	0.41908818
25	0x3f156c01	0.58367926
26	0x3e479c4f	0.19493221
27	0xbf211126	-0.6291679
28	0xbeb44436	-0.3520829
29	0x3db7f5bd	0.08982418
30	0x3eaf8745	0.3428289
31	0x3ef386d5	0.47563806

fc2.weight f4 [2, 32]
0	0x3dffcde0	0.124904394
1	0x3df96122	0.1217673
2	0x3e26c361	0.16285469
3	0x3da69b41	0.08135081
4	0xbd8432f7	-0.06455033
5	0xbe09e93a	-0.13467875
6	0x3e3e9d42	0.18614677
7	0xbd7c21a4	-0.06155552
8	0x3d8d4545	0.06897978
9	0x3e0d9460	0.13826132
10	0x3db93367	0.09043007
11	0x3ddd7009	0.10812385
12	0x3d06e2c0	0.03293109
13	0x3e2bb5be	0.16768548
14	0xbe1940c4	-0.14966112
15	0xbd08220c	-0.033235595
16	0x3e3396de	0.1753802
17	0x3d235a4b	0.039881032
18	0xbd5a5843	-0.05330683
19	0x3e0c9be8	0.13731349
20	0x3d7b7427	0.06139007
21	0xbdf400d9	-0.11914224
22	0x3cd2a2d8	0.025712416
23	0xbd72eb23	-0.059306275
24	0xbd4b5cca	-0.049649037
25	0x3e10a2f4	0.14124662
26	0x3e367a24	0.1782003
27	0xbe14cf95	-0.14532311
28	0xbe0055a7	-0.12532674
29	0xbe15bbaa	-0.1462237
30	0xbe255839	-0.16146936
31	0xbdff61ec	-0.12469849
32	0xbcece112	-0.028915916
33	0x3db9d4a5	0.09073762
34	0xbdf1ad88	-0.118006766
35	0x3e0572eb	0.13032119
36	0xbd83679d	-0.06416247
37	0x3e272c88	0.16325581
38	0xbcfe0525	-0.031008312
39	0xbc101ff7	-0.0087966835
40	0xbd44f2b5	-0.048083026
41	0x3d8bce2e	0.06826435
42	0xbb792d5e	-0.0038021426
43	0x3e0084ea	0.12550703
44	0x3dd5ba07	0.104358725
45	0xbdef9835	-0.11698953
46	0x3e06d892	0.13168553
47	0x3d9d8bd5	0.076926865
48	0xbd920b74	-0.07131091
49	0xbdae1f38	-0.08502048
50	0x3d876716	0.06611459
51	0x3e0df8da	0.1386446
52	0xbe11f12c	-0.14252156
53	0x3de9d4f9	0.114175744
54	0x3e279fb8	0.16369522
55	0x3e349dbc	0.17638296
56	0x3c3ac2c5	0.011398976
57	0x3de3618a	0.111025885
58	0xbe259bbc	-0.16172689
59	0xbe096c50	-0.13420224
60	0x3dd758fe	0.10515021
61	0x3e224d5c	0.15849823
62	0x3e31d906	0.17367944
63	0x3e1b6e06	0.1517869

fc2.bias f4 [2]
0	0x3d001e75	0.031279046
1	0xbdf4e32d	-0.11957393
