model_CNN_dinamica_1.onnx (onnx, 18758 bytes, 6 tensors)

conv1.weight f4 [64, 1, 2]
-0.64870197 0.14904137 -0.54610676 -0.19653133 0.53661746 -0.44598043 -0.42635286 0.053722225
-0.16865596 0.20530081 0.5225664 -0.51304007 -0.61775875 0.37648734 -0.08695924 -0.35622075
0.26078454 -0.42057872 0.122759 -0.10287106 -0.34720668 0.20516396 0.2093995 0.38297543
0.30547756 -0.22705215 0.60485744 0.27667436 -0.6385781 0.11406411 -0.6528021 -0.543796
-0.61827207 -0.17194392 -0.59488976 -0.19540751 -0.69191855 -0.19126259 -0.48902038 0.43120643
-0.670075 0.0845325 -0.096402295 -0.09205695 0.4426654 0.67789716 -0.37349665 -0.078084126
-0.05830702 0.052352715 -0.40658218 -0.50988185 0.23829766 0.3729249 -0.6799997 0.6879886
-0.54819095 0.6627514 0.19567627 -0.60684603 0.0873301 -0.29087386 0.1198045 -0.004304886
-0.3781992 -0.6033734 -0.33477426 -0.37340042 -0.32486615 0.029318929 -0.6982201 0.37509105
-0.6596302 0.31629 -0.10953065 -0.34640372 0.61979157 0.019432569 -0.43876144 0.01476132
0.004079693 0.5054219 -0.026411857 0.66261065 0.64438176 -0.027937977 0.48132238 0.6046335
-0.30010608 0.4518287 -0.5789647 0.45545173 -0.70606923 -0.32107282 0.33175147 0.64038724
0.4219371 0.1927521 0.01401902 -0.16045877 -0.27640712 0.6805939 0.25652137 0.34426317
-0.17864212 -0.59552616 0.4341501 -0.42912048 0.45616144 -0.19938365 0.06202795 0.6165135
-0.08091076 0.4517878 0.5620567 0.13382709 -0.54142934 -0.07272268 0.043232616 0.4975051
0.041571714 -0.24573159 -0.12927182 0.27398053 0.6109913 -0.36005393 -0.48810762 0.5982773
00000000: 5511 26bf 4d9e 183e a7cd 0bbf 823f 49be
00000010: c35f 093f 8c57 e4be ec4a dabe d60b 5c3d
00000020: 26b4 2cbe 603a 523e e9c6 053f 9856 03bf
00000030: 7025 1ebf f3c2 c03e b017 b2bd 9162 b6be
00000040: 8d85 853e 1856 d7be 1269 fb3d 10ae d2bd
00000050: 13c5 b1be 8016 523e d36c 563e 5b15 c43e
00000060: 8e67 9c3e 5c80 68be f0d7 1a3f 43a8 8d3e
00000070: db79 23bf 729a e93d 0a1e 27bf 3736 0bbf
00000080: 1447 1ebf 1112 30be b24a 18bf e818 48be
00000090: 9321 31bf 57da 43be e160 fabe 17c7 dc3e
000000a0: 098a 2bbf 601f ad3d 916e c5bd 5b88 bcbd
000000b0: 0aa5 e23e ab8a 2d3f f43a bfbe 92ea 9fbd
000000c0: 58d3 6ebd cd6f 563d 8a2b d0be 9e87 02bf
000000d0: 4d04 743e 03f0 be3e 7614 2ebf 0520 303f
000000e0: 3e56 0cbf 13aa 293f 5c5f 483e 435a 1bbf
000000f0: 20da b23d 6bed 94be 105c f53d 0010 8dbb
00000100: 53a3 c1be ae76 1abf 8867 abbe 572e bfbe
00000110: db54 a6be 402e f03c 8dbe 32bf ef0b c03e
00000120: 86dd 28bf c3f0 a13e 9b51 e0bd d45b b1be
00000130: a9aa 1e3f 0d31 9f3c 57a5 e0be 77d9 713c
00000140: f2ae 853b 5463 013f ae5d d8bc daa0 293f
00000150: 34f6 243f 2fde e4bc e36f f63e 43c9 1a3f
00000160: 81a7 99be 1756 e73e 0837 14bf f830 e93e
00000170: f4c0 34bf a863 a4be 54db a93e 6bf0 233f
00000180: 2408 d83e ce60 453e 08b0 653c 4e4f 24be
00000190: 3c85 8dbe 673b 2e3f c556 833e 4343 b03e
000001a0: f6ed 36be 6774 18bf ec48 de3e aeb5 dbbe
000001b0: fe8d e93e 3a2b 4cbe 0511 7e3d d4d3 1d3f
000001c0: 8ab4 a5bd bb50 e73e f3e2 0f3f f809 093e
000001d0: 1d9b 0abf a1ef 94bd af14 313d fdb8 fe3e
000001e0: 1a47 2a3d 10a1 7bbe d55f 04be 2d47 8c3e
000001f0: ed69 1c3f fd58 b8be 3ee9 f9be b328 193f

conv1.bias f4 [64]
0.07820901 -0.47320047 0.31537196 -0.6467765 0.15948245 -0.3334727 -0.107438855 -0.42208278
-0.22886488 -0.15220137 -0.5320347 -0.04099271 -0.079013556 -0.61144793 0.57292885 -0.3391296
0.46057203 0.23279427 -0.57118726 0.52656573 0.32219538 0.33114144 -0.38371724 -0.17785545
-0.4074027 -0.0025659553 -0.19078735 0.13409445 -0.11884761 -0.6892947 -0.1958528 -0.45144525
0.6220632 -0.2859954 -0.48530185 0.039328407 -0.35700557 0.27765113 -0.35004342 -0.28673908
-0.03308923 -0.08384163 0.20267044 0.55509365 -0.6529068 0.6068725 0.43358392 0.09210213
0.22821516 0.5482555 -0.4141379 0.40537363 0.35307014 0.6307925 0.025260793 -0.2231975
0.6262745 0.37492993 0.21551682 -0.21819243 0.7119884 -0.59037465 -0.4745949 0.50467664
00000000: 0c2c a03d 5547 f2be 6f78 a13e 2593 25bf
00000010: 5e4f 233e efbc aabe e708 dcbd 3c1b d8be
00000020: 8e5b 6abe adda 1bbe 6d33 08bf f9e7 27bd
00000030: dcd1 a1bd da87 1cbf 77ab 123f 65a2 adbe
00000040: 19d0 eb3e 9f61 6e3e 5439 12bf 03cd 063f
00000050: cbf6 a43e 5f8b a93e 9676 c4be bd1f 36be
00000060: 1697 d0be 9629 28bb c25d 43be 0e50 093e
00000070: 6066 f3bd 9e75 30bf a38d 48be d523 e7be
00000080: 893f 1f3f fd6d 92be 7c79 f8be d316 213d
00000090: 6fc9 b6be 4a28 8e3e e438 b3be 77cf 92be
000000a0: 9388 07bd 29b5 abbd d788 4f3e 9e1a 0e3f
000000b0: e624 27bf ff5b 1b3f b6fe dd3e 0ba0 bc3d
000000c0: 3cb1 693e 795a 0c3f e209 d4be 228d cf3e
000000d0: 9cc5 b43e 9e7b 213f b9ef ce3c e38d 64be
000000e0: 8753 203f d1f6 bf3e 71b0 5c3e d66d 5fbe
000000f0: df44 363f cb22 17bf 1afe f2be 7d32 013f

conv2.weight f4 [32, 64, 2]
0.0657798 0.08397489 0.08446721 -0.0099652335 -0.03002239 -0.04998944 -0.058855943 -0.057700016
0.0021329224 -0.065082036 0.058833502 0.015591271 0.021637633 0.012926407 -0.010755219 0.06899958
-0.0009951591 0.0621335 0.054422192 -0.06073463 -0.009938315 -0.044612903 0.059759088 0.042255588
0.07748469 0.0060223415 -0.021201633 0.03764791 0.04466053 -0.023486868 -0.075589746 0.048610725
-0.07600731 0.002379097 -0.046180796 -0.08295632 0.07297621 0.048575662 -0.017512374 0.082269914
-0.04373867 -0.0145980865 -0.024892047 -0.009413391 -0.062717564 -0.0021506995 0.083283745 -0.078868195
0.018783934 0.06566984 -0.021377556 0.031696305 -0.063514605 -0.026790224 -0.005105965 -0.06316232
0.0067824274 0.060300194 -0.051110364 -0.08739583 0.0027896613 -0.057014506 0.006925486 0.06977082
0.06111761 0.022282436 0.0115361065 -0.08779373 0.040795155 -0.083356984 -0.0032259822 -0.08040808
-0.0869579 0.051597916 -0.018023983 0.021268107 0.033261657 -0.069512695 0.021896519 0.047757752
-0.010083392 0.057273425 0.02366326 0.017315567 0.0263635 0.04938411 0.084501244 -0.06757922
0.0367753 -0.017968446 0.006625049 -0.017792061 -0.031267375 -0.061455615 -0.017749831 -0.005508192
0.028246678 0.04003427 0.015918761 0.05231438 -0.05232465 -0.024580419 -0.025339276 0.079007275
-0.06692501 -0.0019567087 -0.05047281 0.026542105 -0.07194307 -0.008964606 -0.00069529563 0.052955158
-0.07760684 -0.03867433 0.013164729 0.0036952347 0.06853748 0.02246067 -0.0855971 -0.00050171465
0.069642924 -0.03996719 0.056846805 -0.06349415 -0.076012 -0.009307444 -0.051367905 -0.05699652
0.061384823 -0.0751923 0.007361697 0.01236937 0.04872258 0.06574605 -0.08800414 -0.06692622
-0.09435927 -0.09047204 0.03084609 -0.016471049 0.07922401 -0.030907378 -0.086610585 0.010299641
0.022908723 0.052619185 -0.045349035 0.06695364 -0.07401137 0.06899794 -0.063404314 -0.0450966
-0.08074021 -0.015925132 -0.0017309781 0.05853267 0.031740025 -0.01041788 -0.0632763 0.0577907
0.07318253 0.06282011 -0.011408765 -0.04370963 -0.06306769 0.060092956 -0.013753183 -0.06567598
-0.04432534 0.049315408 -0.090752624 -0.021380363 -0.004146094 -0.033954527 0.009574364 0.026521249
0.083129615 -0.09483952 -0.015898116 -0.031638317 -0.062403735 0.011867516 0.06266674 0.07738878
-0.010422016 -0.008168373 0.033807907 0.06965923 -0.08114346 0.046353333 0.016204767 -0.08670595
-0.033307973 -0.02535269 0.02121269 -0.06954699 0.02434655 -0.014456686 0.04970761 -0.0043436354
-0.057313737 0.016316982 0.019978153 -0.04956804 -0.038050734 0.045546483 -0.022891128 0.07630689
0.065543346 0.07901468 0.0032682156 0.033386383 -0.073893435 0.07729338 0.0106148375 -0.041167606
0.06617761 -0.09158507 -0.006368307 0.0071429615 0.050891053 -0.07012887 0.020669546 -0.045748685
0.056530874 -0.039575763 -0.03689223 0.07118324 -0.078716785 -0.07479443 -0.08297443 0.010458449
-0.039950226 0.029918585 0.029217292 0.01966341 -0.052395653 -0.054279637 -0.04734475 0.0067026876
-0.00811346 -0.04796542 0.032940943 -0.08196753 -0.05428975 -0.047092997 0.009050873 0.062502824
-0.013163798 -0.010766813 -0.0055362 0.048918366 0.009308656 0.034084797 -0.016582418 0.05275449
00000000: 8fb7 863d 07fb ab3d 25fd ac3d 3845 23bc
00000010: 84f1 f5bc bac1 4cbd ee12 71bd da56 6cbd
00000020: 80c8 0b3b bb49 85bd 66fb 703d 8872 7f3c
00000030: 6841 b13c 48c9 533c a836 30bc a74f 8d3d
00000040: 0070 82ba b27f 7e3d cee9 5e3d e0c4 78bd
00000050: 50d4 22bc 05bc 36bd f2c5 743d 3214 2d3d
00000060: 4bb0 9e3d 1057 c53b 0caf adbc b234 1a3d
00000070: f6ed 363d 8867 c0bc ccce 9abd 0a1c 473d
00000080: b8a9 9bbd a0ea 1b3b 1328 3dbd 01e5 a9bd
00000090: 8d74 953d 46f7 463d 1c76 8fbc 217d a83d
000000a0: 5227 33bd d02c 6fbc 68ea cbbc a03a 1abc
000000b0: 1172 80bd c0f2 0cbb ab90 aa3d a685 a1bd
000000c0: c4e0 993c e97d 863d fc1f afbc fcd3 013d
000000d0: f213 82bd 2c77 dbbc f04f a7bb 3f5b 81bd
000000e0: 203f de3b 56fd 763d 1a59 51bd 96fc b2bd
000000f0: c0d2 363b 0b88 69bd 30ef e23b 01e4 8e3d
00000100: 7656 7a3d a889 b63c f001 3d3c 33cd b3bd
00000110: d218 273d 11b7 aabd 006b 53bb feac a4bd
00000120: fc16 b2bd 5658 533d 08a7 93bc 743a ae3c
00000130: 603d 083d ac5c 8ebd 5460 b33c a29d 433d
00000140: d034 25bc 8a97 6a3d 74d9 c13c 60d9 8d3c
00000150: 44f8 d73c fe46 4a3d fd0e ad3d f966 8abd
00000160: b2a1 163d 9032 93bc f016 d93b a8c0 91bc
00000170: 3812 00bd e2b8 7bbd 1868 91bc 107e b4bb
00000180: 9465 e73c fafa 233d 1068 823c 9a47 563d
00000190: 5f52 56bd e05c c9bc 5094 cfbc 91ce a13d
000001a0: fb0f 89bd 203c 00bb 94bc 4ebd d46e d93c
000001b0: e356 93bd 48e0 12bc 8044 36ba 82e7 583d
000001c0: 56f0 9ebd f968 1ebd e0b0 573c c02b 723b
000001d0: 615d 8c3d 70ff b73c 884d afbd 8085 03ba
000001e0: f3a0 8e3d a3b4 23bd 32d8 683d 3909 82bd
000001f0: 2eac 9bbd 407e 18bc 2767 52bd 2f75 69bd
00000200: a76e 7b3d 6cfe 99bd 643a f13b e6a8 4a3c
00000210: 5491 473d dda5 863d 843b b4bd 9d10 89bd
00000220: 6f3f c1bd 6849 b9bd f0b0 fc3c 4bee 86bc
00000230: 3340 a23d 7831 fdbc e460 b1bd d3bf 283c
00000240: 13ab bb3c 3787 573d e9bf 39bd fd1e 893d
00000250: 4693 97bd cb4e 8d3d 1fda 81bd 36b7 38bd
00000260: 205b a5bd 6c75 82bc fde1 e2ba f4bf 6f3d
00000270: d401 023d c1af 2abc 0197 81bd f1b5 6c3d
00000280: b9e0 953d d4a7 803d d4eb 3abc de08 33bd
00000290: a229 81bd 0824 763d 0855 61bc 2181 86bd
000002a0: 7d8e 35bd f4fe 493d 83dc b9bd df25 afbc
000002b0: f5db 87bb e713 0bbd cbdd 1c3c 1743 d93c
000002c0: dc3f aa3d 393b c2bd c43c 82bc 2e97 01bd
000002d0: 0f9b 7fbd f86f 423c 6b57 803d 027e 9e3d
000002e0: 1ac1 2abc a4d4 05bc 297a 0a3d 80a9 8e3d
000002f0: 8b2e a6bd fedc 3d3d dcbf 843c e492 b1bd
00000300: f16d 08bd 72b0 cfbc 3cc6 ad3c a76e 8ebd
00000310: 6b72 c73c bcdb 6cbc 359a 4b3d 0e55 8ebb
00000320: cfc1 6abd 31ab 853c 39a9 a33c db07 4bbd
00000330: 16db 1bbd f38e 3a3d 2d86 bbbc c946 9c3d
00000340: 973b 863d 73d2 a13d 8f2f 563b 29c0 083d
00000350: 7155 97bd fe4b 9e3d dbe9 2d3c 5d9f 28bd
00000360: 2088 873d f490 bbbd 3bad d0bb 810f ea3b
00000370: 2373 503d ba9f 8fbd 2e53 a93c f962 3bbd
00000380: eb8c 673d 321a 22bd 4f1c 17bd 85c8 913d
00000390: 4436 a1bd d22d 99bd 7fee a9bd ea59 2b3c
000003a0: d9a2 23bd d217 f53c 1a59 ef3c 2915 a13c
000003b0: d39c 56bd 5354 5ebd 92ec 41bd 38a2 db3b
000003c0: 51ee 04bc 6377 44bd 15ed 063d 98de a7bd
000003d0: ee5e 5ebd 96e4 40bd 1d4a 143c 7b01 803d
000003e0: f8ac 57bc 4967 30bc 0369 b5bb a05e 483d
000003f0: 5583 183c 809c 0b3d dad7 87bc 1815 583d

conv2.bias f4 [32]
0.0015280768 -0.09700139 0.022757566 0.08022938 0.05829314 0.037642196 0.0703162 0.045394357
-0.04117935 -0.084349684 0.06312921 0.06776045 0.04295156 -0.021415701 -0.055904754 -0.04951233
-0.04405353 0.0032092866 -0.044999443 0.09284912 -0.04596959 -0.0925854 0.030029528 0.06492329
-0.0710275 -0.049748622 0.09036005 0.065309584 -0.030722097 0.017554577 -0.058981225 -0.0014239665
00000000: c049 c83a aaa8 c6bd 136e ba3c 4d4f a43d
00000010: cac4 6e3d b42e 1a3d f101 903d 6fef 393d
00000020: aeab 28bd 87bf acbd e349 813d fec5 8a3d
00000030: faed 2f3d fb6f afbc 62fc 64bd 71cd 4abd
00000040: 7971 34bd e552 523b 5651 38bd ae27 be3d
00000050: 9c4a 3cbd 6a9d bdbd 7c00 f63c 80f6 843d
00000060: de76 91bd 36c5 4bbd b10e b93d 08c1 853d
00000070: e8ac fbbc 9ece 8f3c 4c96 71bd 63a4 baba

fc1.weight f4 [2, 32]
-0.06669174 -0.12987387 0.07437047 0.06333278 -0.15519297 0.13358136 0.0315693 0.030183522
-0.0708141 -0.11276467 -0.11224816 0.09712753 0.15023535 0.027724847 -0.14615491 0.074479304
0.07145189 -0.11379702 0.0044166297 0.052639104 0.149333 -0.12349684 0.15956968 -0.14440958
0.086484775 0.06285647 0.014176218 0.04210095 0.07595269 -0.03322119 0.09300656 0.099130236
-0.16661534 0.06326454 -0.06553017 -0.11871496 0.002791077 0.13456397 -0.12398533 0.1598855
-0.16291805 -0.06967129 0.021473592 -0.064065576 0.009883387 0.090409294 -0.16127305 -0.13803118
-0.15127751 -0.12430895 -0.13770747 0.07792006 -0.07534528 -0.14325012 0.097650535 0.011353203
0.044556886 0.17374225 0.011277828 0.0031482084 0.12084335 -0.07905278 0.11817851 0.12592633
00000000: ae95 88bd a8fd 04be 8c4f 983d 9eb4 813d
00000010: e8ea 1ebe 8dc9 083e cf4e 013d 6f43 f73c
00000020: fc06 91bd 2af1 e6bd 5de2 e5bd ccea c63d
00000030: 4cd7 193e 381f e33c a2a9 15be 9b88 983d
00000040: 5e55 923d 690e e9bd 60b9 903b 1a9c 573d
00000050: c0ea 183e e9eb fcbd 3c66 233e 1be0 13be
00000060: ee1e b13d e5ba 803d 5e43 683c 0c72 2c3d
00000070: 158d 9b3d f112 08bd 397a be3d cb04 cb3d
00000080: 369d 2abe d790 813d af34 86bd d420 f3bd
00000090: 80ea 363b 23cb 093e 05ec fdbd 06b9 233e
000000a0: fdd3 26be d2af 8ebd 63e9 af3c d034 83bd
000000b0: eeed 213c 8228 b93d c324 25be 0c58 0dbe
000000c0: 7ee8 1abe b195 febd 3003 0dbe 8d94 9f3d
000000d0: a04e 9abd 29b0 12be 01fd c73d c902 3a3c
000000e0: 4881 363d 7de9 313e a4c6 383c 2c52 4e3b
000000f0: b87c f73d 6de6 a1bd 9307 f23d d5f2 003e

fc1.bias f4 [2]
-0.16077645 -0.082093455
00000000: 95a2 24be 9d20 a8bd
