modelo_gcn.pth (torch, 2289 bytes, 3 tensors)

conv1.bias f4 [16]
00000000: 0000 0000 0000 0000 0000 0000 0000 0000
00000010: 0000 0000 0000 0000 0000 0000 0000 0000
00000020: 0000 0000 0000 0000 0000 0000 0000 0000
00000030: 0000 0000 0000 0000 0000 0000 0000 0000
0.0 0.0 0.0 0.0 0.0 0.0 0.0 0.0
0.0 0.0 0.0 0.0 0.0 0.0 0.0 0.0

conv1.lin.weight f4 [16, 6]
00000000: bc2f 3dbe 8e9f 87be b879 233e e6a1 a3be
00000010: 4afe 23be 0f89 01bf 1249 3cbe 2aa3 0abe
00000020: 738e e9be e20c d23e 3008 a93e da13 f53e
00000030: 804d 1dbc a980 02bf 446b 9cbe bd68 033f
00000040: 209e 00bd d884 8c3e 4cee 943e c66c 92be
00000050: c4be 84be c8a2 f23d 6259 adbe c00b ac3c
00000060: cc79 013e 603d 043e dc52 e9be 0863 b33e
00000070: d8a6 8ebd a085 d73e 9844 b2be 822b 88be
00000080: 5a4c f5be 3c4a 833e a064 c53c a0ef 2a3e
00000090: 5284 71be f476 eb3e d965 c5be f456 933e
000000a0: 14f3 9ebe 2b68 87be e693 803e c011 5dbc
000000b0: 2456 753e bc5e c23e 3ac7 c53e 0876 d63d
000000c0: 6878 b63d 74c7 90be 7b66 00bf b3c1 f7be
000000d0: 9212 90be 304c d33e 15ba c6be 0447 4d3e
000000e0: dbd2 cebe c444 01bf 1432 093e 1037 99be
000000f0: 6d73 e7be 7015 e13e d86d ab3e 30ca 7f3d
00000100: 5674 55be 2c00 b8be 15e8 8dbe cba2 01bf
00000110: b6ca a63e a23b c3be 8e2a ddbe c69c f23e
00000120: 9b2a e8be a989 04bf 0c39 7a3e 2bcb a2be
00000130: 6c9c e73e 60ab d8bc 28b2 b8bd 4e22 9d3e
00000140: 6049 d1bd 844a ffbe a87d bf3d 7ec6 54be
00000150: da97 63be 7044 723d 8a1f 67be 98f9 f03d
00000160: 00ef be3d ce93 f1be 68f0 4abe e047 023e
00000170: 509a 533e 5009 3f3d 100e 55bd 78ae e63d
-0.1847524 -0.26488918 0.15964401 -0.31959456 -0.16014972 -0.5059976 -0.18387249 -0.13538805
-0.45616493 0.41025454 0.3301406 0.47866708 -0.009600997 -0.5097757 -0.30550587 0.5133169
-0.0314008 0.27445102 0.29088056 -0.28598613 -0.25926793 0.11847454 -0.33857256 0.021001697
0.12644118 0.12914038 -0.4557103 0.35036492 -0.06965417 0.42094135 -0.34817958 -0.26595694
-0.47909814 0.25642574 0.024095833 0.16692972 -0.23585632 0.45989192 -0.38554266 0.28777277
-0.3104483 -0.2644666 0.25112838 -0.013493001 0.23958641 0.37962902 0.3862856 0.104717314
0.089096844 -0.2827717 -0.5015637 -0.48389968 -0.28139168 0.41269064 -0.38813844 0.20046622
-0.40395245 -0.50495553 0.1339801 -0.29924822 -0.4520525 0.43961668 0.33482242 0.06244868
-0.2084516 -0.3593763 -0.27716127 -0.5063903 0.3257653 -0.38131434 -0.4319653 0.47385234
-0.45345005 -0.5177255 0.24435824 -0.3179563 0.45236528 -0.026448905 -0.090183556 0.30690235
-0.10219073 -0.49861538 0.09350139 -0.20778844 -0.22225896 0.0591473 -0.22570625 0.11766356
0.093229294 -0.4718308 -0.1981827 0.1272273 0.20664334 0.04663974 -0.052015364 0.11263746

conv2.lin.weight f4 [1, 16]
00000000: f6db bdbe 009a 3fbb 0016 143d 35cc e8be
00000010: 9003 163f 6ec6 9c3e 40ea 473c 80c5 84bb
00000020: f176 88be 571a 11bf b239 9b3e d637 bb3e
00000030: 7e57 bdbe 6a30 b63e 0441 cdbe 2cd7 fc3e
-0.3708188 -0.0029236078 0.036153793 -0.45468298 0.58599186 0.3062014 0.012201846 -0.004051864
-0.26653245 -0.56680816 0.30317456 0.36566037 -0.36980814 0.35583812 -0.40088665 0.49382913
