modelo_grafo_falso_1.onnx (onnx, 8029 bytes, 3 tensors)

conv1.weight f4 [16, 6, 4, 4]
00000000: bc88 5a3d b8f8 fe3c 2e2b 97bd 98c5 4cbc
00000010: 486f d83c 2cb9 4e3d e68e 983d c04d 2a3d
00000020: 747c c33d 66a0 a53d b0d6 febc 8050 c33b
00000030: c209 853d 4497 433d 0003 2ebb a093 fe3c
00000040: eca0 b93d 90c2 e23c 08dd 583d f83d 293c
00000050: 4078 253b f831 dc3c 80fd d8ba cb54 3ebd
00000060: 40f4 f43b 6061 b2bd e64a 72bd 5d82 39bd
00000070: 80b3 41ba 2f65 cabd 008a 513a 4884 00bc
00000080: 90eb 9a3c 98a9 983d 24ac b13d f0da d73c
00000090: d8c3 ff3c a037 563d 0828 aabd 5c71 583d
000000a0: 6b99 54bd b671 bf3d 00e4 53bb 90ba 8d3d
000000b0: 883e eb3c e0d5 5c3b 44cf 863c c896 ea3c
000000c0: e092 503d 3426 2f3d a2c0 863d 4405 ca3d
000000d0: 1511 b0bd 228f 3fbd b4f1 8d3c dca7 1d3d
000000e0: 787b cc3c b638 2cbd 80ad 943b 403f eebc
000000f0: 688d 063d f0c2 5c3d 4a68 a53d 381b 473d
00000100: 1cde 603d 887c fd3c 5056 2ebc 3a53 bbbd
00000110: 4c2d 913d b878 8a3d 40e3 a5ba c8a1 e33c
00000120: 8ac5 05bd 3056 cbbb 2034 68bc 5ba6 abbd
00000130: 86cf 6fbd 5a75 8f3d c43a 87bc 9a1f 4dbd
00000140: a446 843d c00d 9abc f267 2abd 6116 9fbd
00000150: 0136 a2bd 306c ae3b cc4b a63c 17ee 74bd
00000160: a06a a5bc ce38 a9bd d61f cb3d d0f0 403d
00000170: ce1b 0cbd 44ac bebc fa14 8d3d 5852 18bc
00000180: 900e fdbb 6834 283d 220d a5bd 0001 d0ba
00000190: 38b4 7d3d 2cc6 a5bc 0096 c13d 1050 7b3c
000001a0: ccb1 603d a64f 3bbd 292e 7ebd eeb1 a0bd
000001b0: 82bc b73d 1c55 903d f12f b9bd 0029 8cba
000001c0: 3434 1c3d a33b 58bd 696e c7bd 1076 abbd
000001d0: b75f 34bd d008 3b3d dcd5 033d 6028 15bc
000001e0: 0888 513d 18b3 1d3d 58a6 77bc fe8c b03d
000001f0: 7240 b9bd ae69 0fbd 6c95 533d 87f3 38bd
00000200: 196a 5abd 0ca5 f9bc 7896 35bc 1a94 c73d
00000210: 2020 15bc 6c42 643d a866 1c3c 4ce9 593d
00000220: bae8 a53d 4091 96bc f6fc 17bd 943b 503d
00000230: 3010 ac3d 807a 343d 115d bcbd 0cac 893d
00000240: db7f 3cbd 2856 233c 8042 91bb 1852 c03c
00000250: ece6 6d3d e835 b8bc 0099 f83c 06b3 a93d
00000260: 2893 c13d c47e 2d3d 6ebd bdbd 4004 483d
00000270: c4fe a7bc c4c6 073d f631 983d 18a3 7cbc
00000280: a078 afbd a0b8 ebbb f484 93bc 2249 c93d
00000290: 70a3 ee3c a896 8a3d 68bc 5ebc 98f7 a9bc
000002a0: 606d cf3d 08e8 36bc 1045 283d a019 2fbd
000002b0: cb4a 58bd 182a 85bd 6c0f 13bd 985a 783c
000002c0: aa53 cd3d 38fd 2f3c 4c53 8e3d 980b b4bc
000002d0: 9877 393c 805f f53a c288 62bd e638 11bd
000002e0: bfa0 bebd 76c4 cc3d 18ae eebc 80fb d4bc
000002f0: 2091 3b3d b043 29bc 7c8c 96bd 202b 06bb
00000300: d0f3 273d e0d7 7bbd b482 093d dcfc c0bc
00000310: 08d4 ab3d 78c3 b2bc b8dd c5bc a816 bf3d
00000320: 38c2 123d 9738 98bd 2e0d 9a3d 0040 dbbb
00000330: 759b bebd 9e47 26bd ac8b 6f3d 6c82 12bd
00000340: 72c7 89bd bdd2 b4bd 8a9e 0dbd 3266 9f3d
00000350: 4914 bbbd 98fc 08bd 6092 67bd 6c90 c1bd
00000360: 0036 253c 609a 983b 0c52 773d 1002 2d3d
00000370: e485 b33d 0cd9 89bd b0fb f53c 204b 00bb
00000380: 001e d6bb 85b4 4abd 58b5 593c bed8 883d
00000390: e6a7 b73d b640 cf3d 1e3a 8d3d 2614 3abd
000003a0: 40d2 343b 92fa 8bbd 6873 6e3d 292b a9bd
000003b0: 70f4 cabc 12ff c9bd 2cae c8bc 78f9 eb3c
000003c0: 0468 5d3d 40db a53b a0cc ac3d 1065 c03d
000003d0: b4ad b9bc e078 5ebc 13ae b1bd 7c7e 8e3d
000003e0: 6212 d03d 482a edbc 409e 07bb 6723 77bd
000003f0: 2815 bebd 3c92 b73c a879 3cbd 7681 20bd
0.053353056 0.031124458 -0.07381283 -0.012498282 0.02642025 0.050469562 0.07449131 0.041578054
0.09545222 0.08087234 -0.03110823 0.005960524 0.06496002 0.04775168 -0.002655208 0.031076252
0.090638965 0.027680665 0.052945167 0.010329716 0.0025248677 0.026879296 -0.0016555041 -0.046467584
0.007475406 -0.08709979 -0.05915346 -0.04529034 -0.00073891133 -0.098825805 0.0007993281 -0.007844038
0.018911153 0.074542224 0.08675411 0.026349515 0.031221315 0.052299142 -0.083084166 0.052842483
-0.051904123 0.093478605 -0.0032331944 0.069203496 0.02871634 0.0033696815 0.016456254 0.028636351
0.05092132 0.042761043 0.065797105 0.098642856 -0.08597008 -0.04676736 0.017327167 0.03849016
0.024961218 -0.04204627 0.0045372844 -0.029082894 0.0328497 0.053896844 0.08076532 0.048609942
0.05489932 0.03094317 -0.010640696 -0.091467336 0.07088718 0.067613065 -0.0012656227 0.027787104
-0.03265909 -0.0062053427 -0.014172584 -0.08381339 -0.05854752 0.07004805 -0.016507514 -0.050078966
0.06458786 -0.018805385 -0.041603036 -0.0776794 -0.07920457 0.0053229555 0.020299815 -0.059797373
-0.020192444 -0.08262788 0.099181816 0.047104657 -0.034206204 -0.023275502 0.068887666 -0.009296976
-0.0077226833 0.041065603 -0.080591455 -0.0015869439 0.061939448 -0.020236097 0.09452438 0.015338913
0.05485706 -0.045730256 -0.06205574 -0.078464374 0.08971502 0.07047483 -0.09042347 -0.0010693371
0.038135722 -0.05279125 -0.09737856 -0.08372128 -0.044036593 0.0456627 0.032186374 -0.009103864
0.05115512 0.038500875 -0.015115343 0.08620642 -0.09045495 -0.035012893 0.05165617 -0.04515412
-0.05332384 -0.030474208 -0.011083238 0.09745045 -0.0091018975 0.055727407 0.0095459595 0.053201005
0.0810103 -0.018379807 -0.037106477 0.050838068 0.08401525 0.044062138 -0.091974385 0.067222685
-0.04602037 0.009969272 -0.0044329762 0.023476645 0.058081552 -0.022486642 0.030346394 0.08286099
0.09451896 0.04235722 -0.092646465 0.048832178 -0.020507224 0.033148542 0.07431404 -0.015419744
-0.08567929 -0.00719364 -0.018007733 0.09828402 0.029130667 0.06767017 -0.013594724 -0.020747945
0.101282835 -0.011163719 0.041081488 -0.042749047 -0.052805703 -0.06502169 -0.03590338 0.015158318
0.10025723 0.010741524 0.06949481 -0.021978185 0.011320017 0.0018720478 -0.055306204 -0.035454653
-0.09308004 0.099984095 -0.029135749 -0.02599883 0.0457927 -0.010331079 -0.07351014 -0.0020472482
0.041004002 -0.06148517 0.033571914 -0.023558073 0.08390051 -0.021821722 -0.024153575 0.09330493
0.035829753 -0.07432669 0.07522045 -0.006690979 -0.09306995 -0.040595643 0.05848281 -0.03576891
-0.06727494 -0.08829258 -0.034575023 0.07783164 -0.091347285 -0.033444017 -0.05653608 -0.094513744
0.010083675 0.004657075 0.06038098 0.042238295 0.08765772 -0.067308515 0.03002724 -0.0019576028
-0.006534338 -0.049488563 0.013287865 0.06681965 0.08967571 0.101197645 0.068958506 -0.04542937
0.002759114 -0.06834902 0.05821553 -0.08260185 -0.02477476 -0.09863104 -0.024497114 0.02880548
0.054054275 0.005061537 0.084374666 0.09394276 -0.022665836 -0.0135786235 -0.0867578 0.06957719
0.10159756 -0.028950825 -0.002069369 -0.060336497 -0.09281379 0.022408597 -0.046014458 -0.039185964

conv1.bias f4 [16]
00000000: 04cd 173d b6ca a73d 56c6 04bd 5e6b 8bbd
00000010: e987 28bd 5088 83bd 0007 86bc 028d c23d
00000020: a26a c23d 42da 6abd 60b3 a53c 787a 14bc
00000030: b49d 183d a631 4bbd 149a 583d 5cd8 0cbd
0.037060753 0.08192961 -0.03241571 -0.06807588 -0.04114524 -0.06422484 -0.01636076 0.09499551
0.09492995 -0.057337053 0.020227134 -0.009062402 0.037259772 -0.049607895 0.052881315 -0.034386024

conv2.weight f4 [1, 16, 4, 4]
00000000: 844d bc3c 28c1 633d 7eec 5abd 386b 31bd
00000010: 103f 1bbc bce0 48bd 7a6b 18bd d83f f13c
00000020: f857 bf3c 0072 b8bb 806b b33c 44c6 c0bc
00000030: 88f6 1c3c ead5 4c3d e07f 6fbc a0bd 893b
00000040: c6f2 2fbd 007b 183a 8a60 7c3d f849 6bbd
00000050: c0e1 3cbd 0805 943c 2ef7 40bd 20e6 08bb
00000060: 9084 9d3b e85f 103d f0b3 463d 3a3c 463d
00000070: 0023 79ba 5c9b 383d b8cb ec3c 0043 063b
00000080: f601 743d 88ba a6bc fccb 6c3d 583d 04bc
00000090: be37 753d b060 26bd f497 763d 00e0 7dba
000000a0: fcba 4dbd 86c5 123d 7a7b 25bd 50e6 d5bc
000000b0: 04ac b8bc f0df 60bd 585c 11bc beee 1e3d
000000c0: 32e7 4ebd d0b7 d03c 562a 02bd 4887 ecbc
000000d0: d083 3f3d 3407 1cbd 50b3 603c ba5f 043d
000000e0: 981d 0bbc 7cd3 503d 5084 ecbc a83a b93c
000000f0: 1a54 013d 56bc 493d 4cdb 733d f0db 86bb
00000100: b076 cabc 1c49 5a3d a0c1 bbbc 34e2 bdbc
00000110: a240 7a3d 40fd bebc b85d eebc fcec 223d
00000120: 9010 acbb aa3a 4fbd 2e85 7e3d 7880 3d3d
00000130: e0db 72bd 32a7 21bd c0c0 a43c c09e 8c3c
00000140: 32a7 79bd 72d3 6f3d 7c5e 8fbc c49c 0d3d
00000150: 0a52 653d 90b8 c53b 7011 be3c d2da 69bd
00000160: d83f 423c 30f0 2c3d a8bb ec3c e693 643d
00000170: 045b b7bc fe2c 14bd dc68 6fbd 8019 cebb
00000180: 8061 dfbc 3628 53bd 3039 493c 0050 6c3c
00000190: 42e4 0c3d 40e9 423c caa1 44bd dc87 7ebd
000001a0: 4cd9 473d 1e5e 05bd 0039 7cbc 9a36 3cbd
000001b0: 88ec 3bbc ccaf f43c 46d4 293d d609 073d
000001c0: bce3 da3c 00fa 623c 68cb 3b3c 605c 353b
000001d0: e8ed 37bd d839 7f3c 70fb 6b3c acd7 5d3d
000001e0: e246 69bd 10b5 86bb ca19 69bd 5844 25bd
000001f0: 08a1 403c f033 27bd fc8c e7bc 8c1c b5bc
00000200: 2094 8e3c 58bb 34bc 02fc 2b3d d40d 3b3d
00000210: 6060 153b d49f 71bd d053 0e3c e60f 083d
00000220: 2294 4d3d a653 0bbd f0ab a93b 58c9 ccbc
00000230: d446 b8bc 007f 20bb a898 a9bc 6cdb ab3c
00000240: b242 7e3d c032 24bb 183e 36bc fa20 7e3d
00000250: 18f5 56bd 8eef 783d 5843 713c 64a2 34bd
00000260: bc79 883c 88b7 aa3c a882 ba3c 0091 eabb
00000270: 30eb 94bb b0b7 0abd 4c97 c93c ba73 753d
00000280: 7a84 683d b4ea 7bbd 20b2 d03b 4053 6b3b
00000290: c02e d3bc 50e2 e73c 2c85 22bd 060c 413d
000002a0: 120e 29bd 4cde a5bc 3834 4dbd 0021 3abd
000002b0: 3072 c23b 5489 023d 08f0 183c b04b 2d3d
000002c0: 2098 673d fad7 1a3d 46ed 453d a08a b43c
000002d0: baf8 06bd 2a20 4fbd b40a 91bc 108d 37bc
000002e0: ec28 9ebc 7ec0 1c3d b2da 77bd dc57 5abd
000002f0: b48a 3e3d 442d 81bc 5e36 563d a087 c4bb
00000300: 4016 c53a 2c94 a33c 4061 3f3b 703f 57bc
00000310: 84f4 45bd 2810 e5bc e039 d0bc a083 36bc
00000320: f08b e83b c022 e33b fc8f f73c 9c2a 3fbd
00000330: 82c9 2bbd 0ca4 2bbd 0423 7b3d dc7f 30bd
00000340: ac78 223d b65e 483d e0b0 5bbb 8097 75bd
00000350: fa1d 0bbd 4e3b 7b3d 2a4e 043d 7246 17bd
00000360: a862 63bd f639 173d 30aa 363d f056 753c
00000370: 9c18 ebbc 5cba 2abd 7a9d 6ebd 1007 eabb
00000380: c0eb aa3b 30db febc 6c5a 47bd 600f 60bc
00000390: f40e 46bd e0f8 0bbc 0427 f83c 54c6 193d
000003a0: bab6 3fbd 40bf b3bc c87d 44bd b0fb 2abd
000003b0: 3adc 2e3d c04c 863c cc4e ebbc d66c 1bbd
000003c0: ec4c 713d 0806 eabc c83a 9a3c 8015 293c
000003d0: 9032 873c 2059 c03b 34f5 153d 20a9 0a3b
000003e0: a475 14bd 229b 513d a445 49bd 2200 2e3d
000003f0: f4fd 103d 3494 01bd f053 ca3b aa19 003d
0.022986181 0.05560413 -0.053448193 -0.043315142 -0.0094754845 -0.04904245 -0.037211873 0.029449388
0.023357376 -0.0056288242 0.021901846 -0.02353204 0.009580262 0.05000869 -0.01461789 0.0042035133
-0.042956136 0.0005816668 0.061615504 -0.05744359 -0.04611373 0.018068805 -0.04711073 -0.0020889118
0.0048070624 0.035247713 0.048511446 0.04839728 -0.00095038116 0.045070037 0.028905734 0.0020486712
0.059572183 -0.020352617 0.057811722 -0.008071266 0.059867613 -0.040619552 0.060203508 -0.00096845627
-0.05022715 0.035832904 -0.04040096 -0.026110798 -0.022542961 -0.054901063 -0.008872114 0.0388019
-0.050513454 0.025478274 -0.031778656 -0.0288731 0.046756566 -0.038092807 0.013714626 0.032317854
-0.008490942 0.050982937 -0.028871685 0.022610977 0.031574346 0.049251877 0.05953531 -0.004115574
-0.024714798 0.05329238 -0.022919476 -0.023179151 0.061096795 -0.023314118 -0.029097423 0.039776787
-0.005250998 -0.050593056 0.06213873 0.046265095 -0.05929172 -0.03946609 0.020111442 0.017165542
-0.060950466 0.05855126 -0.017501108 0.03457333 0.05598644 0.0060339645 0.023201674 -0.05709345
0.011856042 0.04222125 0.028898075 0.05580511 -0.022382267 -0.03617572 -0.05844961 -0.006289661
-0.027268171 -0.05155202 0.012281701 0.01442337 0.03439737 0.011896431 -0.048005857 -0.062141284
0.048791215 -0.03256046 -0.015394449 -0.04595051 -0.011469968 0.029868983 0.041462205 0.032968365
0.02671992 0.01385355 0.01146207 0.0027673468 -0.04490462 0.015577756 0.014403209 0.05416076
-0.056952365 -0.00411094 -0.05690936 -0.04034838 0.011757143 -0.040821016 -0.028265469 -0.022108339
0.017404616 -0.011030994 0.04198838 0.045667484 0.002279304 -0.058990315 0.008686975 0.033218287
0.0501901 -0.03401532 0.0051779673 -0.024998352 -0.022494711 -0.002448976 -0.020702675 0.020978652
0.062075324 -0.0025054663 -0.011123203 0.062043168 -0.052479833 0.060775332 0.014725529 -0.04410018
0.01665961 0.020839468 0.02276738 -0.0071583986 -0.004544638 -0.033866584 0.024608277 0.05992482
0.056766964 -0.061503127 0.0063688904 0.0035907775 -0.025779128 0.028306156 -0.039677784 0.047130607
-0.041273184 -0.020247601 -0.050098628 -0.045441628 0.0059340224 0.031869248 0.009334572 0.04230851
0.056541562 0.037803628 0.048321985 0.022038758 -0.032952048 -0.050567783 -0.017705299 -0.0112030655
-0.019306622 0.038269512 -0.0605113 -0.053306445 0.046518996 -0.015768655 0.052297942 -0.005997613
0.0015036538 0.019968115 0.0029202253 -0.013137683 -0.04832889 -0.027961805 -0.025418222 -0.01113978
0.00709676 0.0069316328 0.030220024 -0.046671495 -0.04194022 -0.041904494 0.06131269 -0.043090686
0.039665863 0.04891845 -0.0033522174 -0.059958935 -0.033964135 0.061335854 0.032301106 -0.036932416
-0.055514008 0.03692051 0.044595897 0.014974341 -0.028698258 -0.041681632 -0.05825565 -0.007141955
0.005216092 -0.031110376 -0.048670217 -0.013675541 -0.048354104 -0.008543223 0.030292042 0.037542656
-0.04680512 -0.021941781 -0.047971517 -0.041743934 0.042690493 0.01639402 -0.028724097 -0.03794559
0.05891125 -0.028567329 0.018826857 0.010320067 0.016503602 0.0058699995 0.036610797 0.0021157935
-0.036245003 0.051173337 -0.04913868 0.042480595 0.03539844 -0.03163548 0.006174557 0.031274475
