model_MLP_1.onnx (onnx, 16980 bytes, 17 tensors)

network.input_layer.weight f4 [20, 16]
00000000: dabd a1bc 4a42 cabd 546a 46be 6064 2c3d
00000010: 3a4e 253e 2699 2d3e d936 203e 8d71 163e
00000020: 68b1 ba3d 7c7e e6bd e43a bd3d 0975 b9ba
00000030: 86d5 a13a b391 713e 1430 803d 82c4 633e
00000040: c717 043e 3a10 17be d4f5 a83d fec2 2cbe
00000050: b2c7 3e3e 5cc5 ec3d 5250 633e 7bb3 e43d
00000060: afaa d23d 34d7 febc 948d 4bbe aa28 a83d
00000070: 78a7 e23c f47d 7c3e c8cd 43be 4025 37bc
00000080: 4a9b 40bb 026d 22bd aedb 4abc e861 293e
00000090: d877 7c3e 12e1 0e3e 6962 3ebd 241e 733d
000000a0: 8334 1c3e 952a 783e 127f 49bc 3d9f 523d
000000b0: 3400 803d 5925 18be 0072 d1ba d442 88bd
000000c0: dc4d e43d 7b0a 48be 9378 343e 3889 213e
000000d0: 20b6 e6bd d075 4b3e 3233 353c fdc6 953d
000000e0: feba 9e3d b66c 6dbe d649 743e 575c d1bd
000000f0: 2c68 58be 7e62 7c3d c059 953c f051 c53d
00000100: 2c84 593e a131 383e c3b3 3abb 5440 babd
00000110: a07a 85bd 509a f03d 253e f03d 7821 f23d
00000120: 0e00 f9bd 4a37 eb3d a6de 97bd 58f8 d2bd
00000130: 2be2 013e ffd8 b1bc 2881 a13d c039 ab3c
00000140: 13ee 8c3d edd7 f73d e351 0dbe 7099 bc3c
00000150: bc3a cdbd 80a9 0fbb cb92 113e 1c81 36be
00000160: 56e2 f5bd 8ace 21be 1c1c 013e 7542 d2bd
00000170: 9afb 1abe 4058 6d3e e2fd 4cbe e683 7e3e
00000180: c510 81bd 3c6d 013d bd7a 44be 2435 393e
00000190: ecef 6a3e 1a5a 7bbe faba 09be 5de4 71be
000001a0: 3a63 2bbe f689 84bc 71ad bf3d 63f0 173d
000001b0: e92b 913d d45f 0a3e e20c 793e 808a c13d
000001c0: 541f 373e 99f9 a1bd e64e 2e3d e8cf 6ebe
000001d0: 3438 813d e88a debd b156 2abe e7f8 57be
000001e0: 0071 093e 2443 853d 2a06 23bd 39f7 193d
000001f0: 0314 58be ff3d bbbb 409b bcbb 8e1a 0abe
00000200: afd0 3cbe 764a 353e 7149 e4bd 6406 acbd
00000210: 7054 e43c 62f1 27be 9495 21be 9700 46bc
00000220: d231 3abe be2e 673c 4d5b 3b3e b332 a33d
00000230: 02c4 21be d8ab 683c c80b 393e 7860 143e
00000240: a9fb 8cbd 2d20 1c3e 9061 833c b863 ea3d
00000250: 2a1f 593e 58fb c1bd aae8 54be edce b63d
00000260: e438 2fbe d346 d73d 73fa 08bc a8af 1e3e
00000270: 356b 9fbd f005 31be 304c 673e 6c89 ef3d
00000280: 124c 183e 40b7 45be 13e1 363e fa23 34be
00000290: f654 0e3e 96fd 02be 6cf8 6c3e 5763 65be
000002a0: 67e0 c53d 3439 6f3e fc08 1e3e e605 023e
000002b0: 25b7 753e a421 673d 7053 cbbd e87e 13bd
000002c0: 6591 e53d 95a9 6d3d 45fc c0bc ea95 523e
000002d0: 009e 563b b0d1 193d 2561 c8bd 07c9 babd
000002e0: 6a94 ec3d db4f 1a3e 0409 eabd 15b2 a63c
000002f0: a1e1 1dbd 96b0 04be 54f4 553e 68ec c23d
00000300: 8d44 243e ad59 06be 4340 813d b412 5a3e
00000310: 8a8e 24be c6e4 1b3e a800 1d3e 4dbf eabd
00000320: 9777 c53c 7848 1ebe aa90 143d ed20 6a3e
00000330: 5234 06be ba20 7bbd 20cd 083e ca5f 72be
00000340: ee82 b4bd c21e 7b3e ffe7 03be 885b c63d
00000350: 6cfc 19be ae5b 61be aa87 05be 4387 09be
00000360: f079 3f3e e9af 1bbe 4911 9cbd deef a1bd
00000370: 8d8d efbd 89f3 353d b0dc fcbc 304f 0abe
00000380: 23e6 723e 477d bfbd f395 ae3d f065 3c3d
00000390: 84df 26be f896 f33d e5dc 40be 97cf 38be
000003a0: 5cc1 1e3e ab5f eb3d 1320 67bd 2263 aa3d
000003b0: 91c4 c53c b9d0 443d 78f3 39be 74a7 4bbe
000003c0: 97c3 bd3b 7b87 50bd d1c2 273d e6a9 593e
000003d0: 1036 d03d 007e d33c 6c16 67be 2fdf c2bb
000003e0: d7e0 d1bd bf2e 83bd 234e 9fbd a62b 5fbe
000003f0: 1198 34be d77f 6e3e c434 733e 246c 02be
-0.019743849 -0.09875925 -0.19376498 0.042087913 0.16143122 0.16952953 0.15645923 0.14691754
0.09115869 -0.11254594 0.09239748 -0.0014149259 0.001234696 0.23590736 0.0625917 0.2224293
0.12899695 -0.14752284 0.08250013 -0.16871259 0.18630865 0.11561081 0.22198609 0.11167046
0.102864616 -0.031108476 -0.19878227 0.08210881 0.027667746 0.24657422 -0.19121468 -0.011178315
-0.0029389434 -0.03965474 -0.012381477 0.16541255 0.24655092 0.13953045 -0.04648057 0.059354916
0.15254407 0.24234994 -0.012298362 0.051421393 0.06250039 -0.14857997 -0.0015979409 -0.066533715
0.11147663 -0.19535248 0.1762412 0.15775001 -0.11265206 0.1986916 0.011059569 0.07313345
0.0775051 -0.23186001 0.23856291 -0.102226906 -0.21133488 0.061617367 0.018231273 0.09634769
0.21241826 0.17987682 -0.0028488494 -0.09094301 -0.065175295 0.11748183 0.11730603 0.1182279
-0.121582136 0.11485155 -0.07415514 -0.10301274 0.12683932 -0.021709917 0.07885963 0.02090156
0.068813466 0.121017314 -0.13800769 0.023022383 -0.10020968 -0.0021921098 0.14216153 -0.17822689
-0.12006061 -0.15801445 0.12608379 -0.10266582 -0.15135041 0.23178196 -0.20018724 0.24855003
-0.06302027 0.031598315 -0.19187446 0.18086678 0.22943085 -0.2454609 -0.13450232 -0.2362227
-0.1673707 -0.016179066 0.09359253 0.037094485 0.07088453 0.13513118 0.2432132 0.09450245
0.17883044 -0.07908935 0.042555712 -0.23321497 0.06309548 -0.10866338 -0.16634633 -0.21091042
0.13422012 0.06506947 -0.0398008 0.037589286 -0.21101384 -0.0057141776 -0.005755812 -0.13486692
-0.18438981 0.17704186 -0.1114682 -0.083996564 0.027872294 -0.16400674 -0.15779716 -0.012085102
-0.18183067 0.014110265 0.18296547 0.079686545 -0.15797427 0.014201127 0.180709 0.14489925
-0.06883938 0.15246649 0.016037732 0.11444801 0.21203294 -0.09471768 -0.2079188 0.08926187
-0.17111546 0.105115555 -0.008360493 0.15496695 -0.0778412 -0.17287421 0.22587657 0.11696133
0.14872769 -0.19308186 0.17859297 -0.17591849 0.13899598 -0.12792048 0.2314164 -0.22401176
0.09661942 0.23361665 0.15433115 0.12697563 0.23995645 0.056428567 -0.09928024 -0.0360097
0.112093724 0.058023054 -0.023557791 0.20565 0.0032747984 0.03755349 -0.09784154 -0.09120374
0.11551745 0.15069525 -0.11427501 0.020348588 -0.038545255 -0.12957987 0.20893985 0.09517747
0.16041775 -0.13120146 0.06311085 0.21296197 -0.1607 0.15223989 0.15332282 -0.11462269
0.024104876 -0.15457332 0.036270775 0.22864123 -0.13105896 -0.061310507 0.13359499 -0.23669353
-0.08814035 0.24523452 -0.12881468 0.09685427 -0.15037698 -0.2200763 -0.13040033 -0.13430505
0.18698859 -0.15203823 -0.076204844 -0.07907079 -0.116969205 0.044421706 -0.03086695 -0.1350677
0.23720603 -0.09350067 0.08524694 0.045995653 -0.16296202 0.118940294 -0.18834265 -0.18047939
0.15503448 0.114928566 -0.056427073 0.08319689 0.024141582 0.048050616 -0.18159282 -0.19888097
0.0057911384 -0.050910454 0.040957276 0.21256217 0.101665616 0.025816917 -0.22567147 -0.0059470157
-0.10247963 -0.064054005 -0.07778575 -0.21793994 -0.17636134 0.23290955 0.23750597 -0.12736565

network.input_layer.bias f4 [20]
00000000: afb1 74be 8094 6f3e 291a 803d 7186 1c3d
00000010: fd74 eabd 71ba 85bd 68f1 16be a523 3ebd
00000020: abdf 16be 974a 0ebd 6f28 713d 580c db3d
00000030: 770f c33c 6f9f 5fbe bc8d 293e b0c0 e8bc
00000040: 65c4 47bc edd4 103e 6a34 ef3d 13b8 f03d
-0.23895906 0.23396492 0.0625499 0.03821415 -0.11448095 -0.065297015 -0.14740527 -0.046420712
-0.1473376 -0.034739103 0.05887645 0.10695714 0.023811085 -0.21838163 0.16557974 -0.028412193
-0.01219282 0.14143725 0.11679919 0.11753859

network.hidden_layer_1.weight f4 [20, 20]
00000000: db35 783d c22f 15be d33a 583e ce42 eb3c
00000010: 8e72 123e 38a8 5fbe 51ce 8c3d e072 98bc
00000020: e219 62be 68f1 20be 4709 193e 92a4 603c
00000030: a7f5 84bd 046e 1d3e 5135 2d3e d163 df3d
00000040: 6946 6cbc c04c ec3c e6a4 28be 5b7d 91bd
00000050: 0495 af3d 7f3c 1e3e bc9e 26bd 899a ffbd
00000060: 6993 c93c a859 223e ed70 81bd 33dc e03d
00000070: f023 3abe 4e85 2b3e 7ade d3bd 0c4a 553e
00000080: 2f37 36be 676d 53bd 881b c63d f532 d6bd
00000090: d84b 03be 399a d3bd 44c3 f0bd e4fb 373e
000000a0: 0137 e93d 2ab4 283e 1cc3 423e 0bd2 31be
000000b0: ff34 0b3d 68c0 a93a 1556 383d 49a8 57be
000000c0: 6867 36be 5aae e3bd 3d0a a8bd 2bff 43be
000000d0: 0d75 12be a3fe 19be 7136 61be b14f eabd
000000e0: a2ed d33d ff7c 3fbe df77 293e 3480 acbd
000000f0: e6dd 8cbd b9c9 283e ec29 12be c696 abbc
00000100: a344 b6bd e0f8 57be 8f22 a2bc bc46 5d3e
00000110: 7ac8 1d3e aadb c13d 2603 853d b5c6 5a3e
00000120: 73cc 58be f593 2e3d f505 413e 3cea 51be
00000130: 53c0 ea3d 4bed 413d 7224 3abd 1d69 523e
00000140: 46e6 99bc 59ae 673d a141 dbbc 2e29 eebc
00000150: 9f82 4d3e df60 1a3e e803 663e a7bc 21be
00000160: 50f3 173e ebbf 063e c9a0 56be 527f 573e
00000170: b7df 803d 644a 2c3b af49 2d3e e3d6 efbd
00000180: 91e3 503e 1b3e 203d bdfb 183e 7734 ed3d
00000190: 3b08 1fbd f376 56be b4b8 1f3d c4d6 96bd
000001a0: 7d7d 1dbd c0f7 08be abfb c7bd b369 5ebe
000001b0: eaef 56bd a976 083e a681 793d 8ffd ee3c
000001c0: 0379 20be 6598 1bbe 2e01 a5bd 6945 643e
000001d0: 0eee 3a3e 02b1 593d b643 aabd 6612 f93b
000001e0: 5842 833d 5595 283d ed68 16be 1839 ef3c
000001f0: 68b5 313d 96db 5dbd 0686 073d 114c 563e
00000200: b8dc ccbd f489 51be 0139 3d3e 7c33 21be
00000210: fc23 ba3d ecab 18be b66e 4c3e 693d 1e3e
00000220: 5b28 3abe 9efa e73c 1a66 933c 19b3 24bd
00000230: b9b2 d5bd 7947 cb3d 45d7 fd3c abf9 d9bd
00000240: 8bcd 5a3e 3de3 5ebe 1c38 a2bd 8995 95bd
00000250: dd78 3b3d da08 e0bd 1a7d 213d 85c6 42bd
00000260: eaf3 9f3c 1af4 b7bc 11f0 373e ecf5 4ebe
00000270: c776 313e 5ce6 febd 24fa b63d ee34 40be
00000280: aabf 3abe 1cb4 3bbd a260 4bbe 25ce 30be
00000290: 3c10 0b3e e993 fc3d 4c0b bebd cf76 d33d
000002a0: 820e 5bbe 7b92 ff3d 5cd7 ebbd 05c7 08be
000002b0: f8ce 0e3e 6468 06be 4a65 4fbd 472a 4cbc
000002c0: 36c7 29be 28d4 403e bd39 02be 41a1 043e
000002d0: 0d33 a63c 99f5 333d cf47 5fbe 5719 5b3e
000002e0: 4772 cc3d 442d 4a3e 2932 c93d 2a6b be3d
000002f0: 0e55 42be 6a2d 4abe 3c9c 37be 9356 603e
00000300: 2e67 c03d 152b f0bb c2b7 113e ebc1 093e
00000310: 9073 29bd e98e 093e af63 fcbd 62d3 c63d
00000320: 6afd 403e 9415 1f3d b9b7 2d3e 889c 653e
00000330: a167 553e d2c0 943d 8033 2fbe 2920 d9bd
00000340: 15a0 033e c599 333c 29d5 693b cd56 5fbe
00000350: e3f1 d1bd caaa 32be f7b4 51be 4c6c 413e
00000360: 90b7 cd3d ccca 1b3c ee86 af3d 163f 56bd
00000370: a53b 5abd 5331 00be cc7f 613e ec89 673d
00000380: 15f6 5e3e e322 fcbd 0dda 9b3d 0464 47be
00000390: 9d8a 283d 5eae 22be 2627 08be a6e3 c6bc
000003a0: 30ea 58be 3ff6 3abe 91f5 1c3c c0d9 24bd
000003b0: b118 3ebe fbb1 45be 7ec6 0cbd b2b6 113d
000003c0: 69a4 e83d 1b28 0f3d ac0c 92bd a7d5 cbbd
000003d0: 7e53 803d d159 16bc f545 2b3e 0121 61be
000003e0: acfa 043e 6738 843b 89f3 3b3e d03c 0a3e
000003f0: 2cab f0bd 760d 08be e78d ea3d 8aa3 15be
0.060598236 -0.14569 0.2111619 0.028718378 0.14301512 -0.21841514 0.06875289 -0.018609464
-0.22080186 -0.15717089 0.14944945 0.013711112 -0.06492167 0.15373999 0.1691487 0.1090771
-0.014421084 0.028845191 -0.16469154 -0.07103988 0.08573344 0.15452765 -0.040678725 -0.12480647
0.024606423 0.15854514 -0.06320367 0.109795 -0.18177772 0.1675007 -0.103451684 0.20829028
-0.17794488 -0.051618006 0.0967322 -0.10458938 -0.12821901 -0.1033215 -0.11755994 0.17967182
0.11387444 0.16474977 0.19019741 -0.17365281 0.033986088 0.0012951018 0.04500397 -0.2106029
-0.17812884 -0.11117239 -0.08205078 -0.19140308 -0.14302464 -0.15038542 -0.21993424 -0.11440981
0.10348059 -0.18700026 0.16549633 -0.0842289 -0.06878261 0.16483201 -0.14273804 -0.020945918
-0.0889981 -0.21091032 -0.01979187 0.21609014 0.15408507 0.09465726 0.06494741 0.21364863
-0.21171741 0.04262157 0.18849929 -0.2049951 0.11462464 0.04734544 -0.045444913 0.2054791
-0.01878656 0.056562755 -0.026764693 -0.02907237 0.20069359 0.15076016 0.22462428 -0.15794621
0.1483891 0.13159148 -0.20959772 0.21044663 0.0629267 0.0026289457 0.1692264 -0.11710908
0.2039931 0.03912173 0.1493978 0.115822725 -0.03882621 -0.20943813 0.038994506 -0.07365182
-0.038449753 -0.13375759 -0.09764799 -0.21720009 -0.052474894 0.13326515 0.060914658 0.02917364
-0.15671162 -0.15194853 -0.08056866 0.22292103 0.18254873 0.053147323 -0.08313696 0.00760107
0.064091384 0.04115804 -0.14688464 0.02920203 0.043385893 -0.05416449 0.0330868 0.20927455
-0.10003036 -0.20462781 0.18478777 -0.15742296 0.09088895 -0.14909333 0.19964108 0.15453114
-0.18179457 0.028317746 0.017993022 -0.040209863 -0.10434479 0.09925742 0.030986438 -0.106433235
0.21367471 -0.21766372 -0.07920858 -0.07303912 0.04576956 -0.10939188 0.039425947 -0.047552604
0.019525487 -0.022455264 0.17962672 -0.20210999 0.17330466 -0.12446281 0.08934429 -0.18770191
-0.18237177 -0.045826063 -0.19861081 -0.17266138 0.13580412 0.12332899 -0.092794985 0.10325395
-0.21392253 0.12479111 -0.11515686 -0.1335717 0.1394614 -0.1312576 -0.050633706 -0.012461252
-0.16579899 0.18830931 -0.12717338 0.12952138 0.020288015 0.043935392 -0.21804737 0.21396385
0.09982734 0.1974383 0.098240204 0.09297784 -0.18977758 -0.19743887 -0.17930692 0.21908025
0.0939468 -0.0073293545 0.14230254 0.1345288 -0.041369975 0.13433422 -0.12323701 0.09708287
0.1884667 0.038838938 0.16964616 0.22422993 0.20840313 0.0726334 -0.1710949 -0.10601837
0.12854035 0.0109619545 0.0035680032 -0.21810456 -0.10251214 -0.17447963 -0.20479189 0.18888968
0.100447774 0.0095088 0.08570658 -0.052306257 -0.053279538 -0.12518816 0.22021407 0.056528017
0.2177356 -0.123113416 0.07609949 -0.19471747 0.041147817 -0.15886828 -0.13296184 -0.024278473
-0.21183085 -0.18257998 0.009580032 -0.040246725 -0.18564107 -0.19306175 -0.034368984 0.035574622
0.11359484 0.034950357 -0.07131323 -0.0995286 0.06265925 -0.009176687 0.16725905 -0.21985246
0.12986249 0.004035044 0.1835462 0.1349976 -0.117513984 -0.13286385 0.11452847 -0.14613166

network.hidden_layer_1.bias f4 [20]
00000000: 44f3 973d 55e0 2f3e 96c7 32be 9fe6 423e
00000010: d0ee 98bd 9389 083e 53fd cc3d 5386 513e
00000020: d9a6 f339 a2d3 26be ead2 6c3b 92e6 febc
00000030: 9421 2e3e 57e7 263e d44e 32bd 9200 223e
00000040: 5dac 813d 72aa 07be b741 533e 67f9 bc3b
0.07419446 0.1717542 -0.17458948 0.19033287 -0.07467425 0.1333373 0.10009255 0.20461397
0.00046472883 -0.16291669 0.0036136457 -0.031115804 0.17004997 0.16299187 -0.043532208 0.1582053
0.06331704 -0.13248613 0.20630537 0.0057670358

network.hidden_layer_2.weight f4 [20, 20]
00000000: d1ed 113d b745 38be 0163 9ebd ba76 053e
00000010: 5f47 4a3e 3166 ee3c 520e 13be 9888 31bd
00000020: b346 023e ace2 02be 31fb 903c 89e3 44bd
00000030: f40c 613d b999 1f3e 7120 643c a148 1b3d
00000040: 6a62 583e b8d4 f13d dd0e 9dbd 7a2d 1e3e
00000050: d1c3 173e 2794 9cbd d1c2 3dbe 0b46 24be
00000060: 5b4d 9e3d 3ede 5d3e 8ab9 22be 0588 04bd
00000070: a788 43bd 050c 0dbe 49ac 5f3e 956c 8fbd
00000080: a2b4 be3c bd8d 10be d8a8 913d fba3 5d3e
00000090: 68b0 523e 3775 65bd 08b3 97bb 02ac 413e
000000a0: 1d2b 63be 4837 02be 0b37 ebbc b068 3cbd
000000b0: 16ed b63d 7e6e 153d eddd 4b3e ab95 043d
000000c0: 5c22 92bd ecae 42bd 8880 07be 592b 5fbe
000000d0: 056b 5bbe b3bc 9d3c 0673 1bbe b060 fa3d
000000e0: 85d0 46be 43c4 19be 3e64 fd3b 7297 b43d
000000f0: a2bc 343e 01c1 2cbe 79f4 4abe 56ec 10bd
00000100: c8ff 42bc 239c 943d b15f 0b3e d14e cf3d
00000110: 415b a3bd 17ab d43d ade8 143e 425d 523e
00000120: ee4b 13be 3cdc 1bbe ef51 31be 8695 01be
00000130: c9a7 7bbd 6380 333e fcc3 083e b722 95bd
00000140: 9246 2a3d c7a0 bfbd e1dc 2cbe e825 42be
00000150: 6afd 203e d736 00be 26c2 a2bd eab8 473e
00000160: 4805 dc3d 5633 273e 0f59 0bbd 1cea ea3d
00000170: 1a8e 343d 8ba6 e13c 3999 c2bd 2843 a9bd
00000180: 105f 5c3e 7aa5 f3bc bc1f 433e ab89 8e3d
00000190: 8ce9 d13d 6aee 193e bffa 98bd e17e 4b3e
000001a0: a381 39bd e855 17be e36b 3f3e 608c 873d
000001b0: 64a6 e5bd fcd0 643d 55c6 8dbd 4e5b 2c3d
000001c0: 83e3 083e a326 243e 53ea 8abd 57b1 863b
000001d0: f9da 493e eea6 c83a 610c f1bc c06f 14be
000001e0: e084 bfbd 4083 4fbe 75c0 4b3c 2cf9 373e
000001f0: 2888 4c3e 02a1 5ebe 513c 92bc d7a4 e3bd
00000200: e0ec ed3d e45d 21be a1ef 453d 3fce 2b3e
00000210: c1d9 c838 4291 403b 6029 1f3e 8065 fcbd
00000220: 7efd 36be 504a 3abe 5c51 423e 0de5 37be
00000230: 675e 0abe ffdc babd 4589 243e f611 33bd
00000240: d905 a9bd cea4 bd3d 9196 5b3e b296 2dbd
00000250: fa74 1a3e e575 853c 796f af3c c677 f53b
00000260: 1950 df3d 86b2 e83b 00ff f7bd 1bb2 99bd
00000270: 2309 393c 0888 b4bc d17a 10be 0ed3 853d
00000280: 5653 3dbe c28e 2b3e 0fa4 04be 591b 143e
00000290: 729b 363e fa57 ee3d b8f9 3abe 573d 1cbe
000002a0: 4e1e 51bd a14d f2bd 740b 463e f1ec 553d
000002b0: 35de a7bd 9b8b 093e 48c9 053e 2f1a bebd
000002c0: 9e1a fdbd 487c 503e 8442 0f3d 3312 17bc
000002d0: 3789 f2bc 8931 123d 07c9 ae3d 9dea 34be
000002e0: 365b 86bc 8445 1e3e 05b9 4a3d 454c 393d
000002f0: 9e14 b03d d96f adbd f619 6cbd bf8e 27be
00000300: 0eba af3d f771 89bd d12f d6bd 3b0e 0c3e
00000310: dcdc a33c b69b 55be 4598 f83d cf41 043e
00000320: 5a56 69bd 5c21 44be 2ee0 253e c275 f5bc
00000330: a844 b0bd 98c3 1cbd 0dab ccbd 5158 433e
00000340: baf3 89bd d3f8 d9bc 6130 8bbb caa6 0d3d
00000350: 7292 eb3d 7dac 0ebe 2c9f 5c3e d14d 513e
00000360: 2538 9c3d 89ce b33d 8f4b 173d b451 f43c
00000370: db29 9f3c 4515 2e3e 7568 4fbe 28cc 5e3e
00000380: 852d e83d 317b 143e 04a2 073e fb95 b93d
00000390: eeee 653b 4275 3cbd 8055 023d c2fd f53d
000003a0: 73e2 343e 4e2b afbc bd32 b5bc 4990 573e
000003b0: 9c8d 503e 958c 293d c512 60bd 9c70 f43d
000003c0: dc79 0dbb 7b5d 87bd 7fd0 3abe f04f d0bc
000003d0: 4ce6 89bd c44d 33be df65 733c 1cda 10be
000003e0: ed09 02be 3c34 60be 50f1 d2bd 1f5c 11be
000003f0: 702c 51bd c15c 83bd 1e43 573e 2593 5bbe
0.03562719 -0.17995344 -0.07733727 0.13033572 0.19753788 0.029101463 -0.14360932 -0.043343157
0.12722282 -0.12781781 0.017697902 -0.048068557 0.054943994 0.15585984 0.01392375 0.03791106
0.21131292 0.11808151 -0.076688506 0.15447035 0.14820792 -0.07645445 -0.18531348 -0.16042344
0.07729598 0.2166681 -0.1589109 -0.03235628 -0.047737744 -0.13774116 0.21843065 -0.07003132
0.023279492 -0.14116569 0.071122825 0.21644585 0.20575106 -0.056019988 -0.0046294965 0.18913272
-0.22184415 -0.127164 -0.02871277 -0.045998275 0.08931939 0.036482327 0.19908877 0.032369297
-0.0713546 -0.0475301 -0.13232625 -0.2179388 -0.21427543 0.019255018 -0.15180597 0.12225473
-0.19415481 -0.15016274 0.007732897 0.088179484 0.17650083 -0.168705 -0.19819821 -0.035381638
-0.011901803 0.07256343 0.13610722 0.10122455 -0.0797639 0.10384195 0.14541884 0.20543388
-0.14384434 -0.15220731 -0.17316411 -0.12654695 -0.06143931 0.17529444 0.13356012 -0.07282012
0.041571207 -0.09356838 -0.16881134 -0.18959773 0.1572167 -0.1252092 -0.07947187 0.19504133
0.10743195 0.16328177 -0.03402048 0.11470434 0.04408083 0.027545234 -0.09501881 -0.08264762
0.21520638 -0.029741991 0.19055074 0.06959852 0.10249624 0.15032354 -0.07469701 0.19872619
-0.045289647 -0.14778864 0.186935 0.06618571 -0.11213377 0.055863366 -0.069225945 0.042079262
0.13368039 0.16030364 -0.06782975 0.004110496 0.19712438 0.0015308538 -0.029424848 -0.14495754
-0.09351516 -0.20264912 0.012436022 0.17966145 0.19973814 -0.21741107 -0.017851027 -0.11115425
0.11617446 -0.15758473 0.04832423 0.16777895 9.577303e-05 0.0029383455 0.15543127 -0.12324047
-0.17870137 -0.1819241 0.18976349 -0.1795847 -0.13512574 -0.09124183 0.16067989 -0.0437183
-0.082530685 0.092599496 0.21444155 -0.042380042 0.15083686 0.016291568 0.021415459 0.0074910847
0.10903949 0.00710136 -0.12109184 -0.07504674 0.011293682 -0.022037521 -0.1410935 0.06534396
-0.18488821 0.16753677 -0.12953208 0.14463557 0.17832735 0.11637874 -0.18259323 -0.15257774
-0.05105429 -0.11831213 0.19340307 0.052227918 -0.081966795 0.13432162 0.13065064 -0.09282338
-0.123585925 0.2035991 0.034975544 -0.009220648 -0.029606445 0.03569177 0.08534437 -0.17667623
-0.016400915 0.15456206 0.049492855 0.045238752 0.085976824 -0.08468599 -0.057641946 -0.16363047
0.08580409 -0.0671119 -0.10458339 0.13677303 0.020002775 -0.2086018 0.12138418 0.12915729
-0.056967117 -0.1915335 0.16198799 -0.029963378 -0.08606845 -0.03827247 -0.09993563 0.19076659
-0.0673594 -0.026607906 -0.0042477106 0.03458289 0.115025416 -0.13932987 0.21545094 0.20439841
0.07627896 0.08779628 0.036937293 0.029824115 0.019429138 0.17000301 -0.20254691 0.21757567
0.11336807 0.14500119 0.13245398 0.0906181 0.003508504 -0.046010263 0.03181982 0.12011291
0.17664509 -0.021382954 -0.02211892 0.21051134 0.2036652 0.041393835 -0.0547054 0.11935541
-0.0021587526 -0.06609627 -0.18243597 -0.025428742 -0.06733379 -0.17510134 0.014855831 -0.14145702
-0.12699099 -0.21894926 -0.10299933 -0.14195298 -0.05106777 -0.06414176 0.21021697 -0.2144285

network.hidden_layer_2.bias f4 [20]
00000000: e4e3 613e 31d3 aabd 30fa 8ebd bbcc 40be
00000010: cf36 2bbd b6eb f33d c2f6 ee3d 08d9 ee3c
00000020: e274 efbd ffbe 3ebe 6c29 52bd c033 633e
00000030: 4c75 15be 323f 49bd c08e 863d 2455 823c
00000040: d87f 03be 7dd1 c1bd 55cb b7b8 07aa 9c3d
0.2205959 -0.08341063 -0.06981313 -0.18828098 -0.041800316 0.11910193 0.11668159 0.029156223
-0.116922155 -0.18627547 -0.051309034 0.2218771 -0.14595526 -0.049132533 0.06570196 0.015909739
-0.12841737 -0.09463785 -8.7639935e-05 0.07649618

network.hidden_layer_3.weight f4 [20, 20]
00000000: a135 19be 58d0 54be fb99 383c 60dc 54be
00000010: 24d7 5b3d 5fa5 e4bc cd34 423d 625a 22be
00000020: 629b 323e 83ae 0bbe 0f17 093e 23f5 293d
00000030: 13ef 2a3d a0b9 5d3d 9544 153c b3cf 363e
00000040: 1dfb 453e 01f1 81bd 1f51 d9bd 1ade 85bb
00000050: 4252 753d 33f8 d63d 8cad 19be 5bc4 dfbc
00000060: 3787 bb3c 6b1f a73d 9a1b 60bd 58bb 06bd
00000070: 99bd 13be c77b 35be e5e7 f03c abad 5bbe
00000080: 1599 d33c 7eab debc 1a50 debd a176 65bd
00000090: 30d7 64be ada6 8fbd 4371 bbbd 3ceb 5a3e
000000a0: 9a1c 3fbe 1c70 563e a3b8 4e3e 0594 c0bd
000000b0: cfb0 abbd 8549 b2bb e0fb 16be 5a1e e1bc
000000c0: 24d6 5d3d 2eb9 0cbe e973 593e 1b06 5b3e
000000d0: 3d56 2fbd 62a6 5e3e 83ef 2e3d fbbb 48be
000000e0: 6f7a 1f3e 0aa1 283e a857 2d3e 5c72 62be
000000f0: 9c01 363e 5658 393e a82f 3ebe 786e 1abe
00000100: 87ab 9b3b 2eca dfbd 1ccb e2bc 08d6 103e
00000110: 83c8 f63c b44d 073e 5743 b73c a8a5 b0bd
00000120: b103 953d c053 373e 77bb 893c 22d6 5fbe
00000130: 47f8 4b3e 8008 c2bd 44b9 8a3b b159 033d
00000140: f305 33be 2427 403e 6e96 1cbe 63f5 9cbd
00000150: bd5f 223e 669f 35be b7c6 d73d 7492 24bd
00000160: a3d6 52bd 4587 25be f738 01be 2734 23be
00000170: acdc 12be 8fc6 89bd 0d73 35be de40 393c
00000180: 8348 a2bd 5849 c8bc 6412 033d 3a1f 12be
00000190: b1c5 f03b 33c9 14be 6a47 35be f5b9 423e
000001a0: 6689 28bc 4cdf 2ebe 58c4 16be efaa f03c
000001b0: d728 293e f138 fdbd 4831 0bbe 0d6e 373e
000001c0: c561 51be 033a df3d 71a0 33bc 284b 5cbe
000001d0: 6576 313e e564 c13d 1e32 4ebe b16f 3fbe
000001e0: 80b0 a9bd a003 e0bd 7da4 973d 5e71 9fbd
000001f0: 26d7 3d3e e39f c23c 44f3 5d3e f69e 86bd
00000200: 8f32 27be 36c4 2b3e 70c2 603d 8282 b63c
00000210: ce08 c03d 8521 04be 370c 373e f22a 02be
00000220: 0deb 1ebe 0910 c83d 24fa e2bd 267d 56bd
00000230: 4f4e 35be 98e0 ab3d 8693 03be 0e6c 2abd
00000240: 83ca 4bbd f477 cebd ffe0 833d 7c5a 413b
00000250: 7231 243e c692 313d 819d 12bd f342 bdbd
00000260: d4e1 cabd 7b4d 6c3d 8bcd 3ebc ade9 d13d
00000270: df13 8e3d 16e0 b6bd 7073 a43c c3c0 51be
00000280: 1756 243e a1ed e7bd ca87 c0bd 9be2 30be
00000290: 2026 20be 8695 3cbd b5e5 c9bd 825e 56be
000002a0: b79c 513e 2a99 ebbd e06e 853d 5b33 03be
000002b0: 8dd4 22be 4af1 5fbe 9b58 2e3e 441c c63d
000002c0: 6936 a0bd 1a0a f83d ae15 33be cac4 ef3d
000002d0: 9022 45be 020d e83d 1c1d 77bd f607 47be
000002e0: a76a 3e3e d854 583d d4be 573e 8f36 f93c
000002f0: 6aec 32bc 4666 d3bd b123 493e 840c 20bd
00000300: 6c0e 66bd 7a1f 4b3e db95 0d3e 3665 61be
00000310: 445c 55bc 7f7f 983c c4da 4bbd b220 ec3d
00000320: 9ab3 1a3e f90f 1abe a899 0a3e 5cad 513e
00000330: fb6c 5d3e c4d3 6dbd 9cb9 eb3d ec49 61bd
00000340: 2b66 15be b053 d8bd d70a 63bb 7810 2f3e
00000350: 5972 293e c403 4c3e 4ca3 bdbd b3ce 3a3c
00000360: a22b 02be c2d2 99bd 1e06 95bd 7123 12be
00000370: fa8b a9bd 4435 fabd 7626 bd3d d37a 31be
00000380: dcc3 12be 37e1 1abe 820b 49be 22ef c33d
00000390: 2a90 bc3d d673 ec3d b7c1 303d e920 5abe
000003a0: fbed 163e 4dbf 3dbe a151 3dbe e3d4 853c
000003b0: 3f1d 553e 8b06 4bbb 892b 8bbd a823 f53d
000003c0: e95a 18be 1439 c4bd cf16 d93d 6279 18bc
000003d0: 3ba5 f9bd f867 f53d e20c 093c 7a2d 9fbd
000003e0: 6b5c d0ba cbba 18be caf8 233e f9b3 36be
000003f0: 821f 63be 2073 e13d 3843 693d 720d 353e
-0.14961864 -0.20782602 0.011267181 -0.20787191 0.05367197 -0.027910886 0.047413636 -0.15854791
0.17442086 -0.1364079 0.13387702 0.041493546 0.041731905 0.054132104 0.0091105895 0.17852668
0.19334073 -0.06344796 -0.10611176 -0.0040853145 0.0598929 0.10496559 -0.15007609 -0.02731531
0.022891624 0.081602894 -0.054713823 -0.03289351 -0.14427795 -0.17722999 0.02940745 -0.21452968
0.025829831 -0.027181383 -0.10855122 -0.056021336 -0.22347713 -0.07014213 -0.09152462 0.21378797
-0.18663254 0.20941204 0.20187621 -0.094032325 -0.08383333 -0.005440893 -0.1474452 -0.027480293
0.0541593 -0.13742515 0.21235622 0.21389048 -0.042806853 0.21743158 0.042708885 -0.19602959
0.15574048 0.16467682 0.1692797 -0.22113937 0.17774051 0.18100104 -0.18572867 -0.15081203
0.0047506723 -0.109272346 -0.02768474 0.14144146 0.030124908 0.13213235 0.022370977 -0.086253464
0.07276095 0.17903042 0.016813023 -0.21859029 0.19918929 -0.094742775 0.004233511 0.03206796
-0.17482738 0.18764931 -0.1529176 -0.07663991 0.15856834 -0.17736587 0.10535949 -0.04017873
-0.051474225 -0.16164882 -0.12619387 -0.15937863 -0.14341992 -0.06727325 -0.1771967 0.011306969
-0.07923987 -0.024449036 0.03199996 -0.14269724 0.0073477854 -0.14529876 -0.17703024 0.1901625
-0.010286665 -0.17077368 -0.14723337 0.029378382 0.16519485 -0.12364376 -0.13593018 0.17913075
-0.20447452 0.10899737 -0.010963545 -0.21513045 0.1733032 0.09443072 -0.20136306 -0.1869495
-0.08285618 -0.109381914 0.074044205 -0.07785295 0.18539104 0.02375788 0.2167483 -0.06573288
-0.1632788 0.16774067 0.05487293 0.022279028 0.09376679 -0.12903412 0.17875753 -0.12711695
-0.15519352 0.097686835 -0.11082867 -0.052365445 -0.17705654 0.08392447 -0.12849244 -0.041606955
-0.049753677 -0.10081473 0.06439399 0.0029503396 0.16034487 0.043352865 -0.03579474 -0.09241285
-0.099063545 0.05769108 -0.011645685 0.10249648 0.06937384 -0.0892946 0.020074576 -0.20483689
0.16048466 -0.11324621 -0.094009 -0.17273943 -0.15639544 -0.046041034 -0.09858266 -0.2093449
0.20469938 -0.11503823 0.06515288 -0.1281256 -0.15901394 -0.21869388 0.17025988 0.0967336
-0.07822878 0.12111302 -0.17488739 0.117074564 -0.19251466 0.11330606 -0.060330495 -0.1943663
0.18595372 0.05281529 0.21068889 0.030421523 -0.010920623 -0.103222415 0.19642521 -0.039074436
-0.056166098 0.19836226 0.13826697 -0.22011265 -0.013022486 0.018615482 -0.049769178 0.11529674
0.15107575 -0.15045156 0.13535178 0.20476288 0.21623604 -0.058063284 0.115100116 -0.055002138
-0.14589755 -0.10562837 -0.0034643912 0.17096126 0.16547526 0.19923311 -0.09259662 0.01140182
-0.12711957 -0.07510902 -0.072765574 -0.14271332 -0.082786515 -0.12217191 0.092358515 -0.1733201
-0.14332527 -0.15124975 -0.19633296 0.09567095 0.092071846 0.115455315 0.04315349 -0.21301617
0.1473922 -0.18530007 -0.1848817 0.016336864 0.20811938 -0.0030979242 -0.06795413 0.119696915
-0.1487843 -0.09581199 0.106000535 -0.009306284 -0.12189718 0.11982721 0.008364888 -0.07772346
-0.0015896683 -0.14915006 0.16012874 -0.17842092 -0.22179988 0.110082865 0.05694887 0.1768091

network.hidden_layer_3.bias f4 [20]
00000000: 91b5 db3b a40b c53d 5b1e 4b3e 22de 57be
00000010: 8159 cf3b c650 403e 6cd3 3b3e e246 193b
00000020: 38bd 61be 8bd2 4b3d c701 6a3d d703 38bc
00000030: 37cb a93d 58a6 e0bd 9132 283d 220d 383e
00000040: 3cfa 803d c100 ffbc cef3 debb 9027 e93d
0.006704994 0.09621361 0.19835798 -0.2108083 0.0063278084 0.18780813 0.1834237 0.0023388197
-0.22044837 0.049761336 0.0571306 -0.011231384 0.08290713 -0.109692276 0.04106385 0.1797376
0.062977284 -0.03112829 -0.006803966 0.11384499

network.hidden_layer_4.weight f4 [20, 20]
00000000: a18e 4ebe 65c9 5cbe 0f5c d63d b472 cf3d
00000010: b6de 91bc f9f3 c23d e9ea 623d 0193 a43d
00000020: a4f6 ad3c 3942 62be b6a8 55be 0558 8cbd
00000030: 01bd a03c b24c e5bd db80 dbbc c526 6ebd
00000040: 8610 ecbb 10da af3d ac14 90bd 4380 c6bd
00000050: 6d9e 24be e358 383e ad1b 4a3e 38c2 2cbe
00000060: ec58 21bd 58c5 f6bd 0a5e 7e3c 8a9e 353d
00000070: 9692 923d d56c a63d 508e 08bd 0548 85bc
00000080: 515c d13d 09f9 43bc 2fc9 653e caea d5bd
00000090: d90a 50bc a926 11ba c17e 43bd 6028 413d
000000a0: f3cd 25be dd76 cebd 0fd4 fd3d 5a95 17be
000000b0: 35ea 183e 45c6 493c e237 54bc 27fe 0cbd
000000c0: c960 12bd c796 5abe 8d15 ce3d f755 603e
000000d0: b26b 8c3c 2763 0fbd faf1 913d 19d6 a0bd
000000e0: 4e1b 02bd 80f9 1e3e e63c a53d 60ef 8f3d
000000f0: 64c5 56be cc0b 63bd cfd5 c93d 9e1d 33be
00000100: b91a a03d fd05 9f3d 24c1 95bd 30c6 5ebe
00000110: 5037 523d ae52 afbd 0315 03be 8640 eb3d
00000120: 1cb3 88bd 06e3 333e 964b e9ba 5896 683d
00000130: 5c18 c8bd ba03 2a3e 8c06 66be 5078 9a3c
00000140: df03 43be 5a52 08be eb3a 4b3e 06da 3ebe
00000150: 7f7a 42bd 99b7 453e ea9c c4bd e8f6 233e
00000160: 428a 0f3e 7c3f f936 bb90 a23d 5b30 da3d
00000170: 516f aa3d 9a1b 8bbd 118e d1bd 9a81 213e
00000180: 454b 3f3e d3e1 ce3c 8908 f93d 878b 3fbe
00000190: 141e 3f3e f20d d83c 545a b03c 8109 60be
000001a0: 21aa 483d 9d01 f0bd c544 913c 6f29 d4bd
000001b0: e2be 0b3e 02d0 c1bd 632e 87bd 5543 cd3b
000001c0: b4e9 1bbe 4c47 1bbe a7c7 5dbe 7f39 3dbe
000001d0: a78a ea3d 2ede 90bd 85a5 4ebe 2fd3 be3d
000001e0: 4fb8 6bbc 9b1e 843c 11cd 623e 8222 4fbe
000001f0: dca2 ae3c dfef a3bd 708b b33d f0ed 493e
00000200: 0563 f5bd 39bf 65be be61 8fbd cbe8 65bd
00000210: 33cb dbba 349e 4b3d 1ee2 f3bd 571d 15be
00000220: c712 0b3e 951b 5dbe ea0b 5c3e 9a09 fcbc
00000230: ddd2 d4bd f22d 5b3e ab3f a3bd 6108 e13d
00000240: 3325 eb3d c86e 28be 4630 ad3d caf0 ee39
00000250: 8998 8dbd 1b77 f1bc b6ee 97bb 94bd b13c
00000260: ee84 c93d c028 1f3e 5cdb 013e bc67 97bd
00000270: 4c12 1abd 2577 873c 6dce 603e 4d70 003e
00000280: 9370 eb3a 1a83 a13d b9f6 f4bd d0be 563e
00000290: 5ad5 503d fda7 273e 0c36 50be ce44 b7bd
000002a0: 6758 5e3e 8823 da3c 269d 89bd df02 30be
000002b0: 33ed d9bd bc40 cfbd 6e43 38bd e7d0 403e
000002c0: a6ee a8bc 7a4f f9bd f9dc e13d 79b7 39be
000002d0: e8b9 5abe ce98 febd 8a51 19be 6093 813d
000002e0: d91d 823d a4b3 f9bd 7a5b 60be 078b 4ebd
000002f0: 93dd f93d 5810 8ebd 5d3f 9cbd f6f3 a43d
00000300: e35d 79bb 18a6 e9bd f8b0 583e dcd6 d03d
00000310: b2dc 0f3e 562b 45bd b027 24be eb1d 2b3c
00000320: bf00 283e f30c 83bc ee38 523e f4ae c13d
00000330: 5f79 4f3e 164d e73d 13d9 6f3d 6d03 493e
00000340: f1b4 3fbe 4daf 7dbd 0f9f fdbd b065 2e3e
00000350: 80b1 aa3d 12ce 06be db02 273b 8b51 543c
00000360: 5973 2c3d 27cf 4abd 43e3 43be bbd4 a8bc
00000370: 8449 e33d 9594 5c3e 04d1 3d3e e8ce 803d
00000380: 284b 243e 748a 623e 2d1e 3c3e 271f 16be
00000390: 8999 8e3b ec6a 603d 7a3d 12be ee8e d2bc
000003a0: 2a97 853d ea60 52be b789 13be b9d9 5ebd
000003b0: 8bc6 f2bc b15b 31be 6ba1 27be 4edb 433e
000003c0: b921 f9bd 1f75 263e f251 30be 19c8 3bbe
000003d0: fd39 f7bd 5bb4 b03d 2ccf 4abe 754e 503e
000003e0: 9ae6 043e 5477 5dbe 553b 34be bd16 53be
000003f0: c87e 4abd 5bb6 43be f11a 6ebc 7631 c03d
-0.20171596 -0.21561201 0.104667775 0.101293 -0.017806392 0.0951919 0.05539981 0.08035851
0.021235771 -0.22095574 -0.2086514 -0.06852726 0.019621374 -0.11196269 -0.026794842 -0.058142442
-0.007204118 0.08586514 -0.07035193 -0.09692433 -0.1607606 0.18002658 0.1973712 -0.16870964
-0.039391443 -0.12049359 0.01552535 0.044340648 0.07156865 0.08126227 -0.033338845 -0.016269693
0.10222686 -0.01196123 0.22440027 -0.10445173 -0.012697899 -0.0005537072 -0.047728304 0.047157645
-0.16191845 -0.10081265 0.123939626 -0.14803067 0.14933093 0.012315338 -0.012952777 -0.034422066
-0.035736833 -0.2134658 0.10062704 0.21907793 0.017141197 -0.03500667 0.071262315 -0.07853336
-0.03176432 0.15524864 0.08068256 0.07028079 -0.20973736 -0.055431172 0.09855234 -0.17491767
0.07817597 0.07764814 -0.07312229 -0.2175529 0.05132228 -0.08560692 -0.12800984 0.11486916
-0.066747874 0.17567071 -0.0017799016 0.056784004 -0.09770271 0.16602984 -0.22463435 0.018856198
-0.19044445 -0.13312665 0.19846694 -0.18637857 -0.047480103 0.19308318 -0.096002415 0.16012156
0.14017585 7.428169e-06 0.079377614 0.10653754 0.08322013 -0.06792374 -0.10232175 0.15772095
0.18681057 0.025254166 0.12159831 -0.18705569 0.18663818 0.026373837 0.021527447 -0.21878625
0.048990373 -0.11719058 0.017732987 -0.10359465 0.13647035 -0.094635025 -0.066006444 0.00626413
-0.1522587 -0.15163916 -0.21658193 -0.18478964 0.11452227 -0.070736274 -0.20180328 0.09317624
-0.014387204 0.016127875 0.22148539 -0.20228007 0.021317892 -0.08004736 0.0876683 0.19719672
-0.11981777 -0.22436227 -0.07001065 -0.05613021 -0.0016768932 0.04971142 -0.11908363 -0.14561974
0.13581382 -0.21592553 0.2148892 -0.030766297 -0.103917815 0.21404245 -0.07971128 0.10987926
0.114817046 -0.1644851 0.08456473 0.000455743 -0.069138594 -0.02947574 -0.004636611 0.021696843
0.098398075 0.15542889 0.12681335 -0.07392833 -0.037615106 0.016536305 0.21953745 0.1254284
0.0017962627 0.07886334 -0.11961121 0.20971227 0.050984718 0.16372676 -0.20333117 -0.0894867
0.2171341 0.02662827 -0.06719427 -0.17188595 -0.10640945 -0.10119769 -0.04498618 0.1882969
-0.020621609 -0.12173362 0.11028475 -0.18136396 -0.2135998 -0.12431489 -0.14972511 0.06326938
0.06353349 -0.12192467 -0.21909896 -0.050425556 0.12200465 -0.06936711 -0.07629273 0.08054344
-0.0038050346 -0.11408633 0.21161258 0.10197231 0.14049032 -0.04813703 -0.16030765 0.010444145
0.16406535 -0.015997386 0.2052953 0.09457198 0.20261143 0.11294 0.058556627 0.19630213
-0.18721367 -0.061934758 -0.12383854 0.17030978 0.08334637 -0.13164547 0.002548388 0.0129588945
0.04210219 -0.049513962 -0.19129662 -0.02060925 0.11098006 0.21541055 0.18536764 0.06289464
0.16044295 0.22123128 0.18370886 -0.14660321 0.004351799 0.05478947 -0.14281264 -0.02570292
0.06522973 -0.20544782 -0.14408003 -0.054406855 -0.029635688 -0.17320134 -0.1637017 0.19126627
-0.12164635 0.16255616 -0.1721876 -0.1833805 -0.12071607 0.0862815 -0.19805592 0.20342429
0.12978593 -0.21627551 -0.17600758 -0.20614143 -0.049437314 -0.19112532 -0.0145327905 0.09384434

network.hidden_layer_4.bias f4 [20]
00000000: 9055 35be 5046 30be 3ae2 59be 3805 12be
00000010: 50ed 213d c991 ca3c e5bb fc3c a174 51be
00000020: 1a4a 583e 6d8a 34be 0b70 34be 6241 bf3d
00000030: 0656 523d 10af 25be f175 113e 0530 5e3e
00000040: c7b7 3fbd 335a 34bd 0c04 2cbe ece4 203e
-0.17708421 -0.17214322 -0.21277705 -0.14259803 0.03953296 0.024727719 0.030851314 -0.20454647
0.21122018 -0.1763093 -0.17620866 0.09338643 0.05135157 -0.16180062 0.14205147 0.21698005
-0.046806123 -0.044031333 -0.16798419 0.15712327

network.hidden_layer_5.weight f4 [20, 20]
00000000: d891 b3bc 196c 80bd dc64 94bd 97ed 423e
00000010: 2d0d 6abd 9b8d 7a3d 618f 00be 5aa8 523e
00000020: 25c0 963c 8a77 b63d 4b27 0cbe 93f2 4cbd
00000030: d980 8b3d 4269 4f3e ce66 533c 6c4e 403d
00000040: 4409 1fbe 75df bdbd 8fca cebc b1ad 30be
00000050: 901c 0a3e 449b a7bd d6cc b6bc 6f85 103e
00000060: 3a12 d5bc 116b 0abe e177 15be aff7 fa3d
00000070: d70f 373d faeb 25be b317 c7bd 4916 233e
00000080: 425a 5b3e feb0 53be cbfc de3d 5b3f 1d3e
00000090: a03a 9dbc 31d3 2cbe 0a85 b1bd 8c87 3dbe
000000a0: a365 1a3e c84a 063e 0f0a 12be 8f97 ffbd
000000b0: bde5 f73d 68ef 96bd 17d6 5cbe 4278 4fbe
000000c0: 632e 0cbe 4514 f73a eedc 62be ca2b d7bd
000000d0: 8161 55be 1063 033d ace0 05be f0db b03d
000000e0: 356b 633e 28ca 2dbe d2be 153e 9cd3 123e
000000f0: b95e a7bc 8018 0dbe 4a53 54be 412d 25be
00000100: 5857 28bd 059c 3dbe ca8b e93d 4b41 3bbd
00000110: ae15 0cbe d2d7 59be f454 363e a918 87bd
00000120: c69b 403e d3a7 09bd 84b5 90bd 4115 2e3e
00000130: fc63 363e 9d2b ed3c 4fe4 c33d a8ce 573e
00000140: 07e8 363d 3183 1cbe de58 ddbd 30d9 41be
00000150: 4211 3f3d 428e 183d 70ea babd 5c12 433e
00000160: 9685 7abd 51d1 62bd 9ac8 50be e34b 563e
00000170: c308 403e 44e5 683b 8d7c 41bd 4079 2e3d
00000180: 962e 4a3e 5f6f 44bd 8d25 5dbe 8a9d 37be
00000190: 4466 02be 3369 f53d 8b68 4f3e a652 90ba
000001a0: 7abe 25be bdf8 3fbe 50fc f33d ede0 313e
000001b0: 510d c03d 1002 95bd ac1b 8dbc 7a2a 453e
000001c0: 49df 3dbd 41b7 923d f65a bc3c 6758 94bc
000001d0: c4cc f8bd b091 163b 2e9f 41be 0718 8bbd
000001e0: c3ac de3d d28d ad3d f85d 90bd 3c28 5b3e
000001f0: 7735 9f3d 2231 1bbe 5acf efbd b271 4d3c
00000200: dfb0 21be f797 5a3e 7f5a 3f3e f5c2 353e
00000210: b7f8 593d c80e 443c c85f c63d 4b03 643d
00000220: 7223 743d e5a1 173d 0e84 a33d 4b84 273e
00000230: 8b05 6dbd 839a 473e e3f6 4b3e f76a be3d
00000240: d32e 5fbe 2744 103e b202 df3d 2a39 39bd
00000250: 64e1 2cbe 05b9 113e 5ba2 443e dfbc 5abe
00000260: 5494 1fbe a35b a7bd 2374 1cbe 9506 86bd
00000270: a604 fcbd 0374 eebd c39b 413e 76ec 2fbe
00000280: e01d 3fbe 0db7 5cbe 52fc 493d ee53 633e
00000290: 12e6 5ebe 1fa0 7b3b acf5 5cbe 306c 4dbe
000002a0: e05d 073e 46a4 08be f702 293e 2cb4 16be
000002b0: 0875 3e3e c39f edbd 0a60 903d c7dd c33d
000002c0: 0409 18bd 8254 56bb d11c 423e 0250 11bd
000002d0: 7aee d6bd ed01 183e 7a7f 51be 2a7a c5bd
000002e0: 5d33 9a3c 9bd4 82bd 4db6 a0bb bfc5 ecbd
000002f0: 9a06 203e 9180 bc3d b8ff c7bc dd64 8ebd
00000300: 9bba 20be 27ba 123d 7e4d 4a3e 6a11 4cbe
00000310: 399e 35be 2cf6 f03c 9dc6 5b3b 2998 62be
00000320: 8d1a 29be a692 2d3e 1979 53be 453d 693d
00000330: e2b5 bb3d 124f f13d 5273 8cbd 0dc2 2dbe
00000340: 321d a3bd e251 e5bd 86cb 8cbd 37c8 5d3e
00000350: c8d0 4d3e f437 8fbd dd1a 1d3e b9ee 3a3e
00000360: ce1c 28be f062 473d e70d c93d b17c f2bd
00000370: 21b9 4ebe 3eda 043e 80ba 4f3e f3a1 443e
00000380: f563 57bd 1fb8 65bd 8730 263e d2c4 b53d
00000390: 6755 59bd e3de 333e 3a84 c03d fb21 51bc
000003a0: d1d8 0a3e a603 45be fecb 20be e9d1 6a3d
000003b0: bb1d ffbd 508d 07be 9478 3e3e dab5 8dbd
000003c0: b34f 6c3d 9e49 34bd 5532 433e 796c d9ba
000003d0: 4134 01be d459 aabc bfef 5bbd ddce 1a3e
000003e0: 5930 2b3e 6eec c4bd c008 e7bd 3cfe 3f3d
000003f0: d6e8 58be 414c 0fbe b6bf 493e 63d9 dd3d
-0.02192013 -0.06270618 -0.072458 0.19035946 -0.05714147 0.0611702 -0.12554695 0.20572034
0.018402169 0.08909519 -0.13686864 -0.050036024 0.06811685 0.20254996 0.0129029285 0.04694979
-0.15530878 -0.09271137 -0.025243072 -0.17253758 0.13487458 -0.081839114 -0.02231447 0.14113401
-0.026009668 -0.13517405 -0.14596511 0.12254273 0.04469284 -0.16203299 -0.09721317 0.1592647
0.2142115 -0.20672986 0.1088806 0.153562 -0.019192994 -0.16877438 -0.08667953 -0.18508738
0.15077834 0.13114464 -0.1426165 -0.124800794 0.12104366 -0.07369882 -0.21566044 -0.20260718
-0.1368957 0.0018850645 -0.2215459 -0.10506399 -0.20837976 0.032076895 -0.13073987 0.086357
0.22208865 -0.16971648 0.14623573 0.14338535 -0.02043091 -0.13778877 -0.20734897 -0.16130544
-0.041098922 -0.18516548 0.11403616 -0.045716565 -0.13680145 -0.21273735 0.17805845 -0.065965004
0.18809423 -0.033607315 -0.07065871 0.17000295 0.17811579 0.02895146 0.09565031 0.21074927
0.044654872 -0.1528442 -0.10807966 -0.18930507 0.046647318 0.037245043 -0.09126747 0.19049972
-0.061162554 -0.0553754 -0.20389023 0.20927386 0.18753342 0.0035537044 -0.04723792 0.0425961
0.19744334 -0.047957774 -0.21596356 -0.1793119 -0.12734324 0.11982956 0.20254724 -0.0011010959
-0.16185942 -0.1874723 0.11913359 0.17370959 0.0937754 -0.07275784 -0.017225109 0.19254485
-0.04635552 0.07163859 0.022992592 -0.01810856 -0.12148431 0.002297502 -0.18908378 -0.06791692
0.108727954 0.08474316 -0.07049173 0.21402067 0.077738695 -0.15155461 -0.11709471 0.012539314
-0.15790127 0.21347032 0.18686865 0.17750151 0.05321571 0.011966415 0.096862376 0.055667203
0.059604116 0.03701963 0.07984172 0.1635906 -0.057866614 0.19492535 0.19918399 0.09297746
-0.21795206 0.14088498 0.10889186 -0.04522053 -0.16882855 0.14230736 0.19202559 -0.21361111
-0.15583926 -0.08171775 -0.15278678 -0.06544224 -0.12305574 -0.11643221 0.18907075 -0.17180046
-0.1866374 -0.21554203 0.049312897 0.22199985 -0.21767452 0.0038395 -0.21578091 -0.20060802
0.13219404 -0.13343915 0.16505037 -0.14717168 0.18599331 -0.11602738 0.07049568 0.09563785
-0.037117973 -0.003270418 0.18956305 -0.035476692 -0.104947045 0.14844485 -0.20458785 -0.096424416
0.01882332 -0.063882075 -0.0049045444 -0.115611546 0.15627518 0.092042096 -0.024413928 -0.06952832
-0.15696184 0.03582206 0.19756123 -0.19928518 -0.17736138 0.029414259 0.003353513 -0.22128357
-0.16514035 0.16950473 -0.20651664 0.056943197 0.09165551 0.117826596 -0.06857933 -0.16968556
-0.07964553 -0.111972585 -0.068747565 0.21658407 0.20099175 -0.06993094 0.15342279 0.18255128
-0.16417238 0.04867834 0.09817105 -0.11840189 -0.20187809 0.12973878 0.20285988 0.19202404
-0.05258556 -0.056083795 0.16229449 0.08875431 -0.05305996 0.17565493 0.0940022 -0.012764449
0.13559271 -0.19239673 -0.15702817 0.057329092 -0.124568425 -0.132375 0.18600684 -0.06919451
0.057693195 -0.04401552 0.19062169 -0.0016588114 -0.1261759 -0.020794787 -0.053695437 0.15117975
0.16717662 -0.09615408 -0.11280966 0.046873316 -0.2118257 -0.13993932 0.19702038 0.10832479

network.hidden_layer_5.bias f4 [20]
00000000: 25f9 583e 8a1b db3d 55a9 fa3d 5374 1abe
00000010: a505 19bd bbd9 af3d 7dbf f43d 4dc4 473e
00000020: ed6d f73c 88cd 183e 16bd 45be 8aca fc3c
00000030: f945 d3bd 1aee 143d e0e4 e13d f81b c33d
00000040: 0d38 003d 46d4 e73d 7f95 2ebe 3d02 d6bd
0.21188791 0.10698612 0.12239329 -0.15083437 -0.0373589 0.08586451 0.11950586 0.19508477
0.030203784 0.14922154 -0.19310412 0.030858297 -0.103160806 0.036359884 0.110299826 0.09526819
0.031303454 0.11319785 -0.17049216 -0.10449646

network.hidden_layer_6.weight f4 [20, 20]
00000000: 1fca 843d 0ddf ee3d 20c8 d53d b18c 1cbe
00000010: 5ea8 11be 5a73 debc c79c 663e 1156 393e
00000020: 81ff 403e 016e 513e 00d8 0b3e a490 843d
00000030: adcf 0c3e 9306 133d 3c08 d83c 0ca8 bb3d
00000040: 355f 38be 0088 82bd ddf0 61be 437f 0cbe
00000050: a25e 42be 086b 97bc 1514 0d3e ed68 e9bd
00000060: b626 3a3e 9419 143e 6a8e a53d 0197 5bbe
00000070: 8497 00be b064 3bbe bcfe 6ebd f3b8 ed3d
00000080: 7ef8 0cbe 1e01 63bd adab 5a3e e09b 09be
00000090: 48ad 28be db17 143e 7959 2f3e f2a4 a43c
000000a0: 03c9 38be 0d4c b4bc 5de7 3fbe 7e87 893d
000000b0: ab8e 56bd 6f41 8a3d d786 34be 8e05 3bbd
000000c0: 1101 bb3d 3348 c0bc fc16 293e 0bd3 133e
000000d0: bd84 42be 0212 efbd 6ab9 533e 9be8 213e
000000e0: 55d7 1f3e 322b 0c3e 4ff7 3a3e 0457 453e
000000f0: ecdb 483e 0c72 c2bd 66c1 3cbe d75c 153e
00000100: db3e 253c 3a86 0a3e cd5b 1d3e 535b 493e
00000110: 83fc 4ebd 7a43 953c 1064 4c3e b0ef 4dbe
00000120: 78b0 88bd ff9c a13d 323a 35be 864c eabc
00000130: d3cc 073e e4ff 31be 3867 bf3d fb25 023e
00000140: 6332 4e3d 75d8 ae3d ec3f 873c 4d89 803d
00000150: 55bc 183d b74b 27be 04e4 e3bd c54f 663e
00000160: d03a 86bd 19bd 98bc 48d0 2d3e 49ab e3bd
00000170: 614d 483e e5d4 163e 35cd b73d f5af c2bd
00000180: b758 4d39 b15a b33d f876 813d c199 3ebe
00000190: 1b74 563e eb2c 233e 3e5a a03d b916 073d
000001a0: f5c9 713d 1ad6 bcbc 77b7 b7bb e4af 603d
000001b0: 4f12 1ebe 4abc 403e ae5f fd3d 1535 3abe
000001c0: 7eda 183e 1fa4 493d 1879 e5bc 88bf 06be
000001d0: 4083 e73d fc64 1b3e cee2 f4bc f01d a4bd
000001e0: 2970 1b3e 343c 24be 540d 0abe 8677 0a3e
000001f0: 1563 b53d e53e 843d 4e32 e13a b344 2d3d
00000200: c213 59be 1d87 a23d 12a0 65bd 153f 493e
00000210: b8c1 2b3e 776e de3d 4f2b c0bd da73 b1bd
00000220: 439d 553b 9e44 a5bd 4d5c 07be e655 f23c
00000230: 7417 e7bd 1af6 c53d 0b0a aebd 3c12 1cbe
00000240: 2c3d b4bd 5a10 8fbd b8d7 2b3e 3573 053e
00000250: 680b 4f3e 9ccf e0bc cf70 cf3c 58c1 fd3d
00000260: 0017 5d3e b099 a7bd 10c5 dfbd 8e23 97bd
00000270: c607 8ebd 8d1a 1ebd 91c9 ee3d 9b81 d33d
00000280: 66e5 c33d 02c7 df3c 41d6 3cbe e19b 1c3e
00000290: a489 abbd 474b ecbd f1a6 2f3e f1fd 5bbd
000002a0: eb2b a93d 6179 66be 4c21 84bd e25a cc3d
000002b0: 8b22 e7b9 b822 ca3d 8aa8 5e3e 3c1c 983c
000002c0: c1fd 33be b1fb 45be b948 a83c 4f0e 4a3e
000002d0: fadb 323d 7479 3cbd baa3 45bc 7f9b 0bbe
000002e0: 6687 123c 7723 143e 697a 893c 4ac3 99bd
000002f0: 9305 e1bd 84e6 b33d a2c3 d73c 14cf fcbb
00000300: 2c18 dfbd 8755 8b3c a40a 85bc 6bcf cbbd
00000310: 283f 1a3e c47b 94bd 5ddd 0d3e 5585 9d3d
00000320: d7af 013e b2a2 36be 8a3a a2bd 3290 013c
00000330: c7b0 02be bf0e 19be 81f8 5e3e 9d89 003d
00000340: b5c6 55be 1763 b2bd 2b75 283e e808 8cbd
00000350: e76d 4f3d 4bc5 233e 229a 5b3e a422 bb3d
00000360: b3e9 223d e3c8 be3d 235d a3bd 7caa 37bd
00000370: 27a6 4e3e 36fa 903d 0966 ca3c ef9e 153c
00000380: b042 3dbe b7c2 f93d 1ae2 523b d281 073d
00000390: c0a4 2b3e 3079 f83d 89c5 23be 3d3e 9abd
000003a0: 21de 40be cb25 8fbd e38c aabb 7ad4 533e
000003b0: 0424 e63c 7ae4 123e 9d16 3ebd 03bd 5dbe
000003c0: 4687 ac3d be9b dc3d 855c 373e e45c eb3b
000003d0: c2f2 383e f871 9d3d dbd7 483e 3740 3f3e
000003e0: f14b ae3d f3d0 88bc b2db 3dbb d51b 2dbe
000003f0: b3a0 5cbe e91f 47bd b0a7 cc3d 0dea 8abd
0.06483864 0.11663637 0.104385614 -0.15288045 -0.14224383 -0.027154613 0.22520743 0.18099238
0.18847467 0.2045212 0.13656616 0.064729005 0.13751097 0.03589494 0.026371114 0.09162912
-0.18005069 -0.06373596 -0.22064538 -0.13720421 -0.18981412 -0.018483654 0.13777192 -0.11396966
0.1817883 0.14462882 0.08083804 -0.21444322 -0.12557799 -0.18300128 -0.058348402 0.11607542
-0.13766667 -0.055420987 0.21354552 -0.13438368 -0.16472352 0.14462225 0.17123975 0.020098183
-0.1804543 -0.02200892 -0.18740602 0.06715296 -0.052382153 0.06750762 -0.17629562 -0.045659594
0.09131063 -0.023471927 0.16512674 0.14435975 -0.18995948 -0.116733566 0.20676199 0.15811388
0.15609486 0.13688353 0.18258403 0.19271475 0.19615144 -0.09494409 -0.1843315 0.14586197
0.010085787 0.13527766 0.1536705 0.19663744 -0.050533783 0.018220652 0.19960046 -0.20110965
-0.06674284 0.07891273 -0.17697981 -0.028600942 0.13261728 -0.17382771 0.09345859 0.12709801
0.05034102 0.0853738 0.016509973 0.06276188 0.037288982 -0.16337477 -0.11127475 0.22491367
-0.06554186 -0.018644856 0.16973984 -0.111166544 0.19560768 0.1472965 0.08974687 -0.095062174
0.00019583372 0.087575324 0.063215196 -0.1861334 0.20942728 0.15935104 0.07829712 0.032980654
0.05903049 -0.02305131 -0.0056065875 0.054855242 -0.15436672 0.18821827 0.12371765 -0.18184312
0.14927098 0.049228784 -0.028011844 -0.13159001 0.11304331 0.15175241 -0.029893305 -0.080135226
0.15179504 -0.1603859 -0.13481647 0.13522157 0.08856789 0.06457309 0.001718113 0.042301845
-0.21198943 0.07935927 -0.056060858 0.1965297 0.16773117 0.10860913 -0.093832605 -0.08664675
0.0032594956 -0.08069728 -0.13218804 0.029581975 -0.1128377 0.09666081 -0.08498009 -0.15241331
-0.0880073 -0.06985541 0.16781509 0.13032229 0.20219195 -0.027442746 0.025322346 0.12390393
0.21590805 -0.081836104 -0.109262586 -0.073798284 -0.069350764 -0.03859954 0.116595395 0.10327455
0.09565239 0.027316574 -0.18441106 0.15293838 -0.08375862 -0.115377955 0.17153527 -0.053708974
0.0826033 -0.2250724 -0.064516634 0.09978272 -0.0004408549 0.09869903 0.2174398 0.01856815
-0.17577268 -0.19334294 0.02054249 0.19732021 0.043666817 -0.046014264 -0.012062961 -0.13633536
0.008943414 0.14466654 0.016782003 -0.075079516 -0.10987391 0.08784202 0.026338402 -0.0077151153
-0.10893282 0.017008556 -0.016240425 -0.09951671 0.15063155 -0.07250169 0.13853975 0.07691447
0.12664734 -0.17835501 -0.07921322 0.007907914 -0.12762748 -0.14947031 0.21774484 0.03138124
-0.20876582 -0.08710306 0.16450946 -0.06837636 0.05064192 0.1599323 0.21445516 0.091374665
0.039773654 0.0931566 -0.07976749 -0.04484032 0.2018057 0.07078974 0.024706857 0.009132131
-0.1848247 0.12195342 0.0032178224 0.03308279 0.16762066 0.1213249 -0.15993322 -0.07531402
-0.18834735 -0.0698963 -0.0052047833 0.20686522 0.028093345 0.1434497 -0.046408284 -0.21654133
0.08424239 0.10771893 0.17906387 0.0071827043 0.18061355 0.076877534 0.19613592 0.1867684
0.085105784 -0.016701197 -0.002897006 -0.16905148 -0.21545677 -0.048614416 0.09992921 -0.06782923

network.hidden_layer_6.bias f4 [20]
00000000: 51ff 3a3e 8b61 07be dd0a 9c3d aa84 563d
00000010: a9a3 d53c 1fbe c7bd a42f 4b3d 70f5 3ebe
00000020: cfd0 fa3b e787 423e 543d 9e3c 0123 93bd
00000030: 9d01 823c 4123 1c3e 05fc 4d3e 442a 1f3e
00000040: e97a a43d 9700 9abd d5c4 103c 9990 77bd
0.18261458 -0.13220803 0.076192595 0.052372612 0.026079016 -0.097530596 0.04960598 -0.18648314
0.0076542865 0.18997155 0.019316353 -0.07184411 0.01586991 0.15247823 0.20115669 0.15543467
0.08031256 -0.07519644 0.008835991 -0.060440633
