Experiencia calor/model.pth (torch, 18311 bytes, 17 tensors)

input_layer.weight f4 [20, 16]
00000000: 1e1a e5bd 3c9d 203e 2f07 32be 70ce c73c
00000010: 02ae 7c3e d48f 5ebe 817c 643e 55ae e63c
00000020: e565 cd3c 49b3 1c3e 25f0 313e 899a 18bd
00000030: 2284 76be 5a96 8c3d cc0c f4bd 9478 bdbd
00000040: 2468 a63d 2935 de3d b4bc 3d3e 8846 21be
00000050: 527d 1dbe c0fc 28bd c02c 483e efe8 1b3e
00000060: 7255 72be 61cd 05be c79e 5dbd bfca a23d
00000070: 3fce efbd 00d1 fabc bcf6 103e 8ccc ebbd
00000080: 683d 0c3e 4d59 813d bfe3 0dbe 70fd 98bd
00000090: 8ac6 70be e8d0 10be e634 993d aad2 c63d
000000a0: 5fe1 803e a27a 3c3e 6265 2dbe b16c 6dbe
000000b0: 2cb9 01be 9711 60be b61a 71be d0e2 f43d
000000c0: 6d0f 70be d2cf 68bc f038 8ebd 7247 693e
000000d0: 346b e0bd 5086 353d 0bfd c8bc bbe5 01be
000000e0: b4a6 e63d 7d5d 7b3d 0190 76be 8d4b 44be
000000f0: c7ab efbd 483f f03d 6a0d 753e 3056 0e3d
00000100: d4e2 37be 59fd 51bc f6b2 593d 6623 273e
00000110: 4cc1 263e 1874 a7bd cc91 3ebe 60b6 483d
00000120: d82b 65be 5499 f8bc 2af9 6b3e b024 3e3e
00000130: d3ab 2fbd cdbc 273e 4aa6 75be 9a21 19be
00000140: 0ddd 213e 38cd 193e 97f3 303d e888 35bd
00000150: ecdc 6ebe 4428 c7bd 6441 293e 30c1 bb3c
00000160: 6646 bebc 52a2 4dbe 766a 09be 577c 9fbc
00000170: e74c 83bd f43b e9bc 4a59 673e 2c62 f33d
00000180: 8a44 4abe d3d0 51bd 2479 34be 98f1 d93d
00000190: c03a c13c 0a2e 55be 21db e2bc e7b3 04be
000001a0: 2507 563d f9e3 643e e02d bf3d 13e7 793e
000001b0: cef1 08be 3333 4f3e fee7 35be b658 343e
000001c0: 365a eabd 8c40 dc3d b78a ce3d 7077 30bd
000001d0: e40b e43d a64d 733e 548f 6f3e d0d7 1fbe
000001e0: 0d78 593e 931e d23d 22b6 4c3e cede d9bd
000001f0: 1459 373c 5881 68be d0d1 16be c062 1f3e
00000200: 869a 573e 7824 ff3c 5747 b0bd 68a9 7cbe
00000210: 187f 56be f8c4 48bd 4428 743e 7645 0abc
00000220: 9ce3 5dbe a910 26be 87ed 69be ff1b bc3d
00000230: ddda 323d 715a 44bd b45a ab3d d867 3e3d
00000240: 4a76 033e 1426 563e c2c1 7fbe 6a18 5e3e
00000250: 9c72 5f3e 5422 29be 01ed 053e 02ee c33d
00000260: 3ad7 5b3c c657 71be 9274 6abe 51af 4abb
00000270: caad 9bbd 98a5 913d 5c61 9fbd b0b6 363e
00000280: 1333 4f3e b553 3c3e 0aeb 0bbe 6a42 4cbe
00000290: f6ff 353e f655 7e3e 896c a73d 508c 733c
000002a0: 41ae c2bd 6433 a8bd 3f23 263e 4f64 8fbd
000002b0: 13f2 403e 734f 093e b4f2 253e aa79 4dbe
000002c0: bdfa 34be c456 14be 49ed b9bd f411 c53d
000002d0: ac5e 45be 162f 46be a63e 1a3e 9d2d 68bd
000002e0: 68a7 7abe eb13 5d3e 3b0d ff3c 21e0 65be
000002f0: 56c6 27be bd76 8ebd b832 11bd 7413 5bbe
00000300: 7ae3 04be 004c 45be 64c1 51be 48d3 c7bd
00000310: 8051 31be d214 7a3e 6954 fcbd 3d19 a43d
00000320: ba93 d2bd 4b31 403e 772e 7fbe 88c5 bcbd
00000330: 9097 cb3c 9691 f43d 002d 7abb f007 073e
00000340: 95c8 143d 3b5b 13be 3b58 7cbe f055 aabd
00000350: 1ea5 373e 80db 3cbe 0ee2 3d3d fa60 833e
00000360: c5b5 a4bc 0dad 49be 1f18 113e 9fc8 f9bd
00000370: 0e83 c1bd 9f2f 4c3e d414 efbd 6009 06bd
00000380: dbf6 58be b821 c23c 7706 063e 9025 363e
00000390: 9075 683e f606 3f3e 1600 46be 4053 113e
000003a0: 0ef9 69be 201f b43c eaa4 613e 7369 16be
000003b0: 39cf ff3d ef44 5ebe 802d 72bb 2e8b 76be
000003c0: 779f 7dbe 341a c53d 95b6 11bd 04ef fd3d
000003d0: f45a 943d 14b0 c2bd 7d07 3fbe 5abb 5fbd
000003e0: 3604 85bd df4f f8bd 920c 27be ab00 28be
000003f0: cdc9 11be 4109 1f3d bc40 3abe 246c b93d
-0.11186622 0.1568498 -0.17385553 0.02439043 0.24675754 -0.21734554 0.2231312 0.0281593
0.025073001 0.15302767 0.17376764 -0.03725675 -0.24073842 0.06864615 -0.11916503 -0.09251514
0.08125332 0.10849983 0.18529016 -0.15749562 -0.15379837 -0.041256666 0.19548321 0.15225576
-0.23665407 -0.13066627 -0.0541065 0.07948827 -0.1170926 -0.030617237 0.14156622 -0.115136236
0.136953 0.06315861 -0.1385641 -0.07470214 -0.23513237 -0.14142191 0.07480793 0.0970815
0.25171944 0.18406156 -0.16933206 -0.23185994 -0.12668294 -0.2188171 -0.23545346 0.119573236
-0.23443384 -0.0142097045 -0.06944454 0.2278116 -0.109579474 0.044317544 -0.024534723 -0.12685291
0.11262265 0.061368454 -0.2407837 -0.19169445 -0.11702686 0.1173082 0.23930898 0.034750164
-0.17957622 -0.01281675 0.053149186 0.16322097 0.16284674 -0.0817644 -0.18610305 0.04900205
-0.22380006 -0.03034655 0.23044267 0.18568683 -0.042888474 0.16380616 -0.23989215 -0.14954224
0.1580698 0.15019691 0.043201055 -0.044320017 -0.23326463 -0.09724477 0.16528851 0.022919267
-0.023226928 -0.20081452 -0.13419518 -0.01946847 -0.06411152 -0.02847097 0.22592655 0.11883959
-0.19752708 -0.05122454 -0.17624336 0.106417835 0.023587584 -0.20818344 -0.02769238 -0.12959252
0.052252907 0.2235259 0.09334922 0.24404554 -0.13373491 0.20234375 -0.17764279 0.17611966
-0.114429876 0.10754499 0.100850515 -0.043082654 0.111350805 0.2376009 0.23394519 -0.1560967
0.21237202 0.10259738 0.19991353 -0.106382 0.0111906715 -0.2270559 -0.14728475 0.15565014
0.2105504 0.03114532 -0.08607357 -0.24673998 -0.2094692 -0.04901597 0.23843485 -0.008439412
-0.21668857 -0.16217293 -0.22844516 0.09185027 0.043665756 -0.047937814 0.083669096 0.046485752
0.12838092 0.20912963 -0.24976256 0.21689 0.21821064 -0.16517001 0.13078691 0.09566881
0.013418013 -0.23568639 -0.2289603 -0.003092725 -0.07601507 0.071116626 -0.07782242 0.17843127
0.20234327 0.18391307 -0.13663879 -0.1994721 0.17773423 0.24837479 0.08174998 0.014864996
-0.095058925 -0.08212927 0.16224383 -0.07001554 0.18842344 0.13409214 0.16205865 -0.20065942
-0.17673774 -0.14486223 -0.09078462 0.09622565 -0.19274396 -0.193539 0.15062961 -0.056684125
-0.24477923 0.2158963 0.031134238 -0.2244878 -0.16384253 -0.06956241 -0.03544876 -0.2139414
-0.129774 -0.19267273 -0.20483929 -0.097570956 -0.17316246 0.24422005 -0.123207875 0.08012626
-0.10282083 0.18768804 -0.24920069 -0.092173636 0.024852544 0.11941831 -0.0038173795 0.13186622
0.036324102 -0.1439027 -0.24643032 -0.083171725 0.17934081 -0.18443108 0.04635816 0.25659925
-0.020106206 -0.1969492 0.14169358 -0.121964686 -0.09448825 0.19940041 -0.116738945 -0.032723784
-0.21187918 0.023697719 0.13088404 0.17787766 0.22701097 0.18654999 -0.1933597 0.14191914
-0.22848913 0.021987498 0.22035566 -0.14688663 0.124906965 -0.21705984 -0.003695339 -0.2407653
-0.24767862 0.096241385 -0.035574514 0.12399104 0.072439104 -0.095062405 -0.186552 -0.05462203
-0.06494944 -0.12124609 -0.16313389 -0.16406505 -0.14237137 0.038827185 -0.18188757 0.09053829

input_layer.bias f4 [20]
00000000: dd51 acbd 190e 18bd 431e 1c3a 7815 353e
00000010: bb2b 58be 5e10 243e abea 2f3e 96db 4d3e
00000020: 6714 1ebb f8b9 3cbe 05cc 31bd ff97 013d
00000030: 354d b13d 0ced c23d 7846 fdbd 1d6a 2b3e
00000040: 0940 5cbd 82c9 a9bc a89d 6bbe 930b cabd
-0.08414052 -0.03712282 0.0005955437 0.17683971 -0.21110432 0.16021869 0.17179362 0.20103297
-0.0024121047 -0.18430316 -0.04340746 0.031639095 0.08657304 0.09517869 -0.123669565 0.16739698
-0.053772006 -0.02072597 -0.2300936 -0.09865489

hidden_layer_1.weight f4 [20, 20]
00000000: f310 513d 1290 2a3e 41fe 263e aeda 8a3d
00000010: e6e9 26bd 022a 3ebe 2eb9 f53c 35c7 cdbd
00000020: 9912 c33d bf2d 373e 59b2 633d 5a21 16be
00000030: c81e 553e 547c 533e 1dd5 19be 6f2d 62be
00000040: 4e14 323e a2a5 93bc 6cbc f33c 13f6 203e
00000050: b783 f7bd 0c73 4f3e f800 423d dce1 763b
00000060: 7e8f 9bbd a909 0cbe f148 923d 4a25 453e
00000070: e49d 8a3d 3c97 febc a4a9 9cbd b9be 40be
00000080: 60d8 48be 576b d1bd 5056 ff3d 4dd4 80bc
00000090: 1962 37bd 776c 553e 244a 583e 5a40 37be
000000a0: e644 203e 17fc 13be bb20 b0bc 7353 b6bc
000000b0: 15d7 283e 6627 ba39 736b 5dbe 7484 4c3e
000000c0: 938c 1f3e 151f 3cbd ab2a 30be 5909 973c
000000d0: edcd acbd 30ff 45bd dd2d e5bc aa19 903c
000000e0: 0370 9ebd 94f6 d83d 6417 393d 4bec 09be
000000f0: d199 a5bd 92e8 5e3d 3748 4c3c 5d85 203e
00000100: e59b 373e face 09be 4e76 5cbe 8492 98bc
00000110: 7868 d43d 8822 533e 3353 1dbe bf0c 8a3d
00000120: 129a 263d 52a4 7c3d 7752 5abe d137 5e3e
00000130: 13df 4bbd 059c a3bd 50be 243e 69bc 1e3e
00000140: 3027 8fbd 759f 073e 007b 083e c0b5 47be
00000150: dd09 d2bd 6d91 53be a8ec ea3b 1d45 50bd
00000160: 4f23 153e 9af1 f13c 2366 5d3d f3f7 11bd
00000170: 9ee4 17bd 1b38 63be 8cce 20be 76e4 2cbe
00000180: 8f42 0cbe cac0 57be 2b9c a83d c811 e8bc
00000190: 01ac 133e dc1d 143e 06dc fc3d a65c 03bd
000001a0: 0897 0abe 3652 f5bb cf60 053d b27a cbbc
000001b0: b382 2c3e 06e5 f43c d727 443e e87b ddbd
000001c0: 220a 9bbd c49a 773d 897f 1c3e 4a86 633e
000001d0: eb83 e23d 160c 0bbe f17c f3bd 851e 5ebe
000001e0: e483 b33d 0ee0 10be a47b 713d 8f89 16be
000001f0: 8b0c 10be 346d 9b3d ee3d 323e a1f1 2ebe
00000200: 13aa 49be adce 223d da13 9abd 32fd 113d
00000210: bb8e d93d 2d2c 3abe c586 51be a5ab 48be
00000220: f465 5abe b963 2fbd 4744 213e 962e 1abe
00000230: 6a3a ae3d 3bc1 b6bd b965 2fbe 0909 5b3e
00000240: d0c6 1a3e c258 f93c 404b 11bd b520 d6bc
00000250: 7210 693e f2e3 1f3d 3aee 29be 81d2 4fbe
00000260: a9ce 11be 2c40 4abe fd85 493e 2c71 893c
00000270: 0afb 033e ba1c a33d 56d0 d8bb a4f2 33bc
00000280: afcf 583e 3b96 463e e587 a3bd 22ca c33c
00000290: 1deb c83d 5751 3ebe 6b5d 223c 80f5 3bbe
000002a0: e5e3 b5bd 6ec7 203d d9bf 58be 7f8f 75bd
000002b0: 8963 e1bc 6527 45bd 0e31 b63d b803 06be
000002c0: 3e4e 763d ff8b 1c3e c411 1e3e 7be6 04be
000002d0: 6c4b 52be e8fc ecbd 3d60 a73d e567 d53d
000002e0: 46d8 19bd 7804 683d 8b40 4bbe 3f2c ebba
000002f0: 06a9 58be bcba 1e3e da1c 48be 2bea c93d
00000300: 38b9 b3bd 1b08 983c 6c69 033e ca35 4cbe
00000310: 59be 5e3e b3a5 5abe d406 f9bb fc2f 5e3e
00000320: 8761 cfbd 519e de3d 2555 8b3d 9e00 013e
00000330: bce3 d73c a92f 1e3e 5efe 883d d649 39be
00000340: fe19 4c3e a5cc cd3d 8634 cebd 367c fc3d
00000350: 2d00 e43b d2ec c23c ab2c 19bd 07bb a9bd
00000360: a429 e9bd 4eca 41be 42b1 9dba 2371 c33d
00000370: 7498 2bbd 6142 2f3e c330 663e 71eb 55be
00000380: ef11 9b3d d994 2d3e 862d 813d f3ce 553d
00000390: ed5f 483e c266 053e 1011 593e f0bc 5d3e
000003a0: f21b 373e fcef 1dbe fcad da3c 9991 403e
000003b0: c4ab 61be f72f bc3d e957 c43c afa7 573d
000003c0: a5fa 4ebe 419b 1d3e 184e b73d cbfa d6bd
000003d0: b7be a3bd 9559 28be 5b39 2b3e 6289 cbbc
000003e0: 9ed2 37be afa2 913d 8eea 3dbe aaf3 cabd
000003f0: f159 d4bc 8bfe 40be 10d6 633d e7af 04be
0.051041555 0.16656521 0.16307928 0.06779991 -0.040750407 -0.18570712 0.029995527 -0.10047761
0.095250316 0.17888544 0.055590007 -0.1466116 0.20812523 0.20652896 -0.15022703 -0.22087644
0.17390558 -0.018023316 0.029752932 0.1571887 -0.120856695 0.2025873 0.047364205 0.0037671244
-0.07595728 -0.1367556 0.07142819 0.19252506 0.067683965 -0.031077974 -0.07649544 -0.18822755
-0.1961379 -0.102255516 0.12467635 -0.015726233 -0.044771288 0.20842157 0.21122032 -0.17895642
0.15651283 -0.14451633 -0.021499982 -0.022256589 0.16488297 0.0003550604 -0.2162302 0.19972402
0.15580969 -0.04592808 -0.17203777 0.018437074 -0.08437715 -0.04833907 -0.02797597 0.017590363
-0.07736208 0.10593906 0.045188323 -0.13469045 -0.08085979 0.054421015 0.012468389 0.15675874
0.17930563 -0.13457862 -0.21529505 -0.018624552 0.10371488 0.20618641 -0.15363769 0.067407124
0.040674277 0.061680146 -0.2132052 0.2170098 -0.049773287 -0.07988743 0.16088223 0.1550156
-0.06989896 0.13244422 0.13328171 -0.19502926 -0.102557875 -0.20660944 0.007169325 -0.05084716
0.1456425 0.02953415 0.054052483 -0.035636853 -0.03708326 -0.22189371 -0.15703791 -0.16884026
-0.13697265 -0.21069637 0.08232912 -0.028328791 0.14421083 0.14464515 0.12346654 -0.03207078
-0.13534176 -0.007486607 0.032563027 -0.02483878 0.16846733 0.029894363 0.19155823 -0.10814649
-0.07570292 0.06045033 0.15283026 0.22219196 0.110603176 -0.13578829 -0.11889065 -0.2169133
0.087653905 -0.1414797 0.058955804 -0.14700912 -0.14067285 0.07589188 0.17406437 -0.17084362
-0.19693784 0.039747883 -0.07523318 0.035641856 0.10622927 -0.18180914 -0.20461567 -0.19596727
-0.21327955 -0.042819712 0.15748702 -0.15056834 0.08507235 -0.089235745 -0.17128648 0.21390165
0.15114903 0.03043783 -0.035472155 -0.026138643 0.2276018 0.039035745 -0.16594782 -0.20295145
-0.14238991 -0.19751042 0.19680019 0.016777597 0.12888733 0.079644635 -0.0066166325 -0.010983143
0.21172975 0.19393246 -0.07984904 0.023900095 0.09810469 -0.18585716 0.009909968 -0.1835537
-0.08881358 0.03925269 -0.21166934 -0.0599513 -0.027513282 -0.048133273 0.08896075 -0.13087356
0.06013321 0.1528778 0.15436465 -0.12978546 -0.20536584 -0.115716755 0.08172653 0.10420207
-0.03755977 0.056644887 -0.1984884 -0.0017942264 -0.21158227 0.15500921 -0.19542256 0.09859117
-0.08775562 0.018558552 0.12833184 -0.19942394 0.217523 -0.21352272 -0.007599691 0.21697992
-0.10126024 0.1087004 0.068033494 0.12597892 0.02635371 0.15447868 0.06689142 -0.18094572
0.1993179 0.100487985 -0.10068612 0.12328379 0.006958029 0.023794565 -0.037396114 -0.08287626
-0.113848954 -0.1892483 -0.0012030976 0.095430635 -0.041893438 0.17115165 0.22479539 -0.20890595
0.0757178 0.16951312 0.06307511 0.052199315 0.19567843 0.1302748 0.21197915 0.21654105
0.17881754 -0.15423578 0.02669429 0.18805541 -0.2203818 0.09188836 0.0239677 0.05265015
-0.20212801 0.15391256 0.08950442 -0.10497054 -0.0799536 -0.16440423 0.16721098 -0.024845783
-0.17951438 0.071111076 -0.18546507 -0.099097565 -0.025921794 -0.188471 0.055624068 -0.12957726

hidden_layer_1.bias f4 [20]
00000000: f04a 31be e08c c03c 9d56 52be 8735 c13d
00000010: 650e d9bd 558a 30be b0ba 4abe 10c2 89bd
00000020: 4299 083e 5df1 42be cca8 3e3c a47e 63be
00000030: ec57 5abe 36ab dbbd 38ab 4c3e 612a 413d
00000040: f674 61bc 71b1 16bd f388 1fbd 788d 083c
-0.17313743 0.023504674 -0.20540853 0.09434038 -0.10598449 -0.1724027 -0.19797778 -0.067264676
0.13339713 -0.19037385 0.011636924 -0.22216278 -0.21322602 -0.10726015 0.1998719 0.047159556
-0.013760796 -0.036790315 -0.038948964 0.00833451

hidden_layer_2.weight f4 [20, 20]
00000000: caaf 0b3e 80c0 09bc 1234 443e b605 6b3d
00000010: e643 20be 508a 92bd 1711 53bd 6efb 1cbd
00000020: f8b6 14be 3bca a4bb 0483 cfbc df75 c8bd
00000030: de12 2a3e 8ca8 043e 0f19 1abd a3fa 2b3e
00000040: 6d5c 11bd 6be9 053e cded fd3c 78f7 943d
00000050: 6658 0f3e ed8f 26be de8c 9cbd 7d3e 703d
00000060: aa8f 223e db92 21be e171 853d 1eea 873d
00000070: de77 59be a601 54be f01b a9bd afc5 603e
00000080: 11bf 073d 3b62 3d3d bdb5 5c3d 71c3 d63d
00000090: 9b09 1e3e d4de 9ebd 325d 283e 6dab 533e
000000a0: cedd 1d3e 7ede 85bd 34ff 693d 9611 003d
000000b0: 9d7e 9abd 4351 e7bd ec9e dabd fe99 b63c
000000c0: f2f9 02be 26dd 2c3e 0c0b f9bd 87e5 39be
000000d0: 2ff0 3abe a56b 0c3c 8255 e73c 0a9f f3bd
000000e0: 5836 50be ca5f 44bd 863a b9bd 662c 203e
000000f0: 5b62 08be 6379 8abd ea7c 4dbe 6b84 17bd
00000100: 0175 e1bd d58b 3c3e 18fe 91bd 6aba 95ba
00000110: 6cdb 06be d53d 37be 1998 523d d839 1b3e
00000120: a7cb 1c3e d341 3b3c 624f 51be f3e2 073d
00000130: d2b9 413e 68ae 1ebe 268d 383d a01c 923c
00000140: 4b50 1bbe c47c 183e 69c0 1e3e 9564 21be
00000150: aaaf 24be b86c 31be 849c 1ebe 63c3 323d
00000160: 6eaf 2c3e e116 633e 42ee 13be 3c1a 22be
00000170: 8850 28be 60db 963d 35a0 4a3e d7a5 f4bd
00000180: 1511 09be bc2c 70bc 235d 3d3e a334 52be
00000190: 0e42 ec3c 9e22 623d f03d 9bbd 9870 a0bd
000001a0: 23be 4cbe aaa1 0f3e 2152 a03d ae9a e33c
000001b0: 1192 213e f6c1 09be 2268 c03d 3ad9 fb3d
000001c0: d092 cd3d 8673 c2bd 1bb8 603e 51d4 16be
000001d0: c0fe d63a a3ef fd3d 11c5 6f3d 60af 90bd
000001e0: e041 313e 6faf 993d 30cb f8bd dd6e d6bd
000001f0: 7ee2 0b3e db3a c33c 08c6 113e 973b 10be
00000200: e582 d03c f088 393e e6c2 febd af31 333e
00000210: a9a0 5a3d 01dd efbd cf1b 883d e141 bcbc
00000220: 30fd 2f3e 3fa5 523e d2bd 303d ee00 74bd
00000230: 9372 c8bd 66ad aaba d247 5cbe 7c6f 003d
00000240: 0f0f 0fbe 15f1 46bd 5d1d 81bc 95a7 c4bc
00000250: 32ab 4ebc fe57 633e bc45 013e 3d6c f1bd
00000260: 5ca6 02bd 0a50 3c3e 5655 413e 129c 15bc
00000270: 18c1 373e 1417 53bc 5b4f 1dbe 43e7 1abe
00000280: 3afd b9bd aad6 07be df22 a73d 5677 4b3e
00000290: b6d6 96bd fa8c f23d c064 333d 67a0 e33d
000002a0: d7e7 943c c128 6bbd 63ba 12be 9b45 253e
000002b0: 1355 f73c 81d7 18be e431 5e3e 0e48 913d
000002c0: 8312 3a3c 2135 2fbe ff3b 66bd f5c8 073e
000002d0: 9f00 353e 00d0 603d d663 fd3d f3ec 403e
000002e0: 43d9 aebd 5f89 3b3e 26f1 dcbd 40c8 0b3e
000002f0: bc33 fd3d d3e8 4bbd b9ea bf3d 915f 41be
00000300: 97fc 38be 7edf dd3d cef3 803d 61e0 5b3e
00000310: 7f4e 0b3d 6944 4abe 7c50 a3bd dc8c 44be
00000320: 27fa 923d 605e 29be dfb9 62bd 4cfb 62bd
00000330: 9b94 d33d a189 013e 18b5 443e 4f85 553e
00000340: dd31 e13d ffd8 2f3e 39b5 0cbe 7c5a 193e
00000350: d05b 68bc 9e66 013d f3f3 0d3e 9426 e1bd
00000360: 9b67 5b3d 92cb 44bb 2770 853d 5d85 f3ba
00000370: c4f5 f93a 0213 913d 2f9e 163e 7bca fabd
00000380: dcdb 46be 8de4 093c 545e a6bd 9d1e 073e
00000390: 181d 0b3e d804 843d 88dd f1bd e53a adbc
000003a0: 3e6c 1ebb 7968 eebd 889a e6bd 9915 4cbe
000003b0: a691 92bc 38a9 26bd a7c3 2e3e 3008 17be
000003c0: 14a0 2abe 860a 963d 0aab c23c a428 c73d
000003d0: 9427 48be e1d2 19be 5500 c0bd d8c8 a53d
000003e0: 1222 273d b773 bcbc da9c 9a3c e27c 2bbe
000003f0: 4368 0d3e 5226 f0bc e830 4abe e011 5ebe
0.13641277 -0.008407712 0.19160488 0.057378493 -0.15650901 -0.07155287 -0.05152997 -0.03832572
-0.14522922 -0.0050289906 -0.025331028 -0.09788107 0.1660876 0.1295492 -0.037621554 0.16794829
-0.035488535 0.13077323 0.030997181 0.072737634 0.13998565 -0.16265841 -0.07644056 0.058653343
0.15875116 -0.15778677 0.06515861 0.06636451 -0.21237132 -0.20703754 -0.08257282 0.2195041
0.0331412 0.046236258 0.053884257 0.10486496 0.15433352 -0.07757345 0.16441801 0.20670862
0.15416643 -0.06536578 0.057128146 0.03126677 -0.07543681 -0.11294796 -0.10674843 0.022290226
-0.12790659 0.16881236 -0.1216031 -0.18153964 -0.18255685 0.008570586 0.028239015 -0.11895569
-0.2033323 -0.047942914 -0.090443656 0.15641937 -0.1331877 -0.06761434 -0.20067182 -0.036991518
-0.11008645 0.18412717 -0.07128543 -0.0011423354 -0.1316964 -0.17894681 0.051414583 0.15158784
0.15312062 0.011429268 -0.20440438 0.03317542 0.18918541 -0.15496218 0.045056485 0.017835915
-0.15167348 0.14891344 0.15503086 -0.15761025 -0.16082636 -0.17326629 -0.15489393 0.043643367
0.16863796 0.22176696 -0.14446357 -0.1583032 -0.1643697 0.07366061 0.19787677 -0.11945694
-0.13385423 -0.014659103 0.1849256 -0.20527892 0.028840091 0.055208795 -0.07580173 -0.078339756
-0.19994406 0.14026514 0.07828165 0.027783718 0.15778376 -0.13452896 0.09394862 0.12297292
0.10037768 -0.094946906 0.2194523 -0.1472943 0.0016402826 0.12399223 0.058537547 -0.070647
0.17310286 0.075041644 -0.1214813 -0.10470364 0.13660619 0.023831775 0.14235699 -0.14085232
0.02545304 0.18118644 -0.12439518 0.17499422 0.053375874 -0.11712075 0.06645929 -0.022980632
0.17186427 0.20570849 0.043149777 -0.0595712 -0.09787478 -0.0013021647 -0.21511772 0.03135632
-0.13970588 -0.048569757 -0.015761072 -0.02400569 -0.012614058 0.22201535 0.12624258 -0.11788223
-0.031896934 0.18389907 0.1888021 -0.009131448 0.17944753 -0.01288392 -0.15362303 -0.15127282
-0.09081502 -0.13265482 0.08160948 0.19869742 -0.073651716 0.118432954 0.043797255 0.11114579
0.018176956 -0.057411913 -0.14328913 0.16139834 0.030191934 -0.14925958 0.2169872 0.070938215
0.011356953 -0.17110111 -0.05620956 0.13260253 0.17676018 0.054885864 0.12372558 0.18840389
-0.08537533 0.18314122 -0.10788183 0.13650608 0.12363383 -0.049782585 0.09370942 -0.18884112
-0.18065105 0.108336434 0.06296502 0.21472313 0.034010407 -0.19752659 -0.079743356 -0.19194359
0.07176619 -0.16539907 -0.05535304 -0.055415437 0.103310786 0.12650158 0.19209707 0.20851634
0.10995839 0.17172621 -0.13741006 0.14975923 -0.014182046 0.031592004 0.1386259 -0.10993686
0.053565603 -0.0030028564 0.06515532 -0.0018579174 0.0019070436 0.070837036 0.1470878 -0.12245651
-0.19419807 0.008416307 -0.081234604 0.13195272 0.13585317 0.06446236 -0.11809832 -0.021146247
-0.0024173404 -0.1164102 -0.11259943 -0.19930114 -0.017891716 -0.040688723 0.17066823 -0.14749217
-0.16662627 0.07326226 0.023763198 0.097245485 -0.19546348 -0.1502185 -0.09375063 0.080949485
0.040803976 -0.023004396 0.01887362 -0.16746858 0.13809304 -0.029315148 -0.19745219 -0.21686506

hidden_layer_2.bias f4 [20]
00000000: ca93 f93c 5c26 ecbd 97c8 363e fc36 55be
00000010: 255e 4bbe fb78 a53d a6ca 34bd 440e 08be
00000020: 25fa 3fbc eb42 593e 03de 55be 4fa3 35be
00000030: ae5b 5cbe b4e6 043c 233d 57bd 982a c73d
00000040: 2361 2f3e c28e f63c 5d57 37be 1b58 103e
0.03046598 -0.11530754 0.17849956 -0.20821756 -0.19860132 0.08079716 -0.044138573 -0.13286692
-0.011717354 0.21216933 -0.20885472 -0.17738079 -0.21519348 0.008111645 -0.05254854 0.09724921
0.17126898 0.03009737 -0.1790442 0.1409611

hidden_layer_3.weight f4 [20, 20]
00000000: 6714 8e3d e415 2f3e 2e28 d83d e8cc 343e
00000010: 69f9 3a3d 6431 ccbd 5af0 fb3d 536c 85bd
00000020: 2502 813b bad8 573d 051b c5bb b841 633e
00000030: c1fc 4c3e 4ac5 33be 7a0c 2b3d 7521 283e
00000040: 4104 ebbd c91a 163e 2dfa 2d3e 0a96 bebd
00000050: e83b 4b3e e0f5 423e 08dd 4cbe 959d debc
00000060: 65a9 66bd 5745 e1bd 69ca f93d 4401 2d3e
00000070: 95a5 c7bd 2054 213e 9f3b 803a ce67 adbd
00000080: f3ea 28be 1235 cfbd 7dd0 393e a278 473e
00000090: 4eb7 0cbe e597 553e 2aef 45bd 0007 443d
000000a0: d19f e93d 4d43 2b3e a717 f9bd 4ef4 4bbd
000000b0: 6dcd a0bd 7c4d 823d 8f4e 49be cedf 3a3e
000000c0: 33dc 19be 9ac1 89bd 2020 e53d 8019 14be
000000d0: bd10 58be 68f8 c2bd be5d 07be 04a1 493e
000000e0: a145 d73d 3617 1bbe 8e70 443e 1aaa 123e
000000f0: 00dd 9abd 19e5 45be 9bde 623e db15 653e
00000100: 9962 e73d 4851 2bbe f022 40be 1d1c cb3d
00000110: 0f21 d53d 8966 5b3b 4ebf 8fbd 0081 1abe
00000120: f8ec 3c3e a0ab 7fbd f5f0 d03c 36bb 20be
00000130: c92f 2ebe 819c 933d e2da 403e 22c9 cabc
00000140: f317 0ebe 4308 27bc 0fc1 f0bd 4f4f 3c3d
00000150: 7039 9cbd 91b3 3c3e bd5f 8fbc 97a6 5fbe
00000160: 6012 293e 6306 5dbe 2527 6f3b d75d 4d3e
00000170: 61fc 62be ebe2 5f3d 8d58 1bbe 77dd d63d
00000180: a8f5 61bd c729 633e fa62 f6bd ccb9 103e
00000190: 8992 243c 8fff a13d 6487 42be 7391 503e
000001a0: 5ad0 29bd 5c69 2f3e d795 813d e1bc dcbd
000001b0: 41fa 723d baa8 27be 3cb9 af3d 1771 943c
000001c0: 69b1 29be 9ac1 d43b eb5d 08bd cec6 023d
000001d0: 1ad4 0b3d 37cb 9abc a20a 003e ec71 483e
000001e0: b0c9 24be aef9 5f3e 74a6 3b3e ca04 40be
000001f0: 911f b7bc 3cc5 e83d c8a1 8b3d 97ec dd3d
00000200: 2eea 2a3e 97a9 a3bd 52d2 2ebe 30a5 f23d
00000210: 8ab2 833c 4395 99bc c87f 453c 50a6 0d3d
00000220: 4aff a8bc 0242 14be b5aa 553d 1917 253e
00000230: 5174 10bd 38f8 bf3d d063 573e 0b89 6e3d
00000240: e52f 993d c499 b6bc 1015 47be 6b90 d93d
00000250: c4f0 febc dced 53be 0a55 a73d 2de1 c9bd
00000260: 171d 323e 084b 58be 8699 c23d 7ebc 92bb
00000270: d4ba e43c a37c 153e a004 c1bd 361e 003e
00000280: 14f4 6abe 65e6 1dbe 8118 4abe b21f 23be
00000290: b163 c83d 8fc5 05bd e961 7e3c 48a6 99bc
000002a0: d085 9c3d 5f89 0b3d 8819 31be 2027 3cbb
000002b0: de0a 343a 26ef 3e3e f54f 143e 5410 c4bd
000002c0: 5619 f9bd 46fd 89bd 9730 dbbd b016 5a3e
000002d0: 09fd 3bbd e0ca f83d dd78 1ebe 4883 613d
000002e0: aa46 c43d cfda 91bc 51fb 39bc 0676 3d3e
000002f0: 0a9a 23be e309 833b 06bf e23d ba32 71bc
00000300: e610 08be ed2b 30be 2630 cd3d 8224 9ebc
00000310: b4fc 9a3d 2ee3 513e 825d 2ebe 5f7e 403d
00000320: 2d2e 203e 3588 74bd ffb2 d8bd df2a 663e
00000330: a40a 613b ad02 acbc 14b3 523d 9bf6 043e
00000340: 0d7d d03d 03bc 6abe 705c 41be f6f8 1fbe
00000350: a74f fbbd e9be bfbd a8c8 023e f7f4 423e
00000360: b435 b63d 69f7 83bb 560c 303d fe3b 283c
00000370: e3c1 4bbe f978 533c f519 b83d 5b5c 54be
00000380: ef65 0c3e 9ab8 6fbc 25c3 debd b380 2d3d
00000390: ac66 47be 3925 4abe 284e 41be 1f99 03be
000003a0: 4781 193d 7ed7 2cbe cb64 163e 9d1f 53be
000003b0: 67aa 7abd fdbc 593e cc2c 353e b47a a4bd
000003c0: c8a5 233e 6257 5cbe 4604 e0bd dcef 133e
000003d0: 31cd 53be 3568 0b3e 6bd8 4dbd ac1d 493e
000003e0: d42b 563e 436a 5ebe 78e9 8cbd a4d1 24be
000003f0: 2b4c dfbd 02cb 303e bf0d 573e 38d3 c7bd
0.06937485 0.17098194 0.10554539 0.1765629 0.045648012 -0.09970358 0.12301703 -0.06514802
0.003937023 0.05269692 -0.006015184 0.22193038 0.20018293 -0.17555729 0.041759945 0.16419013
-0.11475421 0.14658655 0.16989966 -0.093059614 0.19847071 0.19039106 -0.20006192 -0.02717475
-0.05631389 -0.10999554 0.1219681 0.16895014 -0.09748379 0.15754747 0.0009783393 -0.08467065
-0.16495876 -0.10117544 0.18145938 0.19479612 -0.137418 0.20858724 -0.048323788 0.04785824
0.11407436 0.16724892 -0.121627145 -0.049793534 -0.07851682 0.06362435 -0.19658874 0.18249437
-0.15025406 -0.0672638 0.11187768 -0.14462852 -0.21100135 -0.09520036 -0.13219354 0.19690329
0.105113275 -0.15145573 0.19183561 0.14322701 -0.07561684 -0.19325675 0.2215523 0.22371618
0.11298103 -0.16730225 -0.18763328 0.099174716 0.10406696 0.0033477864 -0.0701891 -0.15088272
0.18449771 -0.062419534 0.025505522 -0.15696415 -0.17010416 0.07207585 0.18833497 -0.02475411
-0.13876323 -0.010194841 -0.11755573 0.045974072 -0.07628143 0.18427874 -0.017501706 -0.21840893
0.16510916 -0.21584468 0.0036491838 0.20055328 -0.22166587 0.054659765 -0.15170498 0.1049146
-0.055165917 0.22183906 -0.12030597 0.14133376 0.010044702 0.07910072 -0.1899696 0.20367984
-0.041458465 0.17130035 0.06327408 -0.10778213 0.059320692 -0.16372958 0.085802525 0.018120332
-0.16571583 0.0064928057 -0.033292692 0.031927876 0.034137823 -0.018895729 0.12504056 0.19574708
-0.16092563 0.21872589 0.18325216 -0.18751827 -0.02235392 0.113657445 0.06817967 0.108361416
0.16690895 -0.07991331 -0.17072418 0.11847913 0.016076345 -0.018747931 0.012054391 0.034582436
-0.020629544 -0.14478305 0.052164752 0.16122092 -0.035267178 0.09373516 0.21034169 0.058236163
0.07479838 -0.022290118 -0.19441628 0.10623249 -0.031120665 -0.20696205 0.08170517 -0.09857402
0.1739391 -0.21122372 0.095019385 -0.0044780364 0.027921118 0.14598326 -0.0942471 0.12511525
-0.22944671 -0.1541992 -0.1973591 -0.1593006 0.097846396 -0.03265911 0.015526273 -0.018756047
0.0764271 0.034066554 -0.17294896 -0.0028709844 0.00068680744 0.18645915 0.14483626 -0.09573427
-0.121630356 -0.06737761 -0.10702627 0.21297717 -0.04589561 0.1214807 -0.15475793 0.05505684
0.095837906 -0.017804531 -0.011351422 0.18502054 -0.1597673 0.0039989813 0.11071591 -0.014721567
-0.13287696 -0.17204256 0.10018949 -0.019304518 0.075677305 0.20496818 -0.17027858 0.046995517
0.15642615 -0.05970021 -0.10581016 0.22477292 0.0034338618 -0.02099737 0.051440313 0.12984698
0.101801015 -0.22923283 -0.18882918 -0.15622315 -0.12271052 -0.09362585 0.12771857 0.19038759
0.08896962 -0.0040272963 0.042980514 0.0102682095 -0.1989818 0.01290726 0.08989326 -0.20738356
0.1371076 -0.014631415 -0.108770646 0.042359065 -0.1947276 -0.19740762 -0.1887747 -0.1285138
0.037476804 -0.16879079 0.14686887 -0.20617528 -0.061197665 0.212635 0.1769287 -0.08031216
0.1598121 -0.21517709 -0.10938315 0.14446968 -0.20683743 0.1361397 -0.05025522 0.19640225
0.20915157 -0.21720223 -0.06880468 -0.16095597 -0.109032 0.17264941 0.21001337 -0.09757084

hidden_layer_3.bias f4 [20]
00000000: eadc 36be eaec 0dbe e5e1 403e a994 e63d
00000010: 597b e3bb 76aa 0e3e f9c6 64be fc14 13be
00000020: ce17 f4bd 1cda 133e 6346 0e3e a120 dc3d
00000030: 2177 923c 9d90 52be 8f65 6e3d 585b 16be
00000040: 4449 0c3e 6c82 433e 07bc 35be 521b fdbd
-0.1785771 -0.13859907 0.18836172 0.112588234 -0.0069421944 0.13932213 -0.22341527 -0.14363474
-0.11918603 0.14438671 0.13894038 0.10748411 0.01787907 -0.20562978 0.058202323 -0.14683282
0.13699824 0.19092721 -0.17747508 -0.123587266

hidden_layer_4.weight f4 [20, 20]
00000000: 1355 dbbc 65b4 d33c 3515 1bbe d0a8 9cbd
00000010: e860 f83c 7cf0 2fbd fa2f 123d 9867 59bd
00000020: b6fc 093e d5ec a53b ea60 41be e42c 2cbe
00000030: 4ca2 13bd a8c1 0fbe cf55 23be c956 c43d
00000040: 3649 583d cdea 42be df99 d6bc d670 41be
00000050: 7fe3 233c 9cd0 ed3c 7872 343e 9a99 383e
00000060: e162 14be 0000 09be a8c7 5f3e 3ca7 a1bc
00000070: c94c 373d aa58 b0bc 3b4a 50bd 6a00 4abe
00000080: ba79 06be 8d4f 0fbd 6ba9 343e a61d 463d
00000090: 297d 003d 8d34 75bd 2989 2cbe 1a31 11be
000000a0: e934 64bd e88d 0fbe c2f6 723d fa74 bebc
000000b0: a47b c43a c908 583d e256 5f3d 6530 b1bd
000000c0: 94ad 083e 0b80 623e 78bc 213e 821a d53d
000000d0: 1b26 283e c63d f7bd 6500 13be 275d c3bd
000000e0: c9d5 723b 975b e23d fff7 993d 2baf 193d
000000f0: a35c d73c 0c4f 86bd 52d8 5dbe 62a8 a1bd
00000100: bccd b93d 0abc 963d ba81 133e a1bd f1bb
00000110: 753b 8ebd 670f 24be 68fe e33c 6175 09be
00000120: 2cb7 eb3d b663 01be b4f1 b43d 9105 06be
00000130: c2c5 88bd b59b 65bd 46a9 2d3e c00e 0abe
00000140: 4c73 c03c de3f a2bd ab6a f5bd 514e 403e
00000150: 8996 a2bd 41e4 a5bc 70e1 51bc de55 ea3d
00000160: 7590 333e e05d 4e3d 6bb5 153e 96c3 0b3e
00000170: 40fc d63d 13fd acbd 1d3c 3ebe 3612 9c3d
00000180: 0544 47be 69d5 84bd 24e7 9a3d bd26 ebbd
00000190: 560a 85bd 0347 39be 6181 f93d b107 afbd
000001a0: 5b1d edbd 6f48 0dbe a269 ea3d 9c59 263e
000001b0: ffa9 2d3d 1847 0dbc f2ec 233e 4e70 283e
000001c0: 03bf 1ebd 4488 febd a53c 1abe 1cd2 f23c
000001d0: 873e 5bbe 9dff 0abe e40d 233e 3b74 533d
000001e0: 7bdb 8abd 7504 873d 834c 353e d048 ea3d
000001f0: a0fd 353d d4c1 57be febe 423e eeb2 87bd
00000200: d634 86bc e2f4 d1bd 5617 613d a002 fb3d
00000210: fcc0 e5bd 43bc 2bbe 96c3 463e 3e6c 5a3e
00000220: 15c4 c6b9 4941 46bd c2f4 2d3e b730 863c
00000230: b44d 333e 4ef2 4e3e 587d 223e 20ae e93c
00000240: 5203 4c3e 5035 03be 9ae8 2c3d 527e bcbc
00000250: 2e39 313d 16cf 2abe e056 76bd 6afb d2bd
00000260: 29aa ee3d 7102 843d 49c1 26bd 0bce 12be
00000270: 0aee b33d 7ac2 4ebe 3342 5c3e 07e6 903d
00000280: 5a33 243b 0b45 64be 54d2 c8bb 1b88 cabd
00000290: 006e 6d3d aad7 533e 5404 83bc f240 f6bd
000002a0: 483f 55be 7843 5a3e be96 c2bb 7a57 0e3e
000002b0: 59ad 523e 88f7 5abe beff 013e d2db 5cbe
000002c0: 90b6 4fbe 3209 3c3e 659a 583e 7d7a e23d
000002d0: 6469 29be 2a80 5f3e 0260 8d3d 0ef4 183e
000002e0: aa36 53be eee9 293e ffab 9c3d 68f9 28be
000002f0: ba10 4ebe 6101 40be 5227 7b3d 0aac cdbd
00000300: a782 56be 98f2 aabc 7928 133e a02c 14be
00000310: ff88 283e 0279 e73d 3c17 12b9 213d 1d3c
00000320: 79d0 043e 8dfa 483e 90e4 febd 8585 a63d
00000330: ad23 27be 04b0 3dbe b6b5 95bd 46b3 b23d
00000340: c316 43bc fad9 91bd d434 42bd 78e1 f13d
00000350: a3f5 8dbb 822e 4ebe 62b5 bf3c ea00 f93d
00000360: f3e7 87bd 970f 4b3e 6e18 50be 33c9 51bd
00000370: e24a 563e 14ce 0cbe 20eb 39be 0ab9 303d
00000380: 54d5 893d 21f8 7f3d 8c65 32bd 9e93 36be
00000390: 2b57 953d d444 55be 1691 94ba 515e 323e
000003a0: 7035 21bd 0cb3 0c3e dbf5 1f3e 4a7b 5ebe
000003b0: a6e0 8fbb 2627 2abe 463e 433e 3433 26be
000003c0: ad09 4bbe 23da 16bd fb8b 57bd 008c 5d3b
000003d0: 4882 09be 504c 423e a1c9 41bc 1e25 8f3c
000003e0: 5328 b0bd ce43 5bbe d6f0 87bd 3854 793c
000003f0: b019 b23c 2f59 373e 3c06 b6bd b28d 833d
-0.026773965 0.025842855 -0.15144809 -0.07649386 0.030319646 -0.042953953 0.035690285 -0.05307731
0.13475308 0.005063633 -0.18884626 -0.16814 -0.03604345 -0.14038718 -0.15950702 0.095868655
0.052804194 -0.19034882 -0.026196418 -0.188907 0.01000297 0.029030137 0.17621791 0.18027344
-0.14490844 -0.13378906 0.21853507 -0.019733064 0.044750962 -0.021526653 -0.05085204 -0.1972672
-0.13132372 -0.034987975 0.17642753 0.04836812 0.031369362 -0.05986457 -0.16849197 -0.14178887
-0.05571452 -0.14018977 0.059317358 -0.023249138 0.0014990461 0.052742753 0.054526217 -0.08651809
0.13347465 0.22119157 0.15794551 0.104054466 0.16420786 -0.12072329 -0.14355619 -0.09539252
0.0037053695 0.110526256 0.075180046 0.03752057 0.02628929 -0.06558046 -0.21664551 -0.078934446
0.09072444 0.07360084 0.14404956 -0.007377342 -0.06944934 -0.160215 0.027831271 -0.13423683
0.11509547 -0.12635693 0.08835164 -0.13088061 -0.06678344 -0.056056697 0.16959104 -0.13482189
0.023492478 -0.07922338 -0.11983236 0.18779875 -0.079388686 -0.020250442 -0.012810096 0.11442159
0.17535575 0.050382495 0.14619987 0.13648829 0.104973316 -0.084467076 -0.18577619 0.07620661
-0.19459541 -0.06486017 0.07563618 -0.11481998 -0.06496112 -0.18093495 0.1218288 -0.08546389
-0.11577865 -0.13797162 0.11445929 0.16245121 0.04239845 -0.008622907 0.16008356 0.16449091
-0.03875638 -0.12428334 -0.15062197 0.029641204 -0.21410571 -0.13574071 0.15923268 0.051624518
-0.06780144 0.06592647 0.17704968 0.11439669 0.04443133 -0.21070033 0.1901817 -0.06625925
-0.016382616 -0.10251786 0.054953896 0.1225636 -0.112184495 -0.16771035 0.19410548 0.21330354
-0.00037911595 -0.048402105 0.16987899 0.01638065 0.1751011 0.2020962 0.15868127 0.028525412
0.19923142 -0.12813306 0.042214014 -0.023009453 0.04326742 -0.1668056 -0.060141444 -0.1030186
0.11653549 0.06445778 -0.040711675 -0.14336412 0.08785637 -0.20191374 0.21509628 0.07075124
0.0025055022 -0.22291963 -0.0061285887 -0.09889241 0.057966232 0.20687738 -0.015993275 -0.12024106
-0.20824921 0.213148 -0.00593838 0.13900557 0.2057394 -0.21383488 0.12695214 -0.2156823
-0.20284486 0.18362883 0.21152647 0.11058519 -0.1654411 0.21826234 0.06903078 0.1493685
-0.20626321 0.16593143 0.07649993 -0.16501391 -0.20123568 -0.18750526 0.061316796 -0.100425795
-0.20948277 -0.02086763 0.14370908 -0.14470148 0.1645851 0.11302377 -0.000139323 0.009597094
0.12970151 0.19626828 -0.124459386 0.081309356 -0.16322203 -0.18524176 -0.07310049 0.087256
-0.011907282 -0.07121654 -0.047413662 0.11810583 -0.0043322607 -0.20134929 0.02340192 0.121583775
-0.06636038 0.19830166 -0.20321819 -0.05121727 0.20927003 -0.13750488 -0.181561 0.043145217
0.06730142 0.062492494 -0.043553874 -0.17829749 0.072920166 -0.20827037 -0.0011334743 0.17418791
-0.039357603 0.13740176 0.1562113 -0.21726719 -0.004390794 -0.16616496 0.19066724 -0.1623047
-0.1982791 -0.036829125 -0.05262373 0.003380537 -0.13428605 0.18974423 -0.011827857 0.017473754
-0.08601441 -0.21412584 -0.06637733 0.015217833 0.021740764 0.17905115 -0.08887908 0.064235106

hidden_layer_4.bias f4 [20]
00000000: a6a4 d6ba 6542 a03d b739 143e 18ef b3bc
00000010: e2e1 9b3d e969 683c 8877 26be ed60 e5bd
00000020: e090 f8bd af91 4f3e 28af 4ebb 44f5 cfbd
00000030: 5578 4d3e 49ca 2f3b 83c8 373d 193d 493e
00000040: be71 0abe 0ec9 2dbe bb4f 843d df47 20be
-0.0016375973 0.07825164 0.14475141 -0.021964595 0.07611443 0.014185407 -0.16256535 -0.11200128
-0.12137008 0.20270418 -0.0031537507 -0.101542026 0.20065434 0.0026823452 0.044868957 0.19652213
-0.13519952 -0.16971228 0.0646052 -0.15652417

hidden_layer_5.weight f4 [20, 20]
00000000: 0baa 3cbe c95e 443e 91e6 093e 8846 01be
00000010: 5636 153e 7a22 0dbe 1b6d 803d ed2c 2d3e
00000020: 8f38 f4bd a288 0fbd 176a 573e c319 e13d
00000030: 826b 3b3e b233 553e 6c9c 4d3e 1a05 2b3e
00000040: 665c 03be 074a 4cbe 2f9b 263d 8347 60be
00000050: 5a53 4dbe 30e1 3fbe 7aa8 d03d da77 513e
00000060: cbf2 f0bd 1d3c 12bd 2903 55be a08a 49be
00000070: a061 08bb 53a4 093e 3a7d 2b3e 7fb4 5b3e
00000080: 7fd1 00be 9f1a f23d 8d64 54be a228 163e
00000090: b42a fd3d 876b 003e da2d b3bd d249 4ebe
000000a0: 97ed f73d 4710 84bd 53e1 e9bd 459c 18be
000000b0: ed4f c33d 9eb6 d4bd 4988 37be 344c dc3d
000000c0: 9baa bc3d 9b36 fe3d 03fe 26bd 4def 29be
000000d0: 5241 383d d495 35bd 4d1c 54be 04c0 7abb
000000e0: a6af c93d f087 123e e3c5 28be d09b 8d3d
000000f0: 915f aebd eaf2 3d3d 33f4 67bd 7adc 373e
00000100: 47d8 fdbd 75cd 04be 3608 423e 73ca dcbd
00000110: f2c2 b83d 67e1 633e 274e 1f3e 8552 a1bd
00000120: 8b68 9c3d d20f 4bbe 82b3 34be 7bd6 9d3c
00000130: e39b 0e3e be50 15be 80aa 2bbe 2a5f 8c3c
00000140: cd35 14bd be8a 533e dfa0 4e3e c48e 623e
00000150: bec1 ddbd a7b5 2bbe b943 7a3d f26f 133e
00000160: 0208 583e 6da2 60be f503 6d3d 71ad 31be
00000170: 401a b63d 0f5e 253d ad57 603e 4641 fb3d
00000180: 314d ba3d 5d66 103e 3cd9 49be 6959 1dbd
00000190: 1d5c 183e 370d 34be 7ed2 4a3c 9173 2abe
000001a0: 6270 2abe 6c29 c63c 5c9c 6f3c ef2b 24be
000001b0: a8e5 d53d ebe6 893d 3898 33be 2b29 bbbc
000001c0: c91e c8bb 92ed 4fbe 291e 32be 8a70 003d
000001d0: ba90 9c3d cef3 f23d 1e90 483e 2811 1cbe
000001e0: 1abf 403e e8d3 7cbc a525 0d3e 55d3 bfbd
000001f0: b25f 3e3e 98ec d53d 5b94 bd3d 5cdc fe3d
00000200: 3934 d83d bf9b f3bd 50be 48be 853b 29be
00000210: d1cb 60be afff 8fbc 7b6a 3ebe 8270 21be
00000220: fa1d 593d 1d53 4fbe eda0 15be 242b ce3d
00000230: d604 1bbd 50cb 3ebd 5727 26bd 4762 02be
00000240: 59e3 123d d8d1 2fbd 6aed 07be 9dfa 183e
00000250: bc5f b8bd 73db 08be 668f b13c 14ee 533e
00000260: 8925 dfbd 1efd 5abe 553a 81bd 82bc 00be
00000270: e7c9 2bbd 6631 b53d 9349 fb3d fa73 073e
00000280: b102 b93d e286 393d 0e2e 003e 617c 3c3e
00000290: dc7d 2abe 41bc ef3d 2a0a aa3c 4332 da3d
000002a0: df2f 92bd 8b0c a03d 8257 953b a73a 1f3e
000002b0: ef94 4a3d 1db7 39be 7b5e c8bd c9ba 253c
000002c0: 6eeb eabd daee 153d 46be 693e 4921 463d
000002d0: ad31 46bd 595c 72bd f46e 0cbe d28f 59be
000002e0: 2d33 c33d 0212 e7bd 9274 b1bd eceb 31be
000002f0: 3b0d e5bc 80fe 823d a250 2f3e c0cb 503e
00000300: 8bec 8bbc 6f3b a3bd 2b0f cdbd 41b7 2bbe
00000310: f05e 3bbe dd3f 0dbe ecd1 48be 6695 46be
00000320: 0e1f 273e ab25 42be aba4 843c da3d 443d
00000330: 4f85 4fbe 98fa 41bd f6d6 a13d 0e06 263e
00000340: c52c 82bd 6d8f 143d aeab fabd ddfa 193e
00000350: caf1 fabc 89ef 0d3e dd1f 423e 2698 1f3e
00000360: c07e 6a3c 7c34 bdbd 440e 3c3c ab85 083e
00000370: 21d2 1fbd 7b5b 2cbd dcab 07be 6d5f 453e
00000380: ffff 75bc 4349 43bc 777c 01be d8b4 cd3c
00000390: 6e75 dabc f7cf 4fbc 31f9 f2bd 0a0d c1bc
000003a0: 7113 203e f0f4 ef3d 0ab2 4cbd a757 10be
000003b0: d053 d7bb bb72 843d 7311 96bd d0f8 a53b
000003c0: 8ac6 273a ff87 39be bfb6 31be 9d4c 85bc
000003d0: e896 023e bbf7 553e 6837 3a3e 45a1 9a3d
000003e0: a62e 1fbe cbe9 23bd 1279 3ebd 8d78 a9bd
000003f0: 7172 c0bd ed21 78bd b33b 29be 3b9c 543d
-0.18424241 0.19176783 0.1346686 -0.12624562 0.14571509 -0.13782683 0.0627081 0.16911669
-0.1192485 -0.035042413 0.21036564 0.10991242 0.1830273 0.20820501 0.20079201 0.16701165
-0.12828216 -0.19950114 0.04067534 -0.2190228 -0.20051327 -0.18738246 0.10188384 0.20455876
-0.11765059 -0.03570186 -0.20801987 -0.19681787 -0.0020810142 0.13441591 0.16746989 0.21455573
-0.12579916 0.11821484 -0.20741482 0.14663938 0.123616606 0.12541018 -0.0874898 -0.20145348
0.121058635 -0.06448417 -0.1141993 -0.14903362 0.09536729 -0.10386394 -0.17923082 0.10756722
0.09212228 0.12412759 -0.04076959 -0.16595192 0.04498417 -0.04433234 -0.20713921 -0.0038261423
0.098479554 0.14309669 -0.16481738 0.069144845 -0.085143216 0.04637424 -0.05662937 0.17955199
-0.12394767 -0.12969 0.18948445 -0.107808016 0.09021558 0.22253953 0.15557157 -0.078770675
0.076371275 -0.19830254 -0.17646602 0.019267311 0.13926654 -0.14581582 -0.1676426 0.017135222
-0.03618412 0.20658395 0.20178555 0.22124773 -0.10827969 -0.16768514 0.06109974 0.14398172
0.21096805 -0.2193696 0.0578651 -0.17351319 0.088917255 0.040372904 0.21908446 0.12268309
0.09096754 0.14101548 -0.19711775 -0.038415346 0.14878888 -0.17583166 0.012379287 -0.16645648
-0.16644433 0.024189673 0.014624681 -0.16032384 0.10444194 0.06733497 -0.17538536 -0.022846779
-0.0061071855 -0.2030547 -0.17394318 0.031357326 0.07644792 0.11862908 0.19586226 -0.1524092
0.188229 -0.015431382 0.13783891 -0.0936648 0.18591192 0.10445517 0.09256812 0.12444374
0.10556836 -0.118949406 -0.19603848 -0.16526611 -0.2195275 -0.017577974 -0.18595307 -0.15765575
0.053007104 -0.20246549 -0.1461217 0.10066822 -0.03784641 -0.046580613 -0.04056486 -0.12732802
0.035861347 -0.042924732 -0.1327416 0.14939351 -0.09002635 -0.13364963 0.021674823 0.20696288
-0.10895831 -0.21385619 -0.06309954 -0.1257191 -0.041940596 0.08847313 0.122698925 0.13227835
0.090337165 0.04529465 0.12517568 0.18406822 -0.16649574 0.117058285 0.0207568 0.10654118
-0.07138037 0.078148924 0.004557551 0.15549718 0.04945844 -0.18136258 -0.09783646 0.010115334
-0.11470686 0.03660474 0.2282649 0.048371587 -0.04838722 -0.0591701 -0.137142 -0.2124627
0.095312454 -0.112827316 -0.08664812 -0.17375153 -0.02796041 0.06396198 0.17120603 0.20390224
-0.017080566 -0.079703204 -0.10012659 -0.16769125 -0.18297935 -0.13793893 -0.19611329 -0.19392928
0.1632044 -0.18959682 0.016191801 0.04791055 -0.20265697 -0.047358125 0.07902329 0.16213247
-0.06356195 0.036269594 -0.122397766 0.15037103 -0.030632872 0.13860907 0.18957467 0.15585384
0.014312446 -0.09238526 0.011478011 0.1333224 -0.039018754 -0.04207943 -0.13249153 0.19274683
-0.0150146475 -0.011919322 -0.12645136 0.025110647 -0.026667323 -0.01268386 -0.11863936 -0.023565788
0.15632416 0.1171664 -0.04997448 -0.14095937 -0.0065712705 0.064671956 -0.07327547 0.005065061
0.0006400129 -0.18118285 -0.17354868 -0.016271884 0.12752879 0.20895283 0.18185198 0.07550291
-0.15545139 -0.040017884 -0.04650218 -0.08274946 -0.09396828 -0.06057923 -0.1652668 0.051906805

hidden_layer_5.bias f4 [20]
00000000: 683d 0e3e 2460 513c 9fb3 f2bd b1bb 17bd
00000010: 26ea 1bbe 49dc c1bd 8e3f 463e 8bac 8cbd
00000020: 3e3e 093e fc2a 983d 1ffb c63d 020f 1a3e
00000030: 8baf 613e 705e 6d3d 2890 4d3e 5687 06bd
00000040: 51bc ce3d f58c f33d e7d1 173e a039 393e
0.13890612 0.012779269 -0.11850666 -0.03704423 -0.1522604 -0.09465844 0.19360182 -0.068688475
0.1340265 0.074300736 0.09715866 0.15044788 0.2203962 0.05795139 0.20074522 -0.03284391
0.10094512 0.1189212 0.14826165 0.18088388

hidden_layer_6.weight f4 [20, 20]
00000000: 5e80 0abe f687 ffbd b154 ffbd e956 00be
00000010: 930e f3bd acd3 12be c607 ec3d 5a28 0c3d
00000020: c21e 63be 5e01 013e e064 2ebd 55fe 3a3e
00000030: d8ee 52be c470 9abd 1520 be3b c20a 85bc
00000040: 6a9b 3bbd 67b8 f13d 5fef efbd 59ed 9bbd
00000050: 50ac 37be 511f 30be bafa d9bd 3e37 b83d
00000060: 11eb 97bd 14ae 15be b04f 4a3e 0784 f53c
00000070: e923 223e e704 21be 9e7f a53d 4f9a 783c
00000080: 7a10 373e 6a4f 173e 2c29 3fbd 6559 64be
00000090: b2df 6f3d 8caa ce3c 6c22 403e 628f 26be
000000a0: fff9 553e 6232 333d 2630 36be 1e40 02be
000000b0: b079 2d3e 1d45 6f3d 9e5b b7bd c7ba 463e
000000c0: 532d df3d de78 3cbe d2a7 463e 92bf 083d
000000d0: d95e cabc 2553 c13d abc4 2abe 9ac6 f03d
000000e0: 5491 2cbe c601 c63d c487 cfbd a4c4 a63d
000000f0: 60a9 27be daaf 3c3e fad1 1abe 9abd 1dbe
00000100: d190 8a3d fc55 b23d 938f 873c 9fc7 d93d
00000110: 2367 803d d0b0 003e 1083 54be e7b7 3c3e
00000120: ba41 afbc a27c 253e e817 083e 34f9 ee3d
00000130: adbf 9dbd 3bb9 2bba 3569 b5bd da7b efbd
00000140: f36c f5bd a81c 54be 778a 2f3e 4d69 d33b
00000150: 2a38 97bd ecda 21bd 3074 8c3d a294 25be
00000160: 623d 393e a555 a0bd d03f 083e 1e51 0f3e
00000170: 9e21 4bbe 1e2b 5a3e e322 f4bd 3bb7 553e
00000180: 1532 ab3c 2e63 cc3d fcdb 253d 6906 1a3e
00000190: 4357 93bb 0281 5d3e 16b7 c1bd c478 2d3e
000001a0: e4ef 90bd 021c 37be 281b 90bd 13fa 27be
000001b0: a6ca 9d3d fde3 a53d 0e92 09be e094 b0bd
000001c0: 01ca a0bd 66ad e3bd d8bd 1fbd a0d1 a0bc
000001d0: 9a40 2d3e 9021 fa3d 0869 5fbe 236f 453d
000001e0: 74a8 ba3c fcc9 4e3d 3d31 1bbe e379 653d
000001f0: b0a2 053e 336d 253e 7059 f03c 524d 40be
00000200: 97a3 2ebd a3e5 aabd 128e 133e 1ff6 d7bd
00000210: 97c4 6dbd 4aea 5c3e b4e9 b9bd fd9d 0fbd
00000220: 5b11 8ebd 66e5 343e b734 4ebe 26e6 0f3e
00000230: 7529 2fbc 7dab 11be faa9 233d d340 283e
00000240: 98cf 2c3e 0bfb 52bc ad5c 3ebd 95cc 963b
00000250: a882 ce3d ed4f 96bd 2c54 58bd 545e 143e
00000260: be31 56be a79e 2cbe d675 44bd d367 2c3d
00000270: 4950 983c cc5a 3e3e c76f 9d3d b97a 523d
00000280: 70df 5d3e 20e8 e7bc 8b72 e23c b2e8 1c3e
00000290: ec2c 223e 9291 c5bd 97fb 90bd b702 123e
000002a0: 7f09 cebd d135 32be 1ef4 16bd 9d7d d73c
000002b0: 35ff d63d 13bd 98bd 15cb f33c d316 5d3d
000002c0: 2503 7f3d b361 6abd c8e5 9dbd 0ef5 47be
000002d0: 9018 f93d 387d 463d 35f6 d4bd ae5b 3bbe
000002e0: 5093 3f3d 1d0c 663e fcd1 aa3d 6175 4d3e
000002f0: 0118 5dbd a875 a03d 3886 45bd c8d6 6dbd
00000300: 4d28 83bd 4627 5e3d 10a6 e93d 061d 213e
00000310: 1748 34be e848 b2bd eb63 9ebd 6e68 78bd
00000320: 3e26 58bd 42e7 c63c 953c 1dbe 8ef4 b13c
00000330: 7630 453e 57ab d0bc 0f72 2c3e 0e48 c33c
00000340: fa27 c63d 6336 bbbd 6d09 133e a811 16be
00000350: def5 38be 67c2 79bc ba90 cd3d ab0d 313e
00000360: fc71 4cbd 52f3 f73c ddad c0bd 3d5b a13d
00000370: 15bc a6bc 404d 90bd 4dc7 aabd e038 653d
00000380: 019c 0c3e a958 173d f3d6 f7bb 2a01 0fbe
00000390: e919 183d 0426 f43d b407 c13d ea1c fabc
000003a0: 67ed 0cbe ac3e 2d3e 635c 133e fb88 aa3d
000003b0: c3a7 3ebe e6ad 23bd 3815 213d c824 61be
000003c0: 13ad 073e aa8f e6bd c0a4 96bd 1247 1f3e
000003d0: a36a 5f3e c359 55be 8085 7ebd 8d5d 99bd
000003e0: 4c93 adbd 8ab7 c6bd 72f2 1f3e cd1c 023e
000003f0: d58e 60bd 712b 033e c5b3 133e 5d47 5abe
-0.1352553 -0.12477104 -0.124673255 -0.12533154 -0.11868014 -0.14338559 0.1152492 0.03421817
-0.22179702 0.12598178 -0.04257667 0.18261082 -0.20598924 -0.075410396 0.0058021643 -0.016240481
-0.04580251 0.1180275 -0.11715578 -0.0761363 -0.17936826 -0.17199446 -0.106435254 0.089949116
-0.07417882 -0.14617187 0.19756961 0.029970182 0.15834011 -0.15724526 0.08080982 0.015173509
0.17877379 0.14776388 -0.046670124 -0.22299726 0.05856294 0.025227807 0.18763131 -0.16265634
0.20896147 0.04374922 -0.17791805 -0.12719771 0.16940951 0.05841552 -0.089530215 0.19407187
0.10897317 -0.18405482 0.19399956 0.03338582 -0.02470343 0.09439687 -0.16676585 0.1175663
-0.16852313 0.09668307 -0.10133317 0.08142975 -0.16373205 0.18426457 -0.15119162 -0.15404359
0.06765903 0.087078065 0.016547954 0.10633778 0.06269672 0.12567449 -0.20753121 0.18429528
-0.021393646 0.16160825 0.1329037 0.116686255 -0.07702575 -0.0006550734 -0.08857957 -0.11693545
-0.11983671 -0.20714056 0.17142664 0.006451762 -0.07383759 -0.03951542 0.068580985 -0.1616998
0.18089822 -0.078288354 0.13305593 0.13995788 -0.19837043 0.2130551 -0.119207166 0.20870678
0.020897904 0.099798545 0.040492997 0.15041508 -0.0044964864 0.21631244 -0.09458749 0.169406
-0.070770055 -0.17881778 -0.0703643 -0.1640399 0.07704668 0.08100126 -0.13434622 -0.08622146
-0.07851029 -0.111170575 -0.03899941 -0.019631207 0.16919175 0.12213433 -0.2181741 0.04820169
0.022785403 0.050485596 -0.15155502 0.056024443 0.13050342 0.16154937 0.029339522 -0.18779495
-0.04263648 -0.08344581 0.14409664 -0.10544991 -0.05804881 0.21573749 -0.090777785 -0.03506278
-0.06936904 0.17665634 -0.20137297 0.14052638 -0.0106910365 -0.14225574 0.039957024 0.16430978
0.16876066 -0.012877236 -0.0464751 0.004602025 0.100835145 -0.073394634 -0.052814648 0.14489108
-0.20917413 -0.16857396 -0.04796394 0.042091202 0.01859297 0.18589324 0.076873355 0.05138657
0.21667266 -0.028308928 0.027642509 0.15323141 0.15837449 -0.09646906 -0.07079237 0.14258848
-0.10060405 -0.17403342 -0.036853902 0.026305014 0.10497896 -0.07457938 0.029759923 0.053976845
0.06225886 -0.05722208 -0.07709843 -0.19527075 0.12162888 0.04845926 -0.10398523 -0.18296692
0.046771348 0.22465558 0.083408326 0.20064308 -0.05397797 0.07834941 -0.048223704 -0.05806616
-0.06404171 0.054236673 0.11408627 0.15733728 -0.17605625 -0.08705312 -0.077339016 -0.060646467
-0.052770846 0.024280194 -0.15355141 0.021723058 0.19256768 -0.025472326 0.16840385 0.02383807
0.09675594 -0.09141233 0.14359064 -0.14655173 -0.18062541 -0.015244103 0.1003737 0.1729037
-0.04991339 0.030267391 -0.09408162 0.078787304 -0.020353356 -0.07045984 -0.08338795 0.055962443
0.13731386 0.036949787 -0.0075634657 -0.13965288 0.037134085 0.119213134 0.094252974 -0.030531365
-0.13762437 0.16918439 0.14390711 0.08326908 -0.18618684 -0.039960764 0.039326876 -0.21986687
0.13249616 -0.112578705 -0.07355642 0.15554455 0.21818022 -0.20835023 -0.062139034 -0.074885465
-0.0847536 -0.09702976 0.1561983 0.12706299 -0.054823715 0.1280954 0.14424045 -0.21316285

hidden_layer_6.bias f4 [20]
00000000: f8d3 6ebd 5652 b83d 14e0 573e 8971 ce3d
00000010: 6bc9 d036 0f7e 42be 64e1 97bc 34fb 0abe
00000020: 344f 433e eb3e 623e 93b3 21be 581c 183e
00000030: e596 253e c1f8 9cbc d785 6c3c 8349 723d
00000040: 62ec adbd c845 89bd 04e1 58bd 3bfc 203d
-0.058307618 0.09000079 0.21081573 0.10080249 6.222331e-06 -0.189934 -0.018540092 -0.13572389
0.19073182 0.22094314 -0.15791158 0.14854562 0.16170843 -0.019161584 0.014436207 0.059152137
-0.08492352 -0.06702763 -0.052948967 0.039303046
