Experiencia calor/modelo_cnn_1.onnx (onnx, 23067 bytes, 4 tensors)

conv1.weight f4 [16, 16, 3, 3]
000000 0d 13 06 bd 78 6b a6 bd 32 5f 1d bd 55 0d af bd
       -0.032733012 -0.08125967 -0.038420863 -0.08547465
000010 ff 5f 2a 3d ee ff 48 3d e7 7f 71 3d 24 a6 90 3d
       0.041595455 0.0490722 0.058959868 0.07062939
000020 cf c3 68 bd ba 03 2b 3c 2f 1b b4 3b e6 d3 25 3d
       -0.056827363 0.0104379 0.0054964046 0.040485285
000030 b0 73 dd bc c0 3e 9d 3d 38 cc 38 3d b7 71 6a 3d
       -0.027032703 0.07677984 0.045116633 0.057237353
000040 01 2e 48 3d 0e 11 e4 3c 7b ac 82 3d 31 7e 21 3d
       0.048871998 0.027840164 0.06380554 0.039426986
000050 86 a8 09 3d 39 1e 53 bd b9 39 d0 3b aa 04 76 bd
       0.033607982 -0.051542494 0.0063545373 -0.06006304
000060 e9 22 3f 3d 91 8f 1b bd 2c d6 80 bd 40 fd c0 3a
       0.046664152 -0.037978712 -0.0629085 0.0014723912
000070 46 dc 84 bd 08 59 7b bc 40 86 bc bc e2 10 1c 3d
       -0.06487326 -0.015341051 -0.023013234 0.03810204
000080 50 bc 98 3c aa 70 93 bd cf c4 89 bd c4 04 8d bd
       0.018644482 -0.07199223 -0.067269914 -0.068856746
000090 d2 37 f5 3c 04 bb 88 3c 47 82 9c bd 4a c3 a0 bd
       0.029933844 0.016690738 -0.07642036 -0.078497484
0000a0 5a cb a3 bc fb dd 4c 3d f8 93 87 bd 33 5d 77 3d
       -0.019994427 0.050016385 -0.0662002 0.060391616
0000b0 67 d9 13 3d 19 67 0c 3d ed 3d dd bc 0d eb 1d 3d
       0.036096003 0.03427801 -0.027007068 0.03855424
0000c0 86 40 81 3d d7 37 d3 3c 6c fc 8d 3d 44 51 41 bd
       0.06311135 0.025783462 0.06932911 -0.04719664
0000d0 af 9b c0 bd 35 ab b5 bc d0 1f 82 bd f7 3d 9e 3d
       -0.09404694 -0.022176364 -0.06353724 0.077266626
0000e0 30 ce d0 bb 0f ea 84 bd 93 f6 83 3d 0e 34 09 bd
       -0.0063722357 -0.06489956 0.06443515 -0.03349691
0000f0 34 f5 b8 3c ee cb 6e 3d 90 5d b2 3c a3 96 35 bd
       0.02257786 0.05829995 0.02177313 -0.04433311
000100 79 54 9b 3d e8 71 a1 bd 3a d2 72 3d 20 6d 20 bc
       0.07584471 -0.07883054 0.05928252 -0.009791642
000110 2c 49 b7 3c 60 71 44 3c 80 2d e4 3b 80 d8 af bb
       0.022373758 0.011989921 0.006963432 -0.005366385
000120 6e b9 78 bd be 12 99 bd ce 50 7f bd 34 b9 ba 3c
       -0.060723715 -0.07474278 -0.06233292 0.02279339
000130 8d 25 aa 3d cf 50 9d bd 75 bb 97 3d ea 66 8e bd
       0.083079435 -0.07681429 0.074088015 -0.06953223
000140 02 a9 03 3d a0 e3 31 bc 30 8a c7 3b 65 38 a0 3d
       0.0321436 -0.010857493 0.0060894713 0.078232564
000150 ac f4 b7 3c 9b e2 7f bd 00 24 03 3a 5a 54 48 3d
       0.022455536 -0.062471967 0.0005002618 0.04890857
000160 70 f3 34 bd 85 c2 9e 3d 07 57 93 bd 98 cb 05 bc
       -0.044177473 0.077519454 -0.071943335 -0.008166216
000170 8a 26 81 bd 0c d4 f1 bc b4 da a1 bc 74 7c 92 3c
       -0.06306179 -0.029520057 -0.019757606 0.01788161
000180 80 cb 9c bc 5d 83 a6 3d ea b8 a4 bd 7b 61 04 bd
       -0.019140005 0.08130524 -0.08043082 -0.032319527
000190 d0 e9 89 bd c0 44 85 bc ca a1 18 3d cc ca f8 3c
       -0.06734049 -0.016268134 0.03726367 0.030370139
0001a0 28 eb 46 3c 7b 32 64 bd ec 12 a9 3c 00 91 10 bd
       0.012141027 -0.055712204 0.020638905 -0.035294533
0001b0 e3 36 82 bd 82 91 39 3d 00 0d 9e 3b 11 70 81 3d
       -0.06358125 0.045304783 0.004823327 0.06320203
0001c0 31 3e 84 3d 00 f3 a2 ba 08 e1 01 3c 48 57 09 bd
       0.064571746 -0.0012432039 0.007927187 -0.033530504
0001d0 28 1f 30 3c 62 44 63 3d 65 18 a4 3d 4d 28 8b 3d
       0.010749616 0.055485137 0.080124654 0.06794796
0001e0 88 7b 63 bc d9 cb 94 3d c8 6f 07 bd 18 42 39 3c
       -0.013884433 0.07265443 -0.033065587 0.011307262
0001f0 5e 96 61 bd 10 37 8b bb 46 d6 4b bd 63 6e 21 bd
       -0.055075042 -0.0042485073 -0.049764894 -0.039411914
000200 e0 68 6f bc 2b 69 a8 3d 1b f0 40 bd 57 17 a5 bd
       -0.0146124065 0.08223184 -0.047103982 -0.08061092
000210 e0 c1 56 bd a0 3f 28 bb 6a d7 24 3d 1c 4b c4 bc
       -0.052430987 -0.002567269 0.040244497 -0.023961596
000220 a8 56 30 bc 00 f0 8e 3c 2c e4 e8 bc 8a e4 5e 3d
       -0.010762848 0.017448425 -0.028429113 0.05441717
000230 0e 5c 7f bd 78 74 55 bd e3 0e 02 bd ac d9 90 bc
       -0.06234365 -0.052113026 -0.03175248 -0.017681919
000240 06 b0 50 bd 83 f0 02 bd fb 9f 01 bd 98 15 7f 3c
       -0.05094912 -0.03196765 -0.03164671 0.015569113
000250 c3 98 8e 3d 62 02 79 3d a3 7b 28 bd e0 5f 42 3b
       0.06962731 0.060793288 -0.041133534 0.0029659197
000260 eb 03 8a 3d fa 98 23 3d cf cd 95 3d d0 27 8d 3b
       0.067390285 0.03994081 0.073146455 0.0043077245
000270 fe 2c 13 3d 56 68 60 bd 8b ce 51 bd f6 3b d5 bc
       0.03593158 -0.054787003 -0.051222365 -0.026029568
000280 e6 98 b8 bc ca 96 9c bd 53 d2 25 bd 7b b9 73 bd
       -0.022533845 -0.07645948 -0.040483784 -0.05950306
000290 af 0b 86 3d 4e 2b 62 3d 58 0c 33 bc f8 e0 27 bc
       0.06545197 0.05521708 -0.010928236 -0.010246508
0002a0 56 b4 97 bd 0b fa 43 bd 40 c4 cb bc 8e 82 18 bd
       -0.07407443 -0.04784588 -0.024873853 -0.03723388
0002b0 03 bc 8e 3d 5b 39 0f bd ad 40 8d 3d 15 a4 80 3d
       0.06969454 -0.034966808 0.068971016 0.06281296
0002c0 54 b4 f0 3c 86 95 1b bd d6 b6 c2 bc 72 07 53 3d
       0.029382862 -0.037984394 -0.023768824 0.051520772
0002d0 58 0b 66 3c ab fb a0 bd e0 e1 2a bb d0 cb 9c 3c
       0.0140407905 -0.07860502 -0.0026074573 0.019140154
0002e0 8e 32 87 bd 24 83 8b bd 86 50 03 bd 44 4d e3 3c
       -0.066014394 -0.068121225 -0.032059215 0.027746804
0002f0 38 ac 77 bd de c9 39 bd f0 b5 a6 bb 90 ae eb bb
       -0.060466975 -0.04535853 -0.0050876066 -0.0071924403
000300 06 78 a0 bd 88 68 4b bd 7c a0 b7 bc 8c 3f aa 3c
       -0.07835393 -0.049660236 -0.022415392 0.020782255
000310 f8 91 33 bd 50 66 ef bb 50 54 a4 bb 96 f6 19 bd
       -0.04384038 -0.007305898 -0.0050149336 -0.03758868
000320 bb 36 6d bd 66 b9 68 3d 26 6e 69 3d 4b ca 6e bd
       -0.057913523 0.056817435 0.05698981 -0.05829839
000330 36 c0 68 3d e1 f9 97 3d f9 40 8b 3d 0c be f8 bc
       0.05682393 0.074207075 0.06799502 -0.030364059
000340 8e 52 43 bd 60 58 30 3c b6 c1 54 3d a0 60 67 bb
       -0.047686152 0.010763258 0.05194255 -0.0035305396
000350 26 9b c7 bc cc 87 f2 bc 08 fd 00 bc 0e e7 03 3d
       -0.024365973 -0.029605769 -0.007872827 0.032202773
000360 a0 0e 4c 3b 02 09 3f 3d 30 6e 9a bc e6 43 e4 bc
       0.0031136647 0.04663945 -0.01885137 -0.027864408
000370 40 81 bf bb 00 2a 46 3b ae 89 9b bd 50 d9 b2 bb
       -0.005844265 0.0030237436 -0.0759462 -0.0054580346
000380 d0 e6 b0 3b 7e 24 37 bd 43 d3 79 bd cb bd 56 bd
       0.0053986087 -0.044712536 -0.06099249 -0.052427094
000390 50 27 fe 3b de 16 33 3d 34 30 9c bc 4d 21 90 3d
       0.0077561513 0.04372298 -0.019065954 0.070376016
0003a0 b6 39 f3 bc 50 60 b7 bb 5b 7d 49 bd f6 5b 43 3d
       -0.029690605 -0.005596198 -0.049191814 0.047695123
0003b0 20 c1 da 3c 5c 7c 95 bd 54 86 be 3c 82 df 00 3d
       0.026703417 -0.0729911 0.023257412 0.031463154
0003c0 10 ef a5 3b f3 06 8c bd 81 f9 a3 3d c7 52 8b bd
       0.005063899 -0.06837263 0.080065735 -0.06802898
0003d0 cc 9c fa 3c 4a 17 34 3d ac e5 85 3c c0 7b 42 3c
       0.030592345 0.043967523 0.016344868 0.011870325
0003e0 40 ab 6a 3c d1 8f a0 3d d8 f7 2f 3c 60 32 47 3c
       0.014323056 0.07839931 0.010740243 0.012158006
0003f0 7b 92 86 bd a8 6c 0b bd c0 9c c0 3c 13 ac 50 bd
       -0.06570908 -0.03403917 0.023512244 -0.050945353

conv1.bias f4 [16]
000000 68 e4 3c 3c 32 c8 a2 bd 8b 02 25 bd c6 e0 31 bd
       0.011529066 -0.079483405 -0.04028563 -0.04342725
000010 30 76 16 3d 26 13 22 bd bc 86 9a bd f4 ba 83 bc
       0.036733806 -0.039569043 -0.0754523 -0.016080357
000020 9f ff 82 3d 6a ab 6f 3d 1b b6 c1 3c 30 20 06 3b
       0.06396412 0.058513083 0.023646405 0.0020465963
000030 58 4b 70 bd d4 5f 06 bd 13 d6 6d bc 70 75 9b bd
       -0.058665603 -0.032806233 -0.014516371 -0.07590759

fc.weight f4 [49, 64]
000000 55 b0 8f bd 48 6f d0 bd 3b 44 8e bd 05 54 db 3c
       -0.070160545 -0.10177475 -0.06946608 0.026773462
000010 ce e7 ce 3d d0 f9 c9 3d 10 b8 f0 3d 62 f4 f3 3d
       0.10102807 0.09862101 0.11753857 0.11911847
000020 ae 06 62 bb 6a 10 8d 3d 03 9b 87 bd 6f 39 b5 3c
       -0.0034488845 0.06887896 -0.06621363 0.022122113
000030 64 85 29 bd 34 94 6b bd e8 ff bf bd d4 cd 7b bd
       -0.041386977 -0.057514384 -0.09374982 -0.06147559
000040 05 07 92 3b 13 99 3a bd bd f5 89 bd 9c 49 a3 3c
       0.004456403 -0.04555614 -0.06736324 0.01993256
000050 48 f7 bf bd 18 a4 a8 3d c2 4e 8e bd 24 b6 6a bd
       -0.09373337 0.082344234 -0.069486156 -0.05730261
000060 80 9a be bc 06 c9 ba bd b4 74 46 3d d0 50 41 3c
       -0.02326703 -0.091203734 0.04845114 0.011799052
000070 b6 cf a6 bd d0 f3 1c 3c 40 ff 01 3c c8 10 05 bd
       -0.081450865 0.009579614 0.0079343915 -0.032486707
000080 79 79 09 3e 08 bc 83 39 4d 65 1f 3e 9d ef 24 3d
       0.13425244 0.0002512636 0.15565987 0.040267576
000090 47 dc ab 3d c9 03 69 3d d5 28 d3 3c e9 23 87 3d
       0.08391624 0.056888375 0.025776306 0.06598646
0000a0 0f 9c 36 3e a4 9a f7 bd fb 1a 8f 3d 83 9c cb 3d
       0.17832969 -0.12090042 0.06987568 0.099419616
0000b0 a9 3c 99 3b 3d 8c 20 bc 72 8f 6e bd 60 ed b2 3b
       0.0046764207 -0.00979906 -0.05824227 0.005460426
0000c0 f4 78 7c bd 64 59 60 3d e0 d0 13 3d cc 00 c9 bd
       -0.061638787 0.05477275 0.03608787 -0.09814605
0000d0 44 d2 62 3d 39 5c f7 bd 17 28 d4 3d 9a 47 40 bd
       0.055376306 -0.12078137 0.10359209 -0.046943285
0000e0 6a 73 9f bd f1 e8 cd bc 56 e0 c1 bd 43 38 42 bd
       -0.07785685 -0.02513549 -0.09466617 -0.047416937
0000f0 18 64 3d bd e2 90 85 3d a8 49 c4 3d be b4 d7 bd
       -0.046238035 0.06521775 0.09584361 -0.10532521
000100 25 bc 18 3c bd b6 b5 3c 0f 1d c8 bc cc d0 d6 3d
       0.009322201 0.022181863 -0.024427919 0.104890436
000110 50 ec 87 3c fe cb b2 bd 60 87 61 bc 48 15 30 bd
       0.016592175 -0.08730315 -0.013765186 -0.042989045
000120 60 e0 cd bd 37 36 6d bd 5d 27 24 bd 6c f2 7e 3d
       -0.10052562 -0.05791303 -0.040076602 0.06224291
000130 74 36 8c bd 1e d5 f6 bd 20 31 3a 3d 80 f6 5f bc
       -0.068463236 -0.12052368 0.045457006 -0.01366961
000140 d1 44 58 3d 03 04 a7 bc 4e 92 9c bd 19 aa 36 bc
       0.052800003 -0.020387655 -0.07645093 -0.011148953
000150 58 b0 3e 3d 52 37 d6 3c 46 f2 ca bc 08 fb 69 bd
       0.046554893 0.026149426 -0.024773728 -0.057124168
000160 98 e8 98 bd 10 cc f4 3c 48 cc cc 3c f0 b3 b7 3d
       -0.07466239 0.02988246 0.024999753 0.08969867
000170 04 5e fd 3d a2 1d ee 3d a0 be d9 bd b4 db 2d 3d
       0.12371448 0.11626746 -0.10632062 0.042445853
000180 4e 1e 7b 3e 3c fe 57 bc a1 9b 2a 3e 6d ea b9 3d
       0.24523279 -0.013183173 0.1666093 0.09077916
000190 37 4a 50 3d ba 45 93 bd 6d 4e 40 3d 49 f1 d7 3b
       0.050852027 -0.07191034 0.046949793 0.0065900427
0001a0 2c 53 97 3d 1d 53 e2 bd df 3e 5a 3c 90 7c c4 3b
       0.07388911 -0.11051009 0.013320654 0.0059962943
0001b0 c3 a5 a4 bd 70 f2 91 3d e7 80 a0 3d 6d 20 db 3d
       -0.08039429 0.071263194 0.07837086 0.10699544
0001c0 68 67 cf 3d 74 9f ef 3d 70 87 98 bd 30 39 ea bd
       0.10127145 0.11700335 -0.07447708 -0.11436689
0001d0 a4 3d 40 3e e8 1a 84 bd f4 71 c5 bc 40 0d 66 bd
       0.18773514 -0.064504445 -0.024102189 -0.05616498
0001e0 58 00 ef 3d c7 90 7b 3d 4b e9 e1 3d f0 47 e1 3c
       0.116699874 0.061417367 0.11030825 0.027500123
0001f0 00 01 51 3c d4 fc 52 3d 00 0c 20 bd 2c a4 65 3d
       0.012756586 0.051510647 -0.039073944 0.05606477
000200 a9 1d f1 3a e7 48 15 3d 16 5a de 3c 8f 3e a4 3d
       0.001839568 0.03644648 0.027142566 0.080197446
000210 7e 30 95 3d 8e 64 df bd fa fc fd 3d 00 40 17 3b
       0.0728464 -0.10907851 0.12401767 0.0023078918
000220 e5 2d 0a bc 01 03 95 bc ca 2c a3 3d 59 55 da 3d
       -0.008433794 -0.018189909 0.07967527 0.1066081
000230 48 ae dc bd 18 14 d8 bd 2c 28 16 3d c4 e7 2c bd
       -0.10775429 -0.105507076 0.036659405 -0.042213216
000240 26 4f f3 bd 66 c5 9c bd b6 4a 54 bd cd d4 dc bd
       -0.11880331 -0.07654838 -0.051829062 -0.10782776
000250 02 7b 86 bc a2 93 be bd c0 69 da bd 68 de 5e bd
       -0.016416077 -0.093055025 -0.106647015 -0.054411322
000260 0e ea 84 3d 40 09 83 3b 0c e1 1d bd 78 67 25 bd
       0.06489955 0.0039989054 -0.0385447 -0.04038188
000270 d0 7d c2 bc 96 49 af bd 0a 10 b2 bd b0 ff 23 3d
       -0.023741633 -0.08558957 -0.086944655 0.040038764
000280 8d c9 31 3e eb 0f 58 bd eb 02 32 3e 37 60 3a bd
       0.17362042 -0.052749556 0.17383926 -0.045501914
000290 3d 3a 0c bc fb 0e 54 3d 81 cc 2e bc 36 ef 15 bd
       -0.008558807 0.0517721 -0.010668875 -0.036605082
0002a0 30 ba 68 3e 5b cb 51 3d f8 b6 2d 3d 30 9f 6f 3c
       0.22727275 0.051219326 0.04241082 0.014625356
0002b0 1d 27 d4 3c 52 f9 16 3d 96 77 5c ba 9c 81 e5 bc
       0.025897557 0.036858864 -0.00084101537 -0.028015904
0002c0 b0 2a 55 3c 30 98 15 bd 90 fc 48 bc 40 85 25 3c
       0.013010666 -0.03652209 -0.012267247 0.01010257
0002d0 70 23 f5 3c db 61 7b bc 19 75 3d 3d f9 1f e2 3d
       0.029924124 -0.015343155 0.04625425 0.110412546
0002e0 b9 5a 39 3c f8 46 95 bd 74 13 c1 3d 1e cb 29 3c
       0.011313134 -0.07288927 0.094275385 0.010363368
0002f0 7e c7 96 bd 1e fc ec 3d d0 d4 0a bd 30 53 f3 bd
       -0.07362269 0.11571525 -0.03389436 -0.11881101
000300 35 67 43 3d a6 81 3d bc 32 aa e2 bd 32 86 00 be
       0.047705848 -0.011566555 -0.110676184 -0.12551191
000310 fe 21 8c 3d 74 11 c5 bd 8a fe f6 3d 1e d6 d6 3d
       0.06842421 -0.096224695 0.12060268 0.10490058
000320 e8 8b 93 3d 2b d3 b8 3d 16 54 4a 3b 72 01 72 3d
       0.072044194 0.09024652 0.0030872873 0.05908341
000330 ac 32 91 3d 9c 2e c3 3d 4c ae 57 3d fc f1 0b 3d
       0.07089743 0.095303744 0.052656457 0.03416632
000340 b8 e3 0e bd 51 1a a3 3c 97 70 36 bc cf 04 42 bc
       -0.03488514 0.01991001 -0.011135242 -0.011841967
000350 1c 8f 78 3d 3e d8 d9 bd d4 cf 40 3d fe 72 99 3d
       0.060683355 -0.10636948 0.0470732 0.07492636
000360 6a 03 90 bd 98 55 41 3d c0 eb d3 3c 30 00 86 3c
       -0.07031901 0.04720077 0.02586925 0.016357511
000370 c2 5d 96 3d 1c 08 6f 3d b0 c6 86 bc b0 3f 3f 3c
       0.07342102 0.058357343 -0.016452163 0.011672899
000380 65 55 85 3e 54 a3 1a 3e d5 06 e4 3d 2c b5 2d 3a
       0.26041713 0.15101367 0.111341156 0.0006626423
000390 b3 3c d5 bc da 84 ee 3c 6b c5 88 bc f0 72 0f 3e
       -0.02602992 0.029116083 -0.016695699 0.14008689
0003a0 70 6b e6 3d 2c 35 b2 3b ef f5 11 3e 92 be e0 bc
       0.11250961 0.0054384675 0.14253972 -0.027434621
0003b0 49 9d 05 be b2 20 fa bd a7 a4 d1 3d cf ae 02 be
       -0.13048281 -0.122132674 0.10236483 -0.12761997
0003c0 42 37 ba 3d 14 b3 90 3d 60 4e 7d 3c 30 78 08 bd
       0.09092571 0.070654064 0.015460581 -0.033317745
0003d0 f0 6e 86 3d 6d c0 ed 3d 9b 35 32 3c da f2 6e bd
       0.065641284 0.11608968 0.010877038 -0.05833707
0003e0 68 c0 dd bd 6d 57 20 3d 3d 65 dc 3d f5 70 9e bd
       -0.10827714 0.039145876 0.10761497 -0.077363886
0003f0 68 61 01 bd e0 56 ca 3d bc f0 77 bd b8 1a 0a 3d
       -0.031587034 0.09879851 -0.060532317 0.033716887

fc.bias f4 [49]
000000 9a 17 89 3d fe 0f 87 bd db c5 d1 3d d0 a1 da 3a
       0.06693955 -0.06594847 0.10242816 0.0016680304
000010 0e e0 93 3d e4 55 e4 bc e5 64 e8 3d bc 55 5b 3b
       0.072204694 -0.027872987 0.11347369 0.003346785
000020 49 ff c0 bd 38 03 bd 3d 79 15 22 3d 6e c4 94 3d
       -0.09423692 0.092291296 0.03957126 0.072640285
000030 31 9b d3 bc 3f 67 b9 3d dd d3 b4 3d 59 ff 08 3d
       -0.025830837 0.09052896 0.08829472 0.033446644
000040 8c 60 d7 3d ff 51 b4 bd ad b5 b7 bc 26 28 ac 3d
       0.10516462 -0.08804702 -0.022425497 0.08406095
000050 87 53 7f 3d ce bd 37 3d b2 a7 c8 bd 7b db a1 3d
       0.062335517 0.044858746 -0.0979761 0.07903191
000060 dc 91 4c 3a 34 5a 84 3d 72 c6 e7 bc 32 98 69 bd
       0.0007803717 0.064625174 -0.028292868 -0.05702991
000070 5f 6f 13 be e9 cb f5 bd a3 7b de 3d 53 41 f8 bd
       -0.14397953 -0.120017834 0.108634256 -0.121218346
000080 9a 60 0c be 3a bb b8 bb fe 25 4c 3d b6 67 ad bb
       -0.13708726 -0.0056375535 0.04984092 -0.0052919043
000090 84 f4 7b bc 47 c1 5f 3d 14 a9 c2 bd 3d c5 94 3c
       -0.015378121 0.054627683 -0.09504905 0.018160457
0000a0 52 07 6d 3d 0d fb c9 3d 33 a9 be 3d 71 64 b1 bd
       0.05786831 0.09862337 0.09309616 -0.08661736
0000b0 80 59 8d bd 46 ad 80 bc 50 9e 94 3b 67 15 4c 3d
       -0.069018364 -0.015707623 0.004535474 0.0498251
0000c0 39 ea c8 3d
       0.098102994
