Experiencia calor/model_grafo_mejorada_trucha.onnx (onnx, 22467 bytes, 7 tensors)

conv1.weight f4 [16, 3, 3, 3]
-0.06801546 -0.15765676 0.11598109 0.14735456 -0.18750957 -0.17425647 0.1683184 -0.1542663
0.018795654 0.17232619 -0.12196625 -0.07210622 0.1767598 -0.025610134 0.036780223 -0.17229539
0.028290138 -0.07875892 -0.00010710955 -0.18018979 0.18888535 -0.14621764 0.14555977 -0.049024835
0.13227655 -0.09818579 0.14356889 -0.036600515 -0.022373185 0.048891097 0.11643241 0.038351223
0.025601491 -0.088065 0.101907596 -0.17597106 -0.011541098 0.12021913 -0.022345945 0.06786688
0.0035711527 0.1395763 0.04834892 0.1451831 0.02544649 0.16527991 0.17511238 -0.09094434
0.05265519 0.007318124 -0.11752498 -0.029236764 -0.13544331 -0.002499655 -0.18184891 0.14051433
-0.034320876 0.12750463 -0.1585261 0.14513563 0.17480482 -0.1739927 -0.12768582 -0.033314437
0.102279976 0.14005034 0.073700175 0.12661357 0.0392776 0.07686116 0.14737983 0.1568463
-0.10409424 -0.14226437 0.1505395 0.19192807 0.16189857 0.13175829 0.04851821 -0.010179222
0.15136491 0.12607147 -0.034018666 -0.076070644 0.09029125 0.12414183 -0.06717372 0.15811057
0.04329084 -0.06742978 0.12642081 -0.02714701 -0.1731179 0.16539387 0.08402197 0.03266214
-0.1403104 0.005960658 0.026144698 0.07138987 0.10011996 -0.13053814 0.038151413 -0.1918089
-0.1882985 -0.15840273 -0.14750886 0.09431453 -0.036561474 0.075382784 0.0993125 0.06149189
0.08190061 -0.039062202 0.17808248 -0.11760113 0.034375295 -0.0366977 -0.17755415 -0.13074186
0.047819123 -0.09749981 -0.0065280795 0.07894413 0.14182226 -0.019096553 -0.007869437 0.18787311
0.022194073 -0.115041986 0.01661843 0.18014704 0.0039416403 -0.051050708 0.05534874 0.055786803
0.17629184 0.013655096 -0.120009035 -0.07709844 0.06398703 -0.09064738 0.0025379658 -0.054188758
0.08224581 -0.10666321 -0.02758284 -0.080416076 -0.08887285 -0.1288017 -0.0015419722 -0.108002976
0.03094329 0.16673757 -0.13155472 -0.05483161 0.12428008 -0.11919398 -0.10095212 0.1743765
0.14943133 -0.1524234 -0.09222498 0.16377185 -0.004737973 0.007898375 -0.07913668 -0.016356155
0.16751303 -0.044194773 0.0023159832 0.062496886 0.11877526 0.05387102 -0.1565713 -0.13307321
0.05072397 0.047643065 -0.1385258 0.14624171 -0.07445437 0.0557397 0.18539296 0.18640192
-0.09658661 0.04895167 0.04257214 0.16308413 -0.05101648 0.10127132 0.17817654 -0.036845878
-0.089597195 -0.19043061 0.10957332 0.023581803 -0.13464877 -0.012425527 0.020278454 -0.17257933
-0.054121196 -0.018799916 0.08227183 -0.006516263 0.053054422 0.13447751 0.036068395 0.07850458
0.019044459 -0.08800301 0.09285341 -0.16971514 -0.16700959 -0.073991306 0.14119188 -0.009748384
0.07033269 0.19058745 0.1637253 0.107776985 -0.038656935 0.016835496 -0.069842026 -0.04201348
0.110069975 0.093944445 -0.121327296 0.04653284 0.063583925 0.0788479 0.15684913 -0.002188012
-0.074456386 -0.022087872 0.15115188 -0.15137278 -0.0038442314 0.06469728 0.063243195 0.056562603
0.1653272 0.06625678 0.038229182 0.030199036 -0.0057187825 -0.06187728 -0.057472035 0.18436907
-0.1863982 0.07032569 0.14007281 0.065376475 -0.027583316 -0.04570432 -0.12788047 0.06615798
00000000: b14b 8bbd c670 21be 7e87 ed3d 1de4 163e
00000010: 8202 40be 4a70 32be a95b 2c3e fcf7 1dbe
00000020: 58f9 993c 4776 303e 71c9 f9bd 6dac 93bd
00000030: 8500 353e 58cc d1bc dca6 163d 346e 30be
00000040: b8c0 e73c 5b4c a1bd 00a0 e0b8 ac83 38be
00000050: 296b 413e 14ba 15be 9f0d 153e 44ce 48bd
00000060: 8173 073e a215 c9bd b903 133e 6cea 15bd
00000070: f847 b7bc 0842 483d 1e74 ee3d 2c16 1d3d
00000080: 38ba d13c 6c5b b4bd eeb4 d03d c231 34be
00000090: e016 3dbc 7235 f63d d80e b7bc cafd 8a3d
000000a0: 000a 6a3b 17ed 0e3e 8409 463d e1aa 143e
000000b0: 2875 d03c 233f 293e a950 333e 0741 babd
000000c0: f8ac 573d e0cc ef3b f0b0 f0bd f081 efbc
000000d0: a7b1 0abe 40d1 23bb 9a36 3abe fde2 0f3e
000000e0: 0c94 0cbd 9390 023e aa54 22be 6f9e 143e
000000f0: 0900 333e 242b 32be 12c0 02be b874 08bd
00000100: 2a78 d13d 5b69 0f3e 1ef0 963d fda6 013e
00000110: 8ce1 203d 6269 9d3d bdea 163e 519c 203e
00000120: 5c2f d5bd c0ad 11be 0727 1a3e cb88 443e
00000130: bdc8 253e a5eb 063e 08bb 463d c0c6 26bc
00000140: 67ff 1a3e e118 013e 2857 0bbd edca 9bbd
00000150: 9eea b83d 123e fe3d 6092 89bd bde7 213e
00000160: bc51 313d a018 8abd 7574 013e 6863 debc
00000170: d245 31be 035d 293e b613 ac3d bcc8 053d
00000180: 88ad 0fbe a051 c33b 682d d63c da34 923d
00000190: b20b cd3d caab 05be a844 1c3d 8d69 44be
000001a0: 52d1 40be 5334 22be 900c 17be fa27 c13d
000001b0: 7cc1 15bd 4a62 9a3d 5a64 cb3d ecde 7b3d
000001c0: 82bb a73d b0ff 1fbd 415b 363e dcd8 f0bd
000001d0: 1ccd 0c3d 5450 16bd c1d0 35be 32e1 05be
000001e0: fcdd 433d fbad c7bd 80e9 d5bb 76ad a13d
000001f0: db39 113e 6070 9cbc d0ee 00bc cf61 403e
00000200: 58d0 b53c 229b ebbd 6023 883c 7778 383e
00000210: e028 813b 8c1a 51bd 5cb5 623d b480 643d
00000220: d985 343e a0b9 5f3c 4cc7 f5bd c9e5 9dbd
00000230: a20b 833d 55a5 b9bd 0054 263b 08f5 5dbd
00000240: 7e70 a83d 3e72 dabd 68f5 e1bc 2fb1 a4bd
00000250: f802 b6bd 98e4 03be 001c caba aa30 ddbd
00000260: c87c fd3c 41bd 2a3e 48b6 06be 1c97 60bd
00000270: 8e86 fe3d f91b f4bd fcbf cebd c18f 323e
00000280: 8704 193e e114 1cbe 73e0 bcbd cfb3 273e
00000290: 0041 9bbb 3068 013c 6912 a2bd 58fd 85bc
000002a0: 8988 2b3e 9405 35bd c0c7 173b bcfc 7f3d
000002b0: 7240 f33d dca7 5c3d 3a54 20be 5844 08be
000002c0: f0c3 4f3d 6025 433d b5d9 0dbe 63c0 153e
000002d0: 887b 98bd 504f 643d a7d7 3d3e 25e0 3e3e
000002e0: 33cf c5bd 8c81 483d 2060 2e3d 87ff 263e
000002f0: a8f6 50bd 5667 cf3d e973 363e b4eb 16bd
00000300: bc7e b7bd 3e00 43be fa67 e03d a02e c13c
00000310: 5ee1 09be 7094 4bbc 001f a63c a3b8 30be
00000320: 30ae 5dbd 4802 9abc 227e a83d 6086 d5bb
00000330: 984f 593d 79b4 093e 74bc 133d 02c7 a03d
00000340: 2003 9c3c ec3a b4bd ee29 be3d cec9 2dbe
00000350: 9004 2bbe c188 97bd 9b94 103e b0b7 1fbc
00000360: 960a 903d 5b29 433e 9ba7 273e 2eba dc3d
00000370: bc56 1ebd 98ea 893c 5609 8fbd 5416 2cbd
00000380: 5e6c e13d f265 c03d 727a f8bd 3899 3e3d
00000390: 4a38 823d 027b a13d 0f9d 203e c064 0fbb
000003a0: 977c 98bd a0f1 b4bc 8fc7 1a3e 7701 1bbe
000003b0: 80ef 7bbb 0280 843d a685 813d 30ae 673d
000003c0: 894b 293e a2b1 873d 3496 1c3d f863 f73c
000003d0: a064 bbbb 0873 7dbd cc67 6bbd 3fcb 3c3e
000003e0: 2bdf 3ebe ea06 903d 3f6f 0f3e 1ae4 853d
000003f0: 68f6 e1bc 7434 3bbd 19f3 02be d67d 873d

conv1.bias f4 [16]
-0.011038676 -0.03766848 0.06972237 0.048325658 -0.16554764 -0.11154776 0.06822626 -0.080703355
-0.07878957 -0.15199268 0.032756373 -0.116635345 0.06962524 0.17816608 -0.014965877 0.014785677
00000000: 90db 34bc 444a 1abd 9aca 8e3d 20f1 453d
00000010: 5285 29be 2773 e4bd 36ba 8b3d cd47 a5bd
00000020: 6d5c a1bd f8a3 1bbe 8c2b 063d 83de eebd
00000030: ae97 8e3d 2b71 363e 7033 75bc a03f 723c

conv2.weight f4 [16, 16, 3, 3]
-0.052946966 0.08122841 0.026164867 0.070342235 -0.011918157 0.04944741 0.07869012 -0.026302569
0.0428435 0.023277164 0.042670704 0.040685244 -0.07338932 -0.06728002 -0.0058801696 -0.05819913
0.020128034 0.07759894 -0.020027287 -0.061067574 -0.0033702552 -0.03732718 -0.022986285 0.065052725
-0.0073978007 0.049228303 0.03784538 -0.024336062 -0.05541897 -0.0021065995 0.025485247 -0.0817688
-0.012256622 0.054827504 0.022560596 0.0616541 0.078452535 -0.012070574 -0.07852073 -0.022442918
0.0452976 0.012496807 0.04883673 0.010464452 -0.060548775 -0.038935017 0.06260427 0.04262177
-0.016814351 -0.056893878 0.027705193 0.04384283 -0.008866124 0.0018337294 0.019692898 0.002817832
-0.06384526 0.019855976 -0.057326585 -0.05499212 0.009023935 0.01746282 -0.0019042194 0.0052613914
-0.06534462 -0.00625626 -0.069803946 -0.022032253 0.025748245 0.000106833875 -0.0026026145 0.04982374
0.0036369935 -0.029224776 0.07985345 0.00574746 -0.0779144 0.055278115 -0.069838874 0.0489508
-0.056445014 -2.939254e-05 0.02690547 -0.07191922 -0.07486486 0.053618975 0.017066777 0.041902162
0.015484266 0.07093913 -0.064039096 -0.0016311333 -0.019628763 0.049580388 0.0007899627 -0.08309632
0.07293483 -0.051532686 0.081356056 -0.019550063 -0.03776012 -0.0041226447 -0.06187135 0.010933101
0.032957666 0.022236973 -0.078563005 0.033319563 -0.04612736 0.024499007 0.046154387 -0.049675457
0.04361356 0.026910536 0.011301957 -0.027067713 0.07254691 -0.0021309927 0.018738098 0.020323746
0.06599616 -0.058445882 0.07925785 0.021676995 0.03191831 0.027240396 -0.022027224 -0.03115236
-0.02373163 -0.032007962 0.015019864 0.030252509 0.026707835 0.004133098 -0.022382312 0.017629988
-0.024165194 0.011787482 0.06576847 0.035117976 -0.035897076 -4.775077e-05 0.02941697 0.0254369
-0.07217622 -0.0035098717 -0.040156703 0.027629249 -0.043837957 -0.017800897 0.035562374 -0.0497109
0.07253463 -0.001596272 -0.0016185939 0.046950795 -0.004659392 0.07415209 -0.054096602 0.005626805
-0.030667912 -0.0019861236 0.05558134 0.03329742 0.042352 -0.040529978 0.060491405 0.083132125
0.024487056 -0.02293437 -0.028479755 0.060403503 -0.066009074 -0.047358017 0.043621026 -0.0021896735
0.06389537 0.079251684 0.063771285 0.07966993 0.047036998 -0.042243034 -0.06801401 0.008294605
0.03793945 0.0005497262 -0.04156838 0.07338522 -0.065800324 0.012177616 -0.040597837 0.023035906
0.060701735 0.07004473 -0.00806991 -0.023610495 -0.069808364 0.06510135 0.020773321 -0.052369922
-0.009228975 -0.040446393 0.0734897 -0.044763207 -0.013002276 0.072433464 -0.06134261 0.042355157
-0.040203046 -0.022012174 0.07631313 0.019056797 0.0695513 0.04256267 -0.04011173 0.07553128
0.07308402 0.07631137 -0.07970734 -0.030938268 -0.07891401 -0.015838929 -0.020633556 0.042922266
-0.0040229857 -0.037699312 -0.076243095 0.08289222 -0.04834811 0.008078791 -0.0773135 0.04067719
0.057563223 0.042153813 -0.016784973 -0.023272794 -0.0666348 0.012969226 0.03949049 -0.016776115
0.07798328 0.048298724 -0.07980792 0.05815626 -0.04640649 -0.035596274 -0.051517855 -0.034282528
-0.03754267 -0.051797897 0.037750967 -0.0042491853 -0.06960517 -0.07569297 -0.015824296 -0.07271298
00000000: ebde 58bd 155b a63d b457 d63c 970f 903d
00000010: 6044 43bc 5e89 4a3d 4928 a13d 7c78 d7bc
00000020: aa7c 2f3d c0af be3c 7ac7 2e3d 92a5 263d
00000030: 244d 96bd 1bca 89bd 70ae c0bb 3662 6ebd
00000040: 8ce3 a43c 31ec 9e3d 4410 a4bc fe21 7abd
00000050: 80df 5cbb 63e4 18bd bc4d bcbc 5d3a 853d
00000060: 4069 f2bb 9ea3 493d c203 1b3d 6c5c c7bc
00000070: 00ff 62bd e00e 0abb 70c6 d03c 6776 a7bd
00000080: 00d0 48bc ce92 603d 00d1 b83c 0289 7c3d
00000090: b9ab a03d a8c3 45bc 7acf a0bd 36da b7bc
000000a0: fa89 393d 68bf 4c3c 0609 483d 1873 2b3c
000000b0: fe01 78bd 537a 1fbd ab36 803d 2a94 2e3d
000000c0: 40be 89bc 8e09 69bd 00f6 e23c 8a94 333d
000000d0: 3843 11bc c059 f03a 0053 a13c 60ab 383b
000000e0: 4ec1 82bd 00a9 a23c 48cf 6abd 6b3f 61bd
000000f0: 20d9 133c 300e 8f3c 0097 f9ba c067 ac3b
00000100: 66d3 85bd 5001 cdbb 5ff5 8ebd fc7c b4bc
00000110: fced d23c 000c e038 a090 2abb fa13 4c3d
00000120: a05a 6e3b cc68 efbc 358a a33d 3055 bc3b
00000130: 9691 9fbd 4e6b 623d af07 8fbd a280 483d
00000140: e332 67bd 0090 f6b7 dc68 dc3c 624a 93bd
00000150: bf52 99bd 929f 5b3d a0cf 8b3c 9aa1 2b3d
00000160: b8b1 7d3c 8948 913d ee26 83bd c0cb d5ba
00000170: 80cc a0bc ce14 4b3d 8015 4f3a 672e aabd
00000180: db5e 953d f013 53bd 019e a63d 7427 a0bc
00000190: 5baa 1abd 4017 87bb d06c 7dbd c020 333c
000001a0: 9efe 063d 502a b63c a4e5 a0bd 187a 083d
000001b0: 0bf0 3cbd 24b2 c83c 620c 3d3d 7e78 4bbd
000001c0: 22a4 323d 7c73 dc3c d82b 393c 1cbd ddbc
000001d0: 7993 943d 20a8 0bbb a480 993c fc7d a63c
000001e0: ff28 873d f364 6fbd f151 a23d f493 b13c
000001f0: c6bc 023d 4027 df3c 7072 b4bc 3c33 ffbc
00000200: d668 c2bc c81a 03bd e015 763c 1cd4 f73c
00000210: 64ca da3c f06e 873b 1c5b b7bc c46c 903c
00000220: 16f6 c5bc 4820 413c 9fb1 863d ded7 0f3d
00000230: d008 13bd 0048 48b8 dcfb f03c 0c61 d03c
00000240: 20d1 93bd e005 66bb 5b7b 24bd bc56 e23c
00000250: 6e8f 33bd 30d3 91bc daa9 113d a89d 4bbd
00000260: 098d 943d 003a d1ba 0027 d4ba 7a4f 403d
00000270: d0ad 98bb 0ddd 973d 6694 5dbd 1061 b83b
00000280: 463b fbbc a029 02bb 42a9 633d e062 083d
00000290: 4a79 2d3d c302 26bd d6c5 773d 2d41 aa3d
000002a0: 1499 c83c dce0 bbbc 604e e9bc aa69 773d
000002b0: c42f 87bd 7bfa 41bd f6ab 323d a080 0fbb
000002c0: 93db 823d b54e a23d 859a 823d fd29 a33d
000002d0: dea9 403d 0807 2dbd ee4a 8bbd 18e6 073c
000002e0: 6666 1b3d 801b 103a 9b43 2abd fd4a 963d
000002f0: 52c2 86bd a084 473c eb49 26bd ccb5 bc3c
00000300: 62a2 783d 9d73 8f3d a837 04bc cc6a c1bc
00000310: b0f7 8ebd db53 853d d02c aa3c d881 56bd
00000320: 2035 17bc 1eab 25bd c581 963d a059 37bd
00000330: 8007 55bc ff57 943d 6342 7bbd 9a7c 2d3d
00000340: f3ab 24bd e052 b4bc 0f4a 9c3d 001d 9c3c
00000350: e970 8e3d 3256 2e3d 334c 24bd 25b0 9a3d
00000360: 13ad 953d 2349 9c3d 9a3d a3bd 4072 fdbc
00000370: ab9d a1bd a4c0 81bc b407 a9bc 42cf 2f3d
00000380: 40d3 83bb 986a 1abd 5725 9cbd 65c3 a93d
00000390: ab08 46bd e85c 043c 8a56 9ebd 209d 263d
000003a0: 6ac7 6b3d 7aa9 2c3d a480 89bc 96a6 bebc
000003b0: d377 88bd e07c 543c c8c0 213d 106e 89bc
000003c0: b3b5 9f3d e2d4 453d 5672 a3bd 4235 6e3d
000003d0: bb14 3ebd 66cd 11bd 6304 53bd d66b 0cbd
000003e0: 58c6 19bd 082a 54bd c2a0 1a3d c03c 8bbb
000003f0: 288d 8ebd ea04 9bbd f4a1 81bc 8bea 94bd

conv2.bias f4 [16]
0.06969834 -0.008756407 0.03587348 -0.024074655 0.048752405 -0.056833766 0.0052170977 0.005984552
0.054960288 -0.01778096 -0.02877618 -0.06916559 -0.0736105 0.034294635 0.05617375 0.02312953
00000000: 01be 8e3d 0877 0fbc 12f0 123d 3638 c5bc
00000010: 9ab0 473d 86ca 68bd 30f4 aa3b 101a c43b
00000020: 0a1e 613d 60a9 91bc 06bc ebbc b0a6 8dbd
00000030: 1ac1 96bd 8878 0c3d 7216 663d 247a bd3c

conv3.weight f4 [16, 16, 3, 3]
0.03228736 -0.014497548 0.0015486851 0.03851375 -0.04997934 -0.049191624 -0.0038065612 -0.008659281
0.019584723 -0.061437022 -0.00092766434 -0.045372605 -0.08154012 0.067974396 -0.0748484 -0.042163294
0.040434547 0.008799203 0.053286098 0.08114732 0.049517475 -0.062411964 -0.023728043 0.042360075
-0.06575644 -0.023609936 0.031351395 -0.00482177 0.045393787 0.04801 0.040509827 -0.008212231
-0.03928163 -0.03392908 0.018831909 0.01228217 -0.052766018 -0.036608487 0.0743124 0.02990248
0.040120877 -0.07181315 0.04072816 0.058879294 0.034993835 0.023717232 0.03221956 -0.06810075
-0.06889944 -0.059927844 0.05953791 0.03713856 0.07086701 -0.012157083 -0.030911744 -0.0039787292
0.01810696 -0.04013276 -0.041355204 0.01947236 0.024237894 0.0065603554 0.0059875846 -0.07973367
-0.008482017 -0.051167082 -0.0038017705 0.056283988 0.034646958 -0.0030850396 0.029222138 -0.06760561
-0.04078283 -0.0756332 0.06880828 -0.034052353 -0.029737018 0.037249513 -0.06850925 0.014921807
0.08252031 0.06850844 0.060889013 0.009675182 -0.07136816 -0.067357466 0.06307577 -0.060909025
-0.037495594 -0.07554227 0.061217852 -0.0001970157 -0.015379094 0.0648889 0.07706288 0.07618741
0.0062813833 -0.0031710044 -0.039318107 -0.031102639 0.07374067 -0.034445457 0.059957333 0.02893573
-0.07662728 -0.026747584 0.0102370605 -0.046505094 -0.040671848 -0.0009767041 0.0033045337 -0.013932049
0.07613801 0.026715212 -0.07377308 0.057487853 0.04550547 -0.025808256 0.07060046 0.014910914
0.05598042 -0.041155726 0.014310561 0.033202954 -0.066455215 -0.018200405 -0.039422624 0.050229304
0.016293854 0.06608225 0.04171469 0.06595858 -0.061968636 0.06701443 0.024525903 -0.04387354
-0.04653914 0.07847106 0.07799301 -0.0485098 -0.06854414 -0.01691378 -0.037513338 0.02337452
0.015891783 0.082296886 0.058812432 -0.03459723 -0.08272761 -0.047905874 -0.02011747 -0.07247128
-0.017554939 -0.08311376 0.051348932 0.01414606 0.020058565 -0.0058750585 0.07174165 0.051294617
0.010539316 -0.04240666 0.0024297237 0.041366793 -0.074070536 0.038238995 -0.041696798 0.07349727
-0.067838155 0.07095287 0.0017221794 -0.06232972 -0.02572199 0.056116708 0.06931018 0.041247137
-0.0005715713 0.055357702 -0.046312105 0.0044323504 -0.069950156 -0.017848857 -0.012392141 -0.044073474
0.01108402 -0.042793334 -0.08183968 0.007846169 -0.051395994 0.071656205 0.01914201 -0.004712008
-0.053521555 0.059795745 0.05110655 5.6393445e-05 -0.036309503 -0.04735928 -0.082479805 0.0670053
-0.017438285 -0.011125416 -0.079737365 0.023567118 0.004844278 0.06616191 0.06298653 -0.06377821
-0.053086232 -0.066780075 -0.072473966 0.03515953 -0.043871682 0.020828813 -0.05717523 0.034971267
0.06862954 0.049165912 -0.06013342 0.053008817 0.054437213 -0.07050627 0.0007270202 -0.08020359
0.012316644 -0.066347376 -0.0825231 -0.054344527 0.013069354 -0.0109059885 -0.0817845 0.023753665
-0.009404324 -0.0276169 -0.0023767278 0.05587464 0.007652998 -0.026343875 -0.03536182 -0.07391672
0.079793476 -0.008726634 -0.05886103 0.06350488 0.0065771863 0.04315675 -0.039568923 -0.07988425
-0.06381151 0.032911092 0.040722005 -0.021689646 0.026421994 -0.0475835 -0.023207527 0.030737557
00000000: c03f 043d 2087 6dbc 40fd ca3a 98c0 1d3d
00000010: 23b7 4cbd 287d 49bd 8077 79bb a8df 0dbc
00000020: 2470 a03c 63a5 7bbd 802e 73ba a0d8 39bd
00000030: 82fe a6bd 2936 8b3d 1e4a 99bd 6bb3 2cbd
00000040: b29e 253d 882a 103c 8642 5a3d 9130 a63d
00000050: d6d2 4a3d b0a3 7fbd 5061 c2bc c281 2d3d
00000060: 50ab 86bd a069 c1bc 526a 003d f0ff 9dbb
00000070: d6ee 393d 22a6 443d a2ed 253d 988c 06bc
00000080: c6e5 20bd 38f9 0abd 6045 9a3c 283b 493c
00000090: 2e21 58bd c8f2 15bd 1931 983d 0cf6 f43c
000000a0: ca55 243d c612 93bd 92d2 263d 6a2b 713d
000000b0: b255 0f3d a44a c23c a8f8 033d 6878 8bbd
000000c0: 261b 8dbd e676 75bd 06de 733d 9a1e 183d
000000d0: b922 913d 802e 47bc a03a fdbc 0060 82bb
000000e0: 0c55 943c 4062 24bd 1364 29bd 8084 9f3c
000000f0: 8c8e c63c 40f8 d63b 8033 c43b 684b a3bd
00000100: 28f8 0abc 9394 51bd 2027 79bb 0a8a 663d
00000110: f8e9 0d3d 602e 4abb 4463 ef3c cf74 8abd
00000120: e60b 27bd 94e5 9abd 5beb 8c3d 7b7a 0bbd
00000130: 0c9b f3bc f292 183d 944e 8cbd 987a 743c
00000140: 6900 a93d 274e 8c3d c266 793d a884 1e3c
00000150: 7829 92bd b6f2 89bd df2d 813d be7b 79bd
00000160: fb94 19bd e8b5 9abd 92bf 7a3d 0096 4eb9
00000170: 98f8 7bbc 79e4 843d 25d3 9d3d 2508 9c3d
00000180: 10d4 cd3b a0d0 4fbb 060c 21bd f6ca febc
00000190: 5905 973d ae16 0dbd d295 753d a00a ed3c
000001a0: c3ee 9cbd c01d dbbc 58b9 273c 207c 3ebd
000001b0: 8697 26bd c004 80ba e090 583b 4043 64bc
000001c0: 3fee 9b3d dcd9 da3c 5716 97bd 6278 6b3d
000001d0: f263 3a3d d66b d3bc f996 903d e84c 743c
000001e0: ba4b 653d e892 28bd d876 6a3c d2ff 073d
000001f0: ac19 88bd 0419 95bc 9e79 21bd 3ebd 4d3d
00000200: b07a 853c 2156 873d 06dd 2a3d 4b15 873d
00000210: d3d2 7dbd dd3e 893d 8cea c83c beb4 33bd
00000220: d39f 3ebd 6fb5 a03d cdba 9f3d 36b2 46bd
00000230: df60 8cbd c48e 8abc 96a7 19bd ec7b bf3c
00000240: 7c2f 823c 458b a83d 4ee5 703d d3b5 0dbd
00000250: 186d a9bd f338 44bd 64cd a4bc d36b 94bd
00000260: 60cf 8fbc 8c37 aabd 4253 523d e0c4 673c
00000270: dc51 a43c 9083 c0bb 49ed 923d 4e1a 523d
00000280: 18ad 2c3c 9bb2 2dbd 003c 1f3b 3a70 293d
00000290: 4bb2 97bd 7ea0 1c3d 43ca 2abd bd85 963d
000002a0: bbee 8abd bd4f 913d c0ba e13a 734d 7fbd
000002b0: ecb6 d2bc a2da 653d 7ff2 8d3d c2f2 283d
000002c0: 80d5 15ba c2be 623d c3b1 3dbd 403d 913b
000002d0: 0742 8fbd c437 92bc 6808 4bbc 6386 34bd
000002e0: c099 353c 1048 2fbd 909b a7bd 388d 003c
000002f0: 9b84 52bd 7dc0 923d b4cf 9c3c 3067 9abb
00000300: 6b39 5bbd 62ec 743d 1a55 513d 0088 6c38
00000310: 46b9 14bd cefb 41bd 2ceb a8bd 133a 893d
00000320: bcda 8ebc 6047 36bc 584d a3bd d40f c13c
00000330: c0bc 9e3b e57f 873d 15ff 803d 269e 82bd
00000340: f370 59bd fec3 88bd 3b6d 94bd 7003 103d
00000350: cbb2 33bd 30a1 aa3c 9330 6abd 083e 0f3d
00000360: a58d 8c3d 3262 493d 764e 76bd c61f 593d
00000370: 8ef9 5e3d 9765 90bd 8095 3e3a c841 a4bd
00000380: c0cb 493c 22e1 87bd df01 a9bd 5e98 5ebd
00000390: d820 563c 08af 32bc a27e a7bd 0c97 c23c
000003a0: 9814 1abc d63c e2bc e0c2 1bbb cedc 643d
000003b0: 00c6 fa3b 1ccf d7bc 8ed7 10bd a661 97bd
000003c0: c36a a33d 28fa 0ebc 4318 71bd d90e 823d
000003d0: 7085 d73b 22c5 303d 0613 22bd 5b9a a3bd
000003e0: 9caf 82bd c8cd 063d 1ecc 263d 7cae b1bc
000003f0: f072 d83c ebe6 42bd b61d bebc 54cd fb3c

conv3.bias f4 [16]
-0.034195453 0.0021888688 0.056428798 -0.03594362 0.065239154 -0.07805913 0.02783335 0.010134213
-0.04035914 -0.045263015 -0.011295103 0.07719041 0.0023125932 0.02916623 -0.015610367 0.07899668
00000000: 8810 0cbd 2073 0f3b e221 673d 9e39 13bd
00000010: 1b9c 853d 77dd 9fbd c402 e43c f809 263c
00000020: a04f 25bd b665 39bd 180f 39bc 0116 9e3d
00000030: e08e 173b 04ee ee3c a0c2 7fbc 03c9 a13d

conv4.weight f4 [1, 16, 3, 3]
-0.055968612 -0.0012525991 0.026646912 0.049945094 0.081865974 0.07565024 0.02805183 0.011917822
0.0152641535 0.05645726 -0.0520117 0.069616236 -0.019238979 0.042011954 0.0032521412 -0.05666464
-0.045894444 -0.04249131 -0.018527925 0.074956335 0.068711825 0.05942758 -0.047284078 -0.064249516
-0.03974276 0.035858244 -0.06143756 0.019077905 0.004268147 0.01291772 -0.0038296878 -0.01402811
-0.04438597 0.07864017 -0.008307897 0.07151521 -0.0034652129 -0.0016597807 0.02505187 -0.03978648
0.025699355 0.009682648 0.034834884 -0.078111425 0.08058906 -0.048345696 -0.0034644678 0.03643345
0.06514575 0.054354258 -0.05479754 -0.023646396 0.020964026 0.016838193 -0.04012733 -0.047253452
0.013176143 0.021617562 -0.055743657 -0.041481227 0.06841663 -0.066755526 -0.0086573735 0.007087648
-0.03999555 -0.001334548 0.020979851 0.019157626 -0.07260262 0.047835894 -0.010425828 -0.034780443
-0.016334571 0.0027790368 -0.05926621 0.047371008 -0.027660877 -0.021997213 0.070815854 0.012829669
0.079308756 -0.07637643 0.07359897 0.061600067 -0.058005713 0.016142868 0.07408472 0.023196049
-0.08076511 -0.028985143 -0.0034798384 -0.05188191 0.035656057 -0.005270958 0.07722948 0.08185635
0.035933904 -0.06613787 0.06662292 0.03185817 0.07728291 0.03894297 0.019186534 -0.029208474
0.037293755 -0.027302444 -0.01834055 -0.025381684 -0.04824668 0.025706254 -0.06541564 -0.014613666
0.023414336 0.040402777 -0.043069422 -0.0112170875 -0.050385922 -0.07765077 0.07306469 0.012596637
0.048126422 -0.026332855 -0.07710301 0.04782977 0.08164314 0.041728266 -0.07515519 -0.07865374
-0.037622564 0.01723697 -0.080728285 0.028421305 -0.013828576 0.0058715567 -0.032231092 0.025093764
-0.003317304 0.036184452 -0.05614559 0.023900472 -0.023465097 0.07740191 -0.06390089 0.026204638
00000000: 583f 65bd 402e a4ba a04a da3c 3a93 4c3d
00000010: 59a9 a73d 83ee 9a3d f4cc e53c f842 433c
00000020: 8016 7a3c ba3f 673d 380a 55bd f592 8e3d
00000030: 109b 9dbc ba14 2c3d e021 553b 2e19 68bd
00000040: d0fb 3bbd 5e0b 2ebd e0c7 97bc b582 993d
00000050: c9b8 8c3d 566a 733d f3ac 41bd 4095 83bd
00000060: 4ec9 22bd 18e0 123d f3a5 7bbd 4449 9c3c
00000070: d0db 8b3b d8a4 533c 80fb 7abb 28d6 65bc
00000080: 10ce 35bd 190e a13d d81d 08bc 9176 923d
00000090: a018 63bb 008d d9ba 9439 cd3c 26f7 22bd
000000a0: 7487 d23c f8a3 1e3c 06af 0e3d e2f8 9fbd
000000b0: e10b a53d 2306 46bd 200c 63bb 3e3b 153d
000000c0: 236b 853d 92a2 5e3d 6373 60bd 16b6 c1bc
000000d0: c0bc ab3c 40f0 893c 8e5c 24bd d68c 41bd
000000e0: c0e0 573c 5017 b13c 7653 64bd 38e8 29bd
000000f0: 051e 8c3d 1fb7 88bd a8d7 0dbc 803f e83b
00000100: 60d2 23bd 00ec aeba f0dd ab3c 74f0 9c3c
00000110: afb0 94bd 92ef 433d 18d1 2abc f075 0ebd
00000120: 14d0 85bc 8020 363b 20c1 72bd 1a08 423d
00000130: 1099 e2bc 8033 b4bc e707 913d 8833 523c
00000140: a16c a23d 3f6b 9cbd 0fbb 963d 5a50 7c3d
00000150: 6697 6dbd 0c3e 843c bbb9 973d a405 be3c
00000160: 2e68 a5bd 4072 edbc 000e 64bb 2082 54bd
00000170: 160c 123d 00b8 acbb 7d2a 9e3d 4da4 a73d
00000180: 6e2f 133d 4b73 87bd 9971 883d b67d 023d
00000190: 8146 9e3d aa82 1f3d 142d 9d3c 9c46 efbc
000001a0: 56c1 183d 60a9 dfbc ec3e 96bc 40ed cfbc
000001b0: 509e 45bd ec95 d23c a3f8 85bd 286e 6fbc
000001c0: 6ccf bf3c 627d 253d 9069 30bd e0c7 37bc
000001d0: 7861 4ebd 5e07 9fbd f1a2 953d 2062 4e3c
000001e0: 3620 453d 00b8 d7bc 2fe8 9dbd 26e9 433d
000001f0: 8534 a73d 42eb 2a3d f7ea 99bd 3615 a1bd
00000200: 1e1a 1abd 8c34 8d3c df54 a5bd ccd3 e83c
00000210: 4091 62bc 3066 c03b c004 04bd 7091 cd3c
00000220: 2067 59bb 2636 143d ebf8 65bd ecca c33c
00000230: e039 c0bc e584 9e3d 78de 82bd 1cab d63c
