Experiencia calor/modelo_gcn.onnx (onnx, 17788 bytes, 3 tensors)

conv1.bias f4 [16]
00000000: a6ae bf3d fab7 c03d fba9 c0bd 2a7d c3bd
00000010: fc7a bfbd 9dcc bf3d e375 c43d 9dcd bfbd
00000020: cb2b bebd 0172 bebd b65f bb3d 44c3 b53d
00000030: 39b3 c03d e425 c1bd 11cf be3d e3e1 c33d
0.093594834 0.09410091 -0.09407421 -0.095453575 -0.09349629 0.09365199 0.095927976 -0.093653895
-0.092856966 -0.09299088 0.09149115 0.088751346 0.09409184 -0.09431055 0.093168385 0.09564569

onnx::MatMul_162 f4 [6, 16]
00000000: ff5b 4ebe aa19 233e 2d6d aabe ceb3 f13d
00000010: 0b25 bb3e d670 fa3e 20d9 c53e 46ea a63e
00000020: af76 be3e 047e 1bbe 0f1c d33e 7b8b 2b3e
00000030: 1ca9 0d3f 9a99 863e df5a 68bd 4c4a 16be
00000040: dcbf 8f3e 1c7e 36be ddac 44be d12a f1be
00000050: b94f debd 3e2c a33e a666 cebc 0521 753d
00000060: f494 5ebd eed4 1dbd 018b 9bbe 3658 6f3e
00000070: 5376 42be c097 cf3e 37be 7f3e d32d ccbe
00000080: 0e8d 99be 16bd 7d3e b173 00bf f95a adbe
00000090: 1952 aabe b599 06be 46ea 51bd e68e 9b3e
000000a0: 673c a33e 1e66 91be dc32 dcbe 6313 503e
000000b0: 1b1d f93e 3562 b93d d5a8 983e f48b de3e
000000c0: 655a b4be 4ad2 a83e 8b6d 66be e5e8 c2be
000000d0: eae9 aa3e 0297 5ebe 6faf e93e 6b7d 9f3e
000000e0: 7b48 9bbe 5e28 923e b3aa c4be bafa 9bbe
000000f0: 287b ba3d 47b7 f7be c5e6 4c3d d47c 073f
00000100: bcdb 7b3c 30ed 873e fb97 05bf b318 acbe
00000110: 5cf3 8cbe 881c 023e f02e f5bd 3eee f3be
00000120: e376 d43e 93f5 38be 6d10 e0be da53 e83e
00000130: 419f 503e 7104 6abe dde0 fb3e 015e 15bd
00000140: b1e3 5ebc bf4f 28be d295 d9be 4c2f 06bf
00000150: 7cdb 853e 01b5 e23e 2e74 e93d 4b5a 303e
00000160: 37c4 9f3e 08cc de3e e7ee 89be 46d8 60be
00000170: eacf df3e f63f b23e fca6 cfbe 0a11 b13c
-0.20152281 0.15927759 -0.3328642 0.11801873 0.365517 0.48914212 0.38642216 0.3260061
0.37199923 -0.1518479 0.41232345 0.16752426 0.55336165 0.26289064 -0.056727286 -0.1467678
0.28076065 -0.17821544 -0.19206567 -0.4710298 -0.1085505 0.31869692 -0.025195431 0.059845943
-0.05434127 -0.038533144 -0.3037949 0.23373494 -0.1899045 0.40545464 0.24974905 -0.3987871
-0.2999043 0.24779162 -0.5017653 -0.3385847 -0.3326576 -0.13144572 -0.05124881 0.3038246
0.3188202 -0.28398222 -0.43007553 0.20319895 0.48655018 0.09051935 0.2981631 0.4346615
-0.35225216 0.32972938 -0.22502725 -0.3806831 0.33381587 -0.21737292 0.45641658 0.31150374
-0.30328736 0.28546423 -0.38411483 -0.30464727 0.091055214 -0.48382017 0.050024766 0.5292485
0.015372213 0.26548147 -0.5218503 -0.33612594 -0.27529418 0.12706196 -0.11971843 -0.47642702
0.41496953 -0.18062429 -0.43762532 0.45376474 0.2037325 -0.22853257 0.49194995 -0.036466602
-0.013604091 -0.1643667 -0.42497116 -0.5241592 0.26144016 0.4427872 0.11399113 0.17221944
0.31204388 0.43515038 -0.2694008 -0.21957502 0.43713313 0.34814423 -0.40557086 0.02161457

onnx::MatMul_166 f4 [16, 1]
00000000: a138 adbe 1ea4 19bf 832b 2f3f 7bd6 153e
00000010: 1357 6f3e aab4 dfbe 8059 e8bd d044 e43e
00000020: 3cd2 393e 46c5 703d 3063 e83c fab5 6a3d
00000030: 7315 22bf f493 af3e c9cb d4bd 4318 0cbe
-0.33832267 -0.6001605 0.6842577 0.14632599 0.2337306 -0.43692523 -0.11345196 0.4458375
0.18146604 0.058781885 0.028367609 0.057302453 -0.6331398 0.34292567 -0.103904314 -0.1368113
