Experiencia calor/model_CNN_mejorada.onnx (onnx, 7822 bytes, 9 tensors)

conv1_1.weight f4 [16, 1, 3, 3]
0	0xbd4b8b03	-0.04969312
1	0x3e0d2596	0.13783869
2	0xbea2165c	-0.31657684
3	0x3e295a88	0.16538441
4	0x3e63256d	0.22182246
5	0xbe0f1324	-0.13972145
6	0x3ebef184	0.37293637
7	0xbd0bd2ab	-0.034136456
8	0x3df1cc30	0.11806524
9	0xbeacdea0	-0.337636
10	0x3e0caf51	0.13738753
11	0xbddc7ff7	-0.10766595
12	0xbcf13126	-0.029442381
13	0x3e87e6e0	0.2654333
14	0x3f0b560e	0.54428184
15	0xbe8e4f33	-0.277948
16	0x3dc0ea03	0.09419634
17	0xbf5227df	-0.8209209
18	0x3f0cd3a0	0.55010414
19	0xbced1d6f	-0.0289447
20	0x3e7e3dd9	0.2482828
21	0x3dcbeac5	0.09956888
22	0xbf5714b6	-0.8401598
23	0x3ebacaf7	0.36482975
24	0xbf189539	-0.59602696
25	0x3d85bcc4	0.06530145
26	0x3e476703	0.1947289
27	0xbe877844	-0.26458943
28	0x3e80c080	0.25146866
29	0xbe71d8ab	-0.23617809
30	0x3e312f30	0.17303157
31	0x3e8c3629	0.2738507
32	0x3ea1079c	0.31451118
33	0xbe61f448	-0.22065842
34	0x3e63812e	0.22217247
35	0xbed52b77	-0.41634724
36	0x3d33d509	0.043904338
37	0x3d2911d9	0.041276786
38	0x3da600f3	0.0810565
39	0xbe6f4987	-0.23367892
40	0x3da2efd1	0.079558976
41	0xbeb289ba	-0.34870702
42	0x3ecc7dce	0.3993973
43	0x3e9d041e	0.30667204
44	0xbc21a289	-0.009865412
45	0x3eff334d	0.49843827
46	0x3eca4096	0.395024
47	0x3e8e1223	0.27748212
48	0xbd94b0fc	-0.072603196
49	0x3ecaacce	0.39584965
50	0x3c1708c7	0.009218401
51	0x3d63e6e8	0.05564013
52	0x3e2fe0e7	0.17175637
53	0xbd5d05d3	-0.053960633
54	0x3e176f16	0.1478847
55	0xbe9230ed	-0.28552952
56	0xbeb12953	-0.3460184
57	0x3f12d1f5	0.5735162
58	0x3c853c07	0.016263975
59	0xbf171587	-0.59017223
60	0xbcd9f68c	-0.02660682
61	0xbe06122c	-0.1309287
62	0xbe9c6a89	-0.3055003
63	0xbea3c7b8	-0.3198831
64	0x3dc97a2f	0.09837758
65	0x3ed1ba56	0.40962476
66	0xbf06a4e3	-0.5259535
67	0xbf4519a5	-0.76992255
68	0xbc67f068	-0.014156438
69	0xbe023fb4	-0.12719613
70	0xbe3399c9	-0.17539133
71	0x3e5b1112	0.2139323
72	0x3e9f09fa	0.310623
73	0x3e0720fa	0.13196173
74	0xbe3dbcbd	-0.18529029
75	0xbe57d9ce	-0.2107918
76	0xbf19efa0	-0.60131264
77	0x3dbaa3c3	0.09113266
78	0xbe449724	-0.1919828
79	0xbe52ba83	-0.20578961
80	0xbe306b0e	-0.17228338
81	0xbe61fd31	-0.22069241
82	0x3d7ef937	0.06224939
83	0xbbd3dc4d	-0.006465471
84	0x3b9c9bcb	0.004779314
85	0xbf427dbb	-0.759731
86	0xbec92923	-0.39289197
87	0x3ec7cce5	0.3902351
88	0xbd63306e	-0.055466108
89	0x3d31d37c	0.043414578
90	0x3da5756e	0.080790386
91	0xbe76ae46	-0.24089918
92	0xbe99e41a	-0.3005684
93	0xbcb96572	-0.02263138
94	0xbe803d67	-0.25046846
95	0xbe87b257	-0.2650325
96	0xbd6abc55	-0.057308514
97	0x3ea8292c	0.32843912
98	0x3ecdc6a4	0.40190613
99	0xbbf61ba9	-0.0075106216
100	0xbdc3b6d0	-0.09556353
101	0x3f4b7e45	0.79489547
102	0x3e32f99d	0.17478032
103	0x3f1d8785	0.6153491
104	0xbda806c4	-0.082044154
105	0xbe2126bf	-0.15737437
106	0x3e6b3eb1	0.22973134
107	0xbcd6a6fa	-0.026202668
108	0xbf30aa06	-0.69009435
109	0xbe91da55	-0.28486887
110	0xbe60bf01	-0.21947862
111	0x3d6e7895	0.058220465
112	0xbd9d1426	-0.07669859
113	0x3c9548b6	0.018223148
114	0x3ea2d92c	0.31806314
115	0x3e0abeb2	0.13549307
116	0xbc6f6911	-0.014612452
117	0x3e868571	0.26273683
118	0x3e9091a1	0.28236106
119	0xbeba4e61	-0.36387923
120	0x3cf7d178	0.03025125
121	0x3eb1193c	0.34589565
122	0xbe682216	-0.22669253
123	0xbe0438bf	-0.12912272
124	0x3e9f3154	0.31092322
125	0x3b86729d	0.0041030184
126	0x3ea6f9f7	0.32612583
127	0xbee63598	-0.44962764
128	0xbdcf8d8d	-0.101344205
129	0xbe7e342c	-0.2482459
130	0xbf3796b7	-0.7171435
131	0x3db3c0a4	0.08776978
132	0x3eef77e9	0.46771172
133	0xbe11f687	-0.14254199
134	0x3e6791a2	0.22614148
135	0xbdc2dd43	-0.095148586
136	0x3f2ee64b	0.6832015
137	0xbe0da295	-0.13831551
138	0xbeb2aa10	-0.34895372
139	0xbf4ef988	-0.80849504
140	0xbf2019a9	-0.62539154
141	0xbe9b050e	-0.30277294
142	0x3d7bf55e	0.061513297
143	0x3e76c63a	0.24099055

conv1_1.bias f4 [16]
0	0xbe38fe87	-0.18065844
1	0x3fdbabcc	1.7161803
2	0x3f6fb3ed	0.9363392
3	0x3ed07eb6	0.40721673
4	0x3eba8469	0.36429146
5	0x39fb8e56	0.000479805
6	0x3a40975a	0.0007346772
7	0xbe6a10aa	-0.2285792
8	0x392433c4	0.00015659543
9	0x3f121cdf	0.57075304
10	0x3ea6b752	0.32561737
11	0x3efa0455	0.4883143
12	0x395d1f16	0.00021087783
13	0x3e5dd01b	0.21661417
14	0x3f3f063e	0.746189
15	0x3a13e12d	0.0005641159

conv1_2.weight f4 [1, 16, 3, 3]
0	0x3dc313a3	0.0952523
1	0x3db5deb2	0.088803664
2	0x3c715b88	0.014731295
3	0xbc64dc22	-0.013968499
4	0x3c744a6b	0.014910321
5	0xbce30e9c	-0.027716927
6	0x3dda925d	0.10672448
7	0xbca10952	-0.019657765
8	0x3a746611	0.00093230704
9	0x3efe42d7	0.4966037
10	0x3e4e6ee1	0.20159484
11	0x3db0a0da	0.0862443
12	0x3e95f961	0.29291824
13	0x3e2e7d3f	0.17039965
14	0xbe892afa	-0.267906
15	0x3e843a4c	0.25825727
16	0x3e242a32	0.16031721
17	0xbd7811d7	-0.06056389
18	0x3bfbec57	0.007688086
19	0xbd618fe3	-0.05506886
20	0x3e16c7a6	0.14724597
21	0x3e0201b5	0.12695964
22	0xbf0ae56d	-0.54256326
23	0x3d342f0a	0.043990172
24	0x3caf6842	0.021412019
25	0x3de824e7	0.113351636
26	0xbd342cb1	-0.043987934
27	0x3cbb8116	0.022888701
28	0x3d4ee2b3	0.050509166
29	0x3c841be7	0.016126586
30	0x3ddc5922	0.10759188
31	0x3de46b36	0.11153261
32	0x3d4a2606	0.04935267
33	0x3e090aa3	0.13382964
34	0x3e0d2a86	0.13785753
35	0x3da0de63	0.07854917
36	0x3e5b6581	0.2142544
37	0x3d7f7dec	0.062375948
38	0xbd944f57	-0.072416954
39	0xbd2a86e1	-0.041632537
40	0x3dc2c8f3	0.09510984
41	0x3e4319ac	0.19052762
42	0x3dc4a086	0.0960093
43	0xbdcdd920	-0.10051179
44	0x3d9d1fb0	0.076720595
45	0x3d902a20	0.07039285
46	0xbce161b3	-0.027512407
47	0xbcf5a7c9	-0.029987233
48	0xbded1259	-0.11575765
49	0x3d9e94d9	0.07743234
50	0xbcc78136	-0.024353605
51	0xbd864468	-0.06556016
52	0xbd8c2fe2	-0.068450704
53	0xbe49d7ce	-0.19711229
54	0x3e0bb138	0.13641822
55	0x3d9bea8d	0.076130964
56	0xbd1a91bf	-0.03773665
57	0xbe8c2cd2	-0.27377945
58	0xbe90c373	-0.28274116
59	0xbd23b328	-0.03996578
60	0xbd149c7e	-0.036282055
61	0xbe1cf0ad	-0.15326186
62	0xbda6a9f9	-0.081378885
63	0x3d99df96	0.07513349
64	0x3bc978d6	0.006148438
65	0xbe0ca5d8	-0.1373514
66	0xbdb9e39d	-0.09076617
67	0xbe9f9d8e	-0.31174892
68	0xbe61f8a1	-0.220675
69	0xbde01d2e	-0.109430656
70	0xbd9ef74e	-0.077620134
71	0xbe510f6e	-0.20416042
72	0x3db6d5e2	0.08927514
73	0xbe3f8a09	-0.18705
74	0xbddd5fc3	-0.10809281
75	0xbd443c0e	-0.047908835
76	0xbece9fc5	-0.4035627
77	0xbe88f6a2	-0.26750666
78	0xbd8e29ea	-0.06941588
79	0x3d43933b	0.04774783
80	0xbe221e9a	-0.15831986
81	0x3dcdc0bb	0.10046526
82	0x3d2f09ab	0.04273383
83	0xbd43a372	-0.047763295
84	0xbc761309	-0.015019187
85	0xbe5e1f3d	-0.21691604
86	0x3e3909f4	0.18070203
87	0x3e504ef8	0.20342624
88	0x3e54e453	0.20790224
89	0x3d9ab63e	0.07554291
90	0xbda7ccff	-0.08193397
91	0xbd4cb522	-0.04997743
92	0x3e9ad6d0	0.30242014
93	0xbcdad92e	-0.026714887
94	0xbd8506f9	-0.064954706
95	0x3d486fd8	0.048934788
96	0x3dcce5a3	0.10004737
97	0x3d507d23	0.05090059
98	0x3df06e58	0.117397964
99	0x3db3286c	0.08747944
100	0x3ca84f75	0.0205457
101	0x3de25877	0.110520296
102	0xbe8f2d7e	-0.27964395
103	0x3ce7a3e2	0.028276388
104	0xbe0f3e5a	-0.13988629
105	0xbde14886	-0.11000161
106	0x3cd650fa	0.02616166
107	0x3dc14bf9	0.09438319
108	0xbddae4ac	-0.10688147
109	0xbe4fedd5	-0.2030557
110	0xbe47fa21	-0.1952901
111	0xbe0788c4	-0.13235766
112	0xbea130a6	-0.31482428
113	0x3da00100	0.07812691
114	0xbe865662	-0.2623778
115	0xbe9797f2	-0.29608113
116	0x3e47901f	0.19488572
117	0x3d9ed41b	0.077553
118	0xbc012ea1	-0.007884652
119	0xbcee8a8d	-0.0291188
120	0xbb3c8101	-0.0028763416
121	0x3e115f1b	0.14196436
122	0xbe73a900	-0.23794937
123	0x3dac8875	0.084244646
124	0xbda7d0d7	-0.0819413
125	0xbe439024	-0.19097954
126	0x3e90500c	0.2818607
127	0x3e07bd73	0.13255863
128	0xbe1a082e	-0.15042183
129	0x3f20db29	0.6283441
130	0x3e3f0277	0.18653284
131	0x3de597b9	0.112105794
132	0x3e3ca940	0.18423939
133	0x3eaf1eed	0.34203282
134	0x3d1c8a76	0.038217984
135	0xbb20253c	-0.0024436256
136	0xbeb4eef2	-0.3533855
137	0x3dd70a8f	0.10500061
138	0xbe2b1037	-0.16705404
139	0xbf0f71e6	-0.5603317
140	0xbda61b0b	-0.08110627
141	0x3e732b16	0.23746905
142	0xbe343dbe	-0.17601678
143	0x3ddd6791	0.10810769

conv2_1.weight f4 [16, 1, 3, 3]
0	0xbde4eb74	-0.111777216
1	0x3e0ddd0b	0.13853852
2	0xbd5909cb	-0.052987855
3	0xbe6771bd	-0.22601981
4	0x3df5fd63	0.1201122
5	0x3e6afc8f	0.22947906
6	0x3e507463	0.20356898
7	0xbe2acc55	-0.16679509
8	0xbe6e0ccc	-0.23247069
9	0x3dd78006	0.105224654
10	0xbd65f717	-0.056143846
11	0xbbbf6e8d	-0.005842036
12	0xbe972b05	-0.2952501
13	0xbf46d487	-0.7766804
14	0xbe19fcc6	-0.15037832
15	0x3d8e8c81	0.06960393
16	0xbe98322f	-0.29725787
17	0x3e0423f5	0.12904342
18	0x3ccef310	0.025262386
19	0x3d984b84	0.074362785
20	0x3ea88a65	0.32918087
21	0xbe0a4641	-0.13503362
22	0xbd931e90	-0.07183564
23	0x3e847d78	0.25876975
24	0xbddeff4c	-0.10888538
25	0xbddfc9d0	-0.109271646
26	0xbe1529dd	-0.14566751
27	0x3e9582ab	0.29201254
28	0x3e7085ec	0.23488587
29	0xbe017b03	-0.12644581
30	0xbcd1b889	-0.025600689
31	0xbe9f9c57	-0.31173965
32	0xbde854f3	-0.11344328
33	0x3ec3c98e	0.38239712
34	0xbe3e5691	-0.1858771
35	0xbd39106a	-0.04518167
36	0xbe62eddc	-0.22161049
37	0xbbb5c22b	-0.0055468283
38	0xbe903efb	-0.2817305
39	0x3d6b0545	0.057378072
40	0xbefa73a8	-0.48916364
41	0xbe9b53bb	-0.3033732
42	0x3eafe6f5	0.34355894
43	0xbdd8fe0c	-0.105953306
44	0xbe3a1978	-0.18173778
45	0x3db2e3f8	0.08734888
46	0xbdaa06a0	-0.08302045
47	0xbc88b355	-0.016687075
48	0x3d835f0f	0.06414615
49	0xbe332622	-0.17495015
50	0xbce6bc84	-0.028166063
51	0xbdc19550	-0.09452307
52	0xbea5477c	-0.322811
53	0xbe95ecda	-0.29282266
54	0xbe53bd12	-0.20677593
55	0xbe55b164	-0.2086845
56	0xbf3627c1	-0.7115441
57	0x3e861137	0.2618501
58	0xbe87c620	-0.26518345
59	0x3ef82a05	0.48469558
60	0xbe70f425	-0.23530634
61	0x3e23a41f	0.15980576
62	0x3d5642c1	0.052309755
63	0xbed7804e	-0.42090076
64	0xbe379842	-0.17929175
65	0x3f05f7e5	0.5233138
66	0xbe4b1129	-0.19830765
67	0xbedf9140	-0.43665504
68	0x3e5e69bc	0.21720022
69	0x3d9318c5	0.07182459
70	0xbd47051c	-0.048588857
71	0x3d0445b3	0.032293033
72	0xbd738fb0	-0.059463203
73	0x3ddc4321	0.10754991
74	0xbe827103	-0.25476846
75	0x3b71592f	0.003682684
76	0x3f218acf	0.6310243
77	0xbd3c9063	-0.046036135
78	0xbea95ca6	-0.33078498
79	0xbd8519d2	-0.064990655
80	0xbe628f75	-0.22125037
81	0xbdb5555d	-0.088541724
82	0x3e6687a0	0.22512674
83	0xbe5ea2f7	-0.21741854
84	0xbe5487c8	-0.20754921
85	0x3e954ed0	0.29161692
86	0xbd824880	-0.063614845
87	0x3d776446	0.060398363
88	0x3ea94a6e	0.33064598
89	0x3dac65f0	0.084178805
90	0xbe69395d	-0.22775789
91	0x3e187505	0.1488839
92	0xbe633569	-0.22188343
93	0x3e501462	0.20320275
94	0x3bb2bfca	0.005454992
95	0xbe1ae226	-0.15125331
96	0x3e3dcb65	0.1853462
97	0x3de139b6	0.109973356
98	0xbe61d40d	-0.22053547
99	0xbeab17f9	-0.33416727
100	0x3d78362d	0.06059854
101	0x3eaa492c	0.3325895
102	0x3e0589e6	0.13040885
103	0x3ee02875	0.43780866
104	0xbdc53628	-0.0962947
105	0x3d867435	0.065651335
106	0xbecf7e82	-0.40526205
107	0xbea0797a	-0.3134268
108	0x3e7b081c	0.24514812
109	0xbd708e49	-0.058729444
110	0xbeb7fe35	-0.35936132
111	0xbd55ae30	-0.05216807
112	0xbe6de901	-0.23233415
113	0xbc212217	-0.009834788
114	0x3e70622e	0.23474953
115	0x3c982cf3	0.018576121
116	0x3df8b419	0.12143726
117	0x3e4883b9	0.19581498
118	0xbe60afd2	-0.2194207
119	0xbe727910	-0.23678994
120	0x3e94f670	0.29094267
121	0x3d20e4c6	0.039280675
122	0x3ea48216	0.32130498
123	0xbe2ef4ac	-0.17085522
124	0x3db4021a	0.08789463
125	0x3e404fb1	0.187804
126	0x3e81ceeb	0.25353178
127	0x3e9d55d4	0.30729544
128	0x3da36f8a	0.07980259
129	0xbe1eee0a	-0.15520492
130	0xbea44da7	-0.32090494
131	0x3e9ce7fb	0.30645737
132	0x3e8d3e75	0.27586713
133	0x3e6966e7	0.2279316
134	0x3e7dbf9d	0.24780126
135	0xbe1f4b9a	-0.15556183
136	0xbdd60c18	-0.104515254
137	0xbee0d8d5	-0.4391543
138	0x3e5b0502	0.21388629
139	0x3e16d2e3	0.14728884
140	0xbe06f321	-0.13178684
141	0x3e96a3b2	0.29421765
142	0x3e2f04a1	0.1709161
143	0xbeb5f3a0	-0.35537434

conv2_1.bias f4 [16]
0	0xbe302be4	-0.17204243
1	0x3f7513d1	0.9573336
2	0xbecffdd4	-0.40623343
3	0xbddf295a	-0.10896559
4	0x3f2946ac	0.6612346
5	0x3dfa8ece	0.12234269
6	0x3f5cbc8f	0.8622522
7	0x3f55c23b	0.834995
8	0xbf4087b8	-0.7520709
9	0xbf0d697a	-0.5523907
10	0xbe6b050d	-0.22951145
11	0xbf22ac5a	-0.6354424
12	0xbec03ba7	-0.3754551
13	0xbe5ab232	-0.21357039
14	0x3e67c525	0.22633798
15	0xbc0f1536	-0.008733084

conv2_2.weight f4 [1, 16, 3, 3]
0	0xbd98c9b1	-0.074603446
1	0x3d24b489	0.040211234
2	0xbdc9941f	-0.09842705
3	0x3d9c08ef	0.076188914
4	0x3e58f643	0.21187691
5	0xbdcdab94	-0.100424916
6	0x3c89cebc	0.016822211
7	0xbc8b18cb	-0.016979596
8	0x3d1ce42a	0.03830353
9	0x3d94f78e	0.0727378
10	0x3de42821	0.111404665
11	0xbd1b645c	-0.037937507
12	0x3c73af07	0.014873273
13	0xbee4bb6d	-0.44674245
14	0xbdaa94cd	-0.08329163
15	0xbb70d062	-0.00367453
16	0x3c9c8d01	0.019110205
17	0xbc8cf4b5	-0.01720653
18	0xbe391f3c	-0.18078321
19	0xbd3ce078	-0.046112508
20	0x3d2cb394	0.042163447
21	0x3e271826	0.16317806
22	0x3c96e773	0.01842091
23	0xbdf533ed	-0.11972795
24	0x3d83ab5b	0.06429168
25	0xbd14bada	-0.036311008
26	0xbce14dd9	-0.027502941
27	0x3dbac57d	0.09119699
28	0x3d46966b	0.048483294
29	0xbe489b46	-0.19590482
30	0xbdc8b702	-0.09800531
31	0xbdc0a97b	-0.09407326
32	0xbbdc9903	-0.0067321076
33	0xbcf2df2f	-0.029647438
34	0xbde2bfd5	-0.11071745
35	0xbddf6ef4	-0.109098345
36	0x3dc20794	0.09474102
37	0xbd062313	-0.032748293
38	0xbbc919fd	-0.0061371312
39	0xbddbff71	-0.10742081
40	0xbe8846b1	-0.26616433
41	0x3cdf6512	0.027269874
42	0xbc377dc0	-0.011199415
43	0xbd87026e	-0.0659226
44	0x3d18a838	0.0372698
45	0xbde3b1fb	-0.111179315
46	0x3ce42afb	0.027852526
47	0x3d094850	0.03351623
48	0x3afb1736	0.0019156698
49	0xbdfdb160	-0.12387347
50	0xbd4e407d	-0.05035447
51	0xbd3b795c	-0.045770034
52	0xbd065c4c	-0.032802865
53	0x3a9f1902	0.001213819
54	0xbe1d40d9	-0.15356769
55	0xbe197181	-0.14984705
56	0x3da85880	0.08220005
57	0x3e493355	0.19648488
58	0xbdb8fab9	-0.090321966
59	0x3c9bdfbc	0.019027583
60	0xbe37dfd0	-0.17956471
61	0xbe181071	-0.14850022
62	0x3dad3ee8	0.08459264
63	0x3de9b739	0.114119
64	0xbe1f792c	-0.15573567
65	0xbccb6c02	-0.024831776
66	0x3cdcc08f	0.026947288
67	0xbe9bbfe5	-0.3041984
68	0xbe6a2527	-0.22865735
69	0xbe03ac01	-0.12858583
70	0xbdd3112e	-0.10306011
71	0xbe625993	-0.22104482
72	0x3c99134f	0.018685965
73	0x3d51468d	0.051092673
74	0x3e493bdc	0.19651741
75	0xbc9b2952	-0.018940601
76	0x3ec1a677	0.37822315
77	0x3ca23bac	0.019803844
78	0x3c74b501	0.014935733
79	0xbb4ca8dc	-0.0031228578
80	0xbdb603ee	-0.08887468
81	0x3df330fc	0.118745774
82	0x3da4d034	0.08047524
83	0xbc9f12e9	-0.019418197
84	0x3c22c380	0.009934306
85	0x3e43a5d0	0.19106221
86	0x3d7c9b09	0.06167129
87	0x3d3f0832	0.046638675
88	0x3d91790f	0.07103168
89	0xbd7d2fc5	-0.061813135
90	0x3d95fe01	0.07323838
91	0x3c450895	0.012025972
92	0xbbc1c432	-0.005913281
93	0x3c7fe511	0.0156185785
94	0xbe00bf56	-0.12572989
95	0xbe01f547	-0.12691222
96	0x3e46b2dc	0.19404167
97	0x3e28c8d1	0.16482855
98	0x3d8b88f2	0.068132296
99	0xbe1268fa	-0.14297858
100	0x3e57916d	0.2105157
101	0xbce6483c	-0.028110616
102	0xbdeb990f	-0.11503803
103	0x3ea0bbc5	0.31393257
104	0x3d4ea9bf	0.05045485
105	0xbc4b879f	-0.012422471
106	0xbd9a29f7	-0.075275354
107	0x3e1e1014	0.15435821
108	0xbbdb9dea	-0.0067021744
109	0x3ab45d2b	0.0013760676
110	0xbdbbc6b1	-0.09168757
111	0x3d100681	0.035162453
112	0xbcc1edae	-0.023672905
113	0x3da6ec13	0.08150496
114	0xbd2f5aad	-0.042811085
115	0x3b9f611e	0.004863872
116	0xbdc16c76	-0.094445154
117	0x3d75ff08	0.06005767
118	0xbc5b1db1	-0.013373778
119	0x3db21068	0.086945355
120	0xbd1c4524	-0.038151875
121	0x3deb7fde	0.11498998
122	0x3d37e0f0	0.04489225
123	0xbce99864	-0.028515048
124	0x3a0f065f	0.00054559665
125	0x3d80b2ba	0.062840894
126	0xbd2dad72	-0.04240174
127	0x3cb281b1	0.021790357
128	0x3bd73344	0.0065673906
129	0x3c8e30dc	0.017357282
130	0xbd07eef7	-0.03318688
131	0xbdabf159	-0.08395643
132	0x3c702d84	0.014659289
133	0x3cd00037	0.025390727
134	0xbcf12edd	-0.029441291
135	0x3e32409b	0.17407458
136	0xbc8cfc00	-0.017210007
137	0xbe3015d2	-0.17195824
138	0x3ce20132	0.02758846
139	0xbd159310	-0.036517203
140	0xbb35b56d	-0.0027726546
141	0xbd9d0be7	-0.07668286
142	0xbe110a6d	-0.14164133
143	0x3d85b086	0.0652781

conv3_1.weight f4 [16, 1, 3, 3]
0	0x3d80388b	0.06260785
1	0x3f00bc06	0.502869
2	0x3e6a398d	0.22873516
3	0xbf0ff95a	-0.56239855
4	0x3e1faff8	0.1559447
5	0xbeb807dc	-0.35943496
6	0x3e8a3ac4	0.2699796
7	0xbeb7d472	-0.3590427
8	0xbe2aae12	-0.16667965
9	0x3c68de69	0.014213183
10	0xbe4b706a	-0.19867101
11	0xbe666b61	-0.225019
12	0x3df60ef3	0.1201457
13	0xbe7e737d	-0.24848743
14	0xbf01db94	-0.50725675
15	0x3db1d415	0.086830296
16	0xbedf59dd	-0.43623248
17	0x3e8615fb	0.26188645
18	0xbe18d4e3	-0.1492496
19	0xbe4eb8ce	-0.20187685
20	0xbe9d1de0	-0.30686855
21	0x3e37ed0e	0.17961523
22	0xbf122986	-0.5709461
23	0xbe6e483e	-0.23269746
24	0xbe728803	-0.23684697
25	0xbe51385a	-0.20431653
26	0xbcbd79df	-0.023129402
27	0xbed44107	-0.41455862
28	0x3d99c86a	0.07508929
29	0xbe0dfe60	-0.13866568
30	0xbd03c403	-0.032169353
31	0x3ea267b0	0.31719732
32	0xbe00dc41	-0.1258402
33	0x3e70701c	0.23480266
34	0x3e58d407	0.21174632
35	0x3e5facbc	0.21843237
36	0xbea1fa30	-0.3163619
37	0xbeec8ae7	-0.46199724
38	0xbd7aa178	-0.061189145
39	0x3e4adb8e	0.19810316
40	0x3e478f4e	0.1948826
41	0xbf131091	-0.57447153
42	0x3ee7096a	0.4512437
43	0x3e49dbfa	0.1971282
44	0x3e8b74e1	0.2723761
45	0xbda77998	-0.08177489
46	0xbec7578a	-0.38933975
47	0xbce2625e	-0.027634796
48	0xbed283cb	-0.41116175
49	0xbf1eda03	-0.6205141
50	0x3e9d4217	0.30714485
51	0x3e939cde	0.28830618
52	0x3e40833b	0.1880006
53	0xbeac109d	-0.33606425
54	0x3e723e3e	0.23656556
55	0xbe4b5bcb	-0.19859235
56	0xbf037c79	-0.51361805
57	0xbe752d85	-0.23943146
58	0x3f33bf62	0.702139
59	0xbec7e418	-0.3904121
60	0xbe39e774	-0.18154699
61	0xbdb42496	-0.08796041
62	0x3e8a68d7	0.2703311
63	0x3d9ef78b	0.07762059
64	0xbd2adf90	-0.041717112
65	0x3e959037	0.2921159
66	0xbe4eaa25	-0.20182092
67	0x3e2bc820	0.1677556
68	0x3e8ed6b8	0.27898192
69	0xbe16eba4	-0.14738327
70	0x3e3a1996	0.18173823
71	0x3e96e11f	0.2946863
72	0x3c3ceddc	0.0115313195
73	0xbe07d48f	-0.13264678
74	0xbeaa155b	-0.33219418
75	0xbebdcdc9	-0.37071064
76	0xbd570034	-0.052490428
77	0x3d870ac4	0.0659385
78	0xbe7af7a4	-0.2450853
79	0xbe43dbd6	-0.1912683
80	0x3d00f234	0.031480983
81	0x3e31bc3a	0.17356959
82	0xbe052bc9	-0.13004984
83	0x3e9ce9f1	0.30647233
84	0x3e0b2327	0.13587628
85	0xbefc08ee	-0.49225563
86	0xbefaa86d	-0.48956624
87	0xbc497f22	-0.012298377
88	0xbcb5202c	-0.022110067
89	0xbee4dca1	-0.44699576
90	0x3d088559	0.033330295
91	0xbe18d6fc	-0.1492576
92	0xbd27e675	-0.040991265
93	0xbdb14bac	-0.086570114
94	0x3efdda54	0.49580634
95	0x3e2a58e7	0.16635476
96	0xbe982394	-0.29714644
97	0xbe52cdb2	-0.20586279
98	0xbec8fd01	-0.39255527
99	0xbee0e346	-0.43923396
100	0x3e6d9dd0	0.23204732
101	0x3ce6a405	0.028154382
102	0x3d8b343b	0.067970715
103	0xbe3801f5	-0.17969497
104	0xbeee61e0	-0.46559048
105	0xbe243694	-0.16036445
106	0x3b4ca195	0.003122424
107	0xbe7764b3	-0.24159507
108	0xbdf0e5bf	-0.117625706
109	0xbe6c5ae8	-0.23081553
110	0x3ecb0e41	0.39659312
111	0x3e7459f8	0.23862445
112	0xbe5eec11	-0.2176974
113	0xbe5b246a	-0.2140061
114	0xbc019395	-0.007908721
115	0x3d8a33f6	0.06748192
116	0x3e6bf15f	0.23041295
117	0x3df4bdca	0.11950262
118	0xbe1bdba6	-0.15220508
119	0x3ea66076	0.3249547
120	0x3e5edd1a	0.21764031
121	0x3e7d6190	0.24744248
122	0xbe72b87a	-0.23703185
123	0xbccac4be	-0.024752017
124	0x3d595cce	0.05306702
125	0x3df261e0	0.118350744
126	0xbd96a33c	-0.07355353
127	0xbe6a8218	-0.2290119
128	0xbebc6c8f	-0.36801574
129	0x3e666a63	0.22501521
130	0x3ebba8d5	0.36652246
131	0xbe0729ca	-0.13199535
132	0xbeb9fe97	-0.3632705
133	0x3e94b759	0.29046133
134	0x3dfa8786	0.1223288
135	0x3f0e4161	0.5556851
136	0xbd157476	-0.03648802
137	0x3d8f321a	0.06991978
138	0xbcc7ce1b	-0.024390271
139	0x3d9444fe	0.07239722
140	0xbe4c20d4	-0.19934398
141	0x3e5ac674	0.21364766
142	0x3e8db664	0.27678216
143	0x3dede3b7	0.11615699

conv3_1.bias f4 [16]
0	0x3c87f079	0.016594158
1	0xbe1be458	-0.15223825
2	0xbdcdccb3	-0.10048809
3	0xbd095816	-0.03353127
4	0xbe11ee66	-0.14251098
5	0x3e01daef	0.12681173
6	0xbe50d6e0	-0.20394468
7	0x3f0279c2	0.5096704
8	0x3d9d8492	0.076913014
9	0x3e83b850	0.25726557
10	0xbcbfc80d	-0.023410821
11	0x3e696338	0.22791755
12	0x3ec6ffcf	0.3886704
13	0x3e84c2f1	0.25929978
14	0x3e4fbc85	0.20286758
15	0x3e1fa4ec	0.15590256

conv3_2.weight f4 [1, 16, 3, 3]
0	0xbe1d2938	-0.15347755
1	0x3e7c3707	0.24630366
2	0xbd9f4fec	-0.07778916
3	0xbe07cb21	-0.13261081
4	0x3e6676ba	0.22506228
5	0xbd386b14	-0.045023993
6	0xbccfd1ec	-0.025368653
7	0xbda37be3	-0.07982614
8	0xbe94646e	-0.28982872
9	0x3d42faca	0.047602452
10	0x3e1996c4	0.14998919
11	0xbd9ecda0	-0.077540636
12	0xbeb2358d	-0.3480648
13	0xbe3fb61a	-0.1872181
14	0x3d8f0873	0.069840334
15	0xbe230fe4	-0.1592403
16	0xbe8a3eff	-0.27001187
17	0x3d987e51	0.07445968
18	0x3c80f3a6	0.01574118
19	0xbd833086	-0.064057395
20	0xbc86232a	-0.01637419
21	0xbc9e3aec	-0.019315206
22	0xbe26f1ad	-0.1630313
23	0x3d0ea8c3	0.034828912
24	0x3c9d50e7	0.019203616
25	0xbe17c1c6	-0.14820012
26	0x3db0bf1b	0.086302005
27	0x3d7317b0	0.059348762
28	0xbd6fb718	-0.05852422
29	0xbcad7007	-0.021171583
30	0x3d9c3c4a	0.07628687
31	0x3d0e03fd	0.034671772
32	0x3d0e4da4	0.034742013
33	0x3c9e9985	0.019360313
34	0xbc8a13c5	-0.01685513
35	0x3dd9b5ab	0.106303535
36	0x3db64b0e	0.08901034
37	0x3da5b60a	0.08091362
38	0xbe2fc58d	-0.17165203
39	0xbdf02883	-0.11726477
40	0x3df173a7	0.11789637
41	0xbdd38179	-0.10327429
42	0xbd626caf	-0.05527943
43	0x3b71583a	0.0036826269
44	0x3e15796d	0.14597102
45	0x3e0c0d21	0.13676883
46	0x3d892cd3	0.06698003
47	0xbe6f3d76	-0.23363289
48	0x3db93a16	0.09044282
49	0xbe8812ae	-0.2657675
50	0xbe7e8cab	-0.24858348
51	0xbcb33f3f	-0.021880744
52	0xbe088896	-0.13333353
53	0xbe1ec148	-0.15503418
54	0x3c5590e0	0.013035029
55	0x3cc80df1	0.02442071
56	0x3cd970a4	0.026542969
57	0xbe553b5c	-0.20823425
58	0x3eb2b36f	0.34902522
59	0x3d12957e	0.035787098
60	0xbcaa2bb9	-0.020772802
61	0x3cb2787f	0.021785973
62	0xbe71638f	-0.23573135
63	0x3d002d4b	0.031293195
64	0x3ca20f31	0.019782634
65	0x3db95d6a	0.090510204
66	0xbdad2b2e	-0.084555015
67	0x3ce6de67	0.028182222
68	0xbddc7fc0	-0.10766554
69	0xbdd3a0f8	-0.10333437
70	0xbd34b1a2	-0.044114716
71	0xbd06d1b1	-0.03291482
72	0x3d12e40d	0.035862017
73	0x3c9a107c	0.018806688
74	0x3cb81bcd	0.022474194
75	0xbc647fee	-0.013946516
76	0xbd94e4ce	-0.072702035
77	0xbe4c7981	-0.19968225
78	0x3d8b1139	0.06790394
79	0xbdcfc00f	-0.10144054
80	0x3d23d8af	0.040001567
81	0x3e99c108	0.30030084
82	0x3dc223ff	0.09479522
83	0xbda6f0db	-0.08151408
84	0xbe82f568	-0.25577855
85	0xbe6855f5	-0.2268904
86	0x3db5f93f	0.088854305
87	0x3dc25a69	0.094899006
88	0x3d80025b	0.06250449
89	0x3d09a995	0.03360899
90	0xbe108de3	-0.14116625
91	0x3e2c961f	0.16854142
92	0x3cb0941a	0.021554995
93	0x3d8cd4fa	0.068765596
94	0x3e552365	0.20814283
95	0xbd0cd0f9	-0.03437898
96	0xbdd5e461	-0.104439504
97	0x3dd2da14	0.10295501
98	0xbcc56193	-0.024094379
99	0xbb809b26	-0.003924745
100	0xbd472fc7	-0.04862955
101	0xbc39ed96	-0.011348149
102	0xbe104cc6	-0.14091787
103	0xbe06f2b1	-0.13178517
104	0xbd4c2f3e	-0.04984974
105	0x3d39ac56	0.045330368
106	0xba3780b1	-0.00070000725
107	0x3d83f9d4	0.06444135
108	0xbdc7b3c8	-0.097510874
109	0xbec14ab1	-0.37752298
110	0x3e280a84	0.16410261
111	0xbe948e40	-0.29014778
112	0xbe7e1283	-0.24811749
113	0xbdf24a9b	-0.11830636
114	0xbe1f1aec	-0.15537614
115	0x3da2fe45	0.07958654
116	0xbde145c2	-0.10999633
117	0x3d289557	0.041158047
118	0x3d9a7a28	0.07542831
119	0x3d4dfebb	0.050291758
120	0xbd308f02	-0.043105133
121	0x3d8660ce	0.06561433
122	0x3ddc5eb8	0.10760254
123	0xbd8e2372	-0.069403544
124	0x3bf60558	0.0075079612
125	0x3d16e525	0.036839623
126	0x3d1f78b2	0.038933463
127	0x3dd8ea2b	0.10591539
128	0x3e1012d0	0.14069676
129	0xbd89c0b5	-0.06726209
130	0x3e28dc48	0.1649028
131	0x3e06f1ac	0.13178128
132	0xbbfe51fb	-0.0077612377
133	0x3d1df1c4	0.038560644
134	0xbb8955e1	-0.0041911458
135	0x3d21ee23	0.039533745
136	0x3d2bc2e0	0.041933894
137	0x3d58c400	0.052921295
138	0xbd793bd5	-0.060848076
139	0xbd7697bf	-0.06020331
140	0xbd5bd18b	-0.053666633
141	0x3d517187	0.05113366
142	0x3d32e0b8	0.04367134
143	0xbe1b72f9	-0.15180577
